models/rnn/weights/best.pth (torch, 56291 bytes, 10 tensors)

lstm.weight_ih_l0 f4 [128, 5]
0	0xbfa62661	-1.2980462
1	0xbf9de54c	-1.2335601
2	0xbf8d19d0	-1.1023502
3	0xbf90a35e	-1.1299856
4	0x3f38fccf	0.72260755
5	0xbf9e340c	-1.2359633
6	0xbf7d163e	-0.98862064
7	0xbf98b309	-1.1929637
8	0xbefb1129	-0.4903653
9	0xbe7084ed	-0.23488207
10	0xbf81b344	-1.0132833
11	0xbf7ad69b	-0.9798371
12	0xbefe2d3c	-0.49643886
13	0xbedf95ac	-0.43668878
14	0xbea95df1	-0.33079484
15	0x3e4d6a98	0.20060194
16	0x3ee351db	0.44398388
17	0x3e22f482	0.15913585
18	0x3ef14453	0.4712244
19	0x4015fb44	2.343461
20	0xbfb2e39a	-1.3975708
21	0xbf7eda93	-0.9955227
22	0xbf88dc5d	-1.069225
23	0xbf2baf76	-0.6706461
24	0xbe418df9	-0.18901815
25	0xbe6c1787	-0.2305585
26	0x3dee5175	0.116366304
27	0xbea1f551	-0.31632474
28	0xbee4cf4b	-0.44689402
29	0x3dc61440	0.09671831
30	0xbf884802	-1.0646975
31	0xbf68049c	-0.90632033
32	0xbf881346	-1.0630882
33	0xbf5b79f4	-0.8573296
34	0xbec0950d	-0.37613717
35	0x3f222c27	0.6334862
36	0x3ef00a83	0.4688302
37	0x3dc92733	0.0982193
38	0xbe189732	-0.14901426
39	0x3e6c3987	0.2306882
40	0xbfa21f30	-1.2665768
41	0xbf7d623a	-0.98978007
42	0xbf7d89be	-0.990383
43	0xbf6ecf5b	-0.9328515
44	0xbf9e9717	-1.2389859
45	0xbf4ba6e6	-0.7955154
46	0xbf180390	-0.59380436
47	0xbf84b80d	-1.0368668
48	0xbea94989	-0.33063915
49	0xbe853043	-0.26013383
50	0xbf56ea28	-0.83951044
51	0xbf2fd240	-0.6868019
52	0xbf73120c	-0.9494941
53	0xbf63603a	-0.88818705
54	0xbf44ac10	-0.76825047
55	0xbf7ac266	-0.9795288
56	0xbf557eaa	-0.833964
57	0xbf717d9f	-0.9433231
58	0xbf17c498	-0.59284353
59	0xbefcc8af	-0.4937186
60	0x3ef84891	0.48492864
61	0x3f429506	0.7600864
62	0x3cc2993e	0.023754712
63	0x3ea3eb88	0.32015634
64	0x3f193790	0.59850407
65	0x3ed93c53	0.42428836
66	0x3f42c1ff	0.76077265
67	0xbd994053	-0.07482972
68	0x3e3cefc5	0.1845084
69	0x3ef1c477	0.47220203
70	0x3f261abb	0.6488454
71	0x3f1a7b84	0.6034472
72	0x3ec508f4	0.38483393
73	0x3f122a47	0.5709576
74	0x3fa84aad	1.3147789
75	0xbe7ae391	-0.24500872
76	0x3dab52e0	0.083654165
77	0xbec8ee5d	-0.39244357
78	0xbe7921e8	-0.2432934
79	0xbe1febd8	-0.15617311
80	0xbf67f606	-0.90609777
81	0xbf239409	-0.6389776
82	0xbf8d11ea	-1.1021092
83	0xbf301d50	-0.6879473
84	0xbf0a8c4a	-0.54120314
85	0xbdce65b9	-0.10077996
86	0x3e8e46a7	0.27788278
87	0xbebef431	-0.37295678
88	0xbea38e1e	-0.31944364
89	0x3c69a72c	0.014261048
90	0xba8eb50c	-0.0010887696
91	0x3d58d33e	0.05293583
92	0xbe82b0ab	-0.25525412
93	0xbeb2373b	-0.34807763
94	0xbec7dd21	-0.39035895
95	0xbf8486fc	-1.0353694
96	0xbf5229ca	-0.82095015
97	0xbf98bbf1	-1.1932355
98	0xbf38c57f	-0.72176355
99	0xbef72931	-0.48273614
100	0x3d070ef5	0.03297325
101	0x3d5f2a96	0.054483972
102	0x3e00538c	0.1253187
103	0xbd943bf3	-0.07237997
104	0x3d16e9d7	0.0368441
105	0xbf23fcf8	-0.64057875
106	0xbe936da0	-0.28794575
107	0xbf15ebd3	-0.58562964
108	0xbf0060e2	-0.5014783
109	0xbed6f0bc	-0.4198054
110	0xbed53cb4	-0.41647875
111	0xbf651526	-0.89485395
112	0xbf405005	-0.751221
113	0xbee2a691	-0.44267705
114	0xbc347810	-0.011014953
115	0xbe50f65c	-0.20406479
116	0xbdf0dccf	-0.11760866
117	0xbce4b855	-0.027919928
118	0xbde449a2	-0.11146857
119	0x3e8cd8c4	0.2750913
120	0x3da14e59	0.07876272
121	0x3f1423cd	0.5786713
122	0x3e17602e	0.14782783
123	0xbd1d077c	-0.038337216
124	0x3f1c48ae	0.610484
125	0xbef2e92b	-0.47443518
126	0xbef3763f	-0.47551152
127	0xbea358a5	-0.31903568
128	0xbf080e98	-0.5314727
129	0xbf1e364e	-0.6180161
130	0x3e2c2e26	0.16814479
131	0x3e63ffc3	0.22265534
132	0xbe19df52	-0.15026596
133	0xbe963aca	-0.29341727
134	0x3e46f25b	0.19428389
135	0xbf8f211c	-1.1181979
136	0xbf1b1c60	-0.6059017
137	0xbf20850d	-0.6270302
138	0xbd2d190e	-0.042260222
139	0x3eec4b33	0.46151122
140	0xbf8e5540	-1.1119766
141	0xbf40f656	-0.7537588
142	0xbf80ffe1	-1.0078088
143	0xbf5fe380	-0.8745651
144	0x3f0d6a48	0.552403
145	0xbd355c90	-0.044277728
146	0x3e29d792	0.1658614
147	0xbedccb0d	-0.43123665
148	0xbea51f29	-0.32250336
149	0x3f2f2ec8	0.6843076
150	0xbf4d0d59	-0.8009849
151	0xbf7be7f2	-0.98400795
152	0xbf60a530	-0.87752056
153	0xbf7e0c22	-0.99237263
154	0xbf798176	-0.97463167
155	0xbf740c32	-0.9533111
156	0xbf8e70d7	-1.1128186
157	0xbf9855b6	-1.1901157
158	0xbf83e06b	-1.0302862
159	0xbefbff70	-0.4921832
160	0xbf2f1d3f	-0.68404
161	0xbefd06c2	-0.49419218
162	0xbe573409	-0.21015944
163	0xbec4f195	-0.38465562
164	0x3e02e299	0.12781753
165	0xbe08969c	-0.13338703
166	0xbea08c6b	-0.3135713
167	0xbec5e9c2	-0.38654906
168	0xbd069841	-0.032860044
169	0x3df334cd	0.11875305
170	0xbe698ea4	-0.2280832
171	0xbe4254c6	-0.18977651
172	0xbe7b9e1e	-0.24572036
173	0xbd6abe5a	-0.05731044
174	0xbea28ab6	-0.31746453
175	0x3d05ffb1	0.03271455
176	0x3e4d20f2	0.20032099
177	0x3eb5a933	0.3548065
178	0x3df19716	0.117963955
179	0x3f15d324	0.585253
180	0xbf67f284	-0.90604424
181	0xbf4b0041	-0.7929726
182	0xbf27ee41	-0.6559792
183	0xbf080f42	-0.5314828
184	0xbde2ae9c	-0.1106846
185	0x3d5301b6	0.051515304
186	0xbeb74d2d	-0.35801068
187	0xbd5e4bca	-0.054271497
188	0xbef647c5	-0.4810163
189	0xbedc4048	-0.43017793
190	0x3f7e78de	0.9940318
191	0x3f82039a	1.0157349
192	0x3f789c65	0.9711364
193	0x3f90a3e3	1.1300014
194	0x3f922067	1.1416138
195	0xbe749b8d	-0.23887463
196	0xbe7eae8b	-0.2487127
197	0xbed76543	-0.42069444
198	0xbf2678e6	-0.65028226
199	0xbd7886dc	-0.060675487
200	0x3f955c8e	1.166887
201	0x3fb69409	1.4263927
202	0x3f96971c	1.1764865
203	0x3fba7e0c	1.4569716
204	0x3faa4815	1.3303248
205	0xbf6d6763	-0.9273588
206	0xbf588185	-0.8457263
207	0xbf1999f1	-0.6000052
208	0xbf1d1221	-0.6135579
209	0xbf1d0b6f	-0.6134557
210	0xbe8904d2	-0.2676149
211	0xbe9bb720	-0.3041315
212	0xbe509345	-0.20368679
213	0x3c917e40	0.017760396
214	0xbd660579	-0.056157563
215	0xbf3092bd	-0.68973905
216	0xbe95fb5b	-0.29293332
217	0xbecaa091	-0.39575627
218	0xbde3c03e	-0.11120652
219	0x3cf00c2a	0.029302675
220	0x3e6c666e	0.23085949
221	0xbe6dd398	-0.23225248
222	0xbe1a9122	-0.15094426
223	0xbefefc3c	-0.49801815
224	0xbda4f0cc	-0.08053741
225	0xbf4559da	-0.7709023
226	0xbf24180c	-0.6409919
227	0xbdf0f5be	-0.117656216
228	0x3c914996	0.017735284
229	0x3c836a30	0.016041845
230	0x3d44372f	0.04790419
231	0x3ecb4389	0.39699963
232	0x3e5d1d6e	0.21593258
233	0x3cf9a21a	0.030472804
234	0x3ee2f153	0.4432474
235	0xbe19556e	-0.14973995
236	0xbeb121c1	-0.34596065
237	0xbe3c5871	-0.18393113
238	0xbe960455	-0.2930018
239	0xbd7e7b17	-0.062129106
240	0xbe8cbdf5	-0.27488676
241	0xbe8611bb	-0.26185402
242	0xbf12e071	-0.5737372
243	0xbe33c8ea	-0.17557111
244	0xbefe0786	-0.49615115
245	0xbdfccf5e	-0.1234424
246	0xbe6a4e80	-0.22881508
247	0xbdf082b4	-0.1174368
248	0x3d8e8a92	0.06960024
249	0xbda5da88	-0.08098322
250	0xbf6532d3	-0.89530677
251	0xbf37824f	-0.7168321
252	0xbf295e7c	-0.66159797
253	0xbf49e73c	-0.7886846
254	0xbeaeb83c	-0.34124935
255	0xbf109016	-0.5646986

lstm.weight_hh_l0 f4 [128, 32]
0	0xbf300991	-0.687646
1	0x3f215562	0.6302091
2	0xbd2f2498	-0.042759508
3	0xbe12ae7d	-0.14324374
4	0x3f2b0b7b	0.6681439
5	0xbef8cea5	-0.48595157
6	0x3e1fd423	0.15608267
7	0xbf20fe5a	-0.6288811
8	0x3e7a861b	0.2446522
9	0xbc9753bc	-0.018472545
10	0x3f08668f	0.5328149
11	0x3f1a9bbf	0.603939
12	0x3f241735	0.6409791
13	0x3ef61b91	0.48067906
14	0xbe445684	-0.19173628
15	0x3f31c6ac	0.69443774
16	0xbf40f70b	-0.7537696
17	0x3f07a4ab	0.5298564
18	0xbe12f242	-0.14350227
19	0x3f41c2d0	0.75687885
20	0xbe2375e1	-0.15962936
21	0xbf1bb7b2	-0.6082717
22	0xbe83832c	-0.25686014
23	0x3e873da3	0.26414213
24	0xbad19ac1	-0.0015991555
25	0xbe8eaceb	-0.278663
26	0x3f030e2d	0.51193506
27	0xbf09ce5a	-0.5383049
28	0x3f2b42ba	0.6689869
29	0x3dd5a27e	0.104313836
30	0x3cbb84b5	0.022890428
31	0xbeb9d009	-0.3629153
32	0xbed4a841	-0.41534618
33	0x3d0d8dab	0.034558933
34	0xbe943bdb	-0.28951916
35	0x3e91e1c6	0.28492564
36	0x3e6b3bf1	0.22972085
37	0xbe4090ab	-0.18805186
38	0xbdd8ff9d	-0.10595629
39	0x3e08a3bd	0.13343711
40	0xbda1336e	-0.078711376
41	0xbe4fd4a1	-0.20295955
42	0xbe82e996	-0.25568837
43	0xbdb9d96d	-0.09074674
44	0x3dbe2606	0.09284596
45	0x3c9fd678	0.019511446
46	0x3bb352f3	0.005472535
47	0xbba9c84f	-0.0051813493
48	0xbe5f072c	-0.2178008
49	0xbe9c4248	-0.3051932
50	0x3e5355e5	0.20638235
51	0x3e91c252	0.28468567
52	0xbbf90b96	-0.007600258
53	0x3dee4aa5	0.11635331
54	0xbd92ab03	-0.07161524
55	0x3ec3fa04	0.38276684
56	0x3eae9454	0.3409754
57	0xbc1b50f6	-0.009479752
58	0x3c9dbddb	0.01925557
59	0xbe8ff0f3	-0.28113517
60	0x3d71e9ad	0.05906074
61	0x3c95d78b	0.018291255
62	0x3df59b9c	0.11992571
63	0x3cc24302	0.023713592
64	0xbed10401	-0.40823367
65	0x3e780aba	0.24222842
66	0x3e6ceeb5	0.23137935
67	0xbeb0d794	-0.34539473
68	0xbe31c0d9	-0.17358722
69	0xbf37608f	-0.7163171
70	0x3e98a5b9	0.29813936
71	0x3e14fe3b	0.14550106
72	0x3ece66c3	0.40312776
73	0xbd6452d2	-0.055743046
74	0x3e6d8a23	0.23197226
75	0xbdf388c2	-0.11891319
76	0xbd65beb1	-0.05609006
77	0xbed86264	-0.42262566
78	0xbea2a9b7	-0.31770107
79	0xbda13cac	-0.078729
80	0x3db1e2cb	0.086858355
81	0xbeae64a0	-0.34061146
82	0x3ec089db	0.37605175
83	0xbe796b19	-0.24357261
84	0xbed46dc6	-0.4149
85	0xbe0dabab	-0.13835017
86	0x3dd24e18	0.102688015
87	0x3f3a261a	0.7271439
88	0xbe025f78	-0.12731731
89	0x3dcb7bc2	0.09935714
90	0xbf024b80	-0.50896454
91	0xbe83ae75	-0.25719038
92	0xbd0a96df	-0.033835288
93	0x3f07c870	0.5304022
94	0x3d181631	0.03713054
95	0xbdba2e0d	-0.09090815
96	0x3f04cb7c	0.5187299
97	0xbf815c66	-1.0106323
98	0xbe924c7f	-0.28573987
99	0x3f2e42e4	0.68070817
100	0xbe7045f8	-0.23464191
101	0x3fa079d4	1.2537179
102	0x3db00a4e	0.085957155
103	0xbf1cae68	-0.6120362
104	0xbf4338ec	-0.7625873
105	0xbd0e686c	-0.034767553
106	0xbf13e809	-0.5777593
107	0xbf25912a	-0.6467463
108	0xbeb75bbd	-0.35812178
109	0x3ece292b	0.40265784
110	0x3f19864c	0.59970546
111	0x3ef598aa	0.47968036
112	0x3f139bc1	0.57659537
113	0xbf0afc00	-0.5429077
114	0x3f2c091c	0.672014
115	0xbf2b655b	-0.6695153
116	0xbe1d22cf	-0.1534531
117	0x3cb1da29	0.021710472
118	0xbecdfedf	-0.40233514
119	0xbf300a2d	-0.68765527
120	0xbf987685	-1.1911169
121	0x3e29d1bd	0.16583915
122	0xbd70d77c	-0.058799252
123	0x3d245f47	0.040129926
124	0xbe0e6ef4	-0.13909513
125	0xbf7b2a39	-0.981113
126	0x3f17247d	0.5904005
127	0x3e6400fe	0.22266003
128	0xbf8b51b7	-1.0884312
129	0x3f436c02	0.7633668
130	0xbf2a4a0b	-0.6651923
131	0x3e040abe	0.12894723
132	0x3f027fae	0.50976074
133	0xbeea807e	-0.45801157
134	0xbe82b7d4	-0.25530875
135	0xbed6edfb	-0.4197844
136	0x3e9dc201	0.30812076
137	0xbeb422f2	-0.3518291
138	0x3e08af0a	0.13348022
139	0x3e9a40f5	0.30127683
140	0x3f41da90	0.75724125
141	0x3f8cd207	1.1001595
142	0xbf1e96e7	-0.6194901
143	0x3d8693b3	0.0657114
144	0xbeb6d9e1	-0.35713103
145	0x3ed72c82	0.42026144
146	0xbe09a6d1	-0.13442542
147	0x3ef95809	0.48699978
148	0x3e06bf41	0.13158895
149	0xbda54272	-0.08069314
150	0xbf1aac66	-0.6041931
151	0x3c149d2f	0.009070679
152	0x3f6e2aef	0.9303426
153	0x3b39f4c5	0.0028374654
154	0x3e2c8597	0.16847835
155	0xbf5f4ef2	-0.87229836
156	0x3f4fecb1	0.8122054
157	0xbebdace1	-0.3704596
158	0x3dc941bf	0.09826993
159	0xbecc75f9	-0.39933756
160	0x3dc901c2	0.098147884
161	0x3e8e58f3	0.27802238
162	0x3e377776	0.17916664
163	0x3ed2d498	0.4117782
164	0x3dd77f93	0.1052238
165	0x3ea87cba	0.3290766
166	0x3e21f53e	0.15816209
167	0xbf6b5782	-0.919304
168	0xbea2101c	-0.31652915
169	0x3c04b1d3	0.008099037
170	0x3e5ce1ae	0.21570465
171	0xbe3347eb	-0.17507903
172	0xbe8be51c	-0.27323234
173	0x3e7f8191	0.2495177
174	0x3f3577e0	0.7088604
175	0xbe849cd1	-0.2590089
176	0xbe491451	-0.19636656
177	0xbedebb44	-0.43502247
178	0x3e48cb26	0.19608745
179	0x3e84a17d	0.25904456
180	0x3de64759	0.11244077
181	0xbf750ce7	-0.9572281
182	0xbd86d901	-0.06584359
183	0x3e7ea24f	0.24866603
184	0xbf6ecb54	-0.93279004
185	0xbdc211f1	-0.09476078
186	0xbf61e5ec	-0.8824146
187	0x3e00a272	0.12561968
188	0x3e4bbd12	0.19896343
189	0xbf1780b1	-0.5918074
190	0xbea2dcf8	-0.3180921
191	0xbedd994d	-0.43281022
192	0xbf4e0cbe	-0.80488193
193	0x3e984864	0.2974273
194	0xbf4169d8	-0.7555213
195	0xbece653d	-0.40311614
196	0xbe5f177f	-0.21786307
197	0xbf56594d	-0.8373001
198	0x3e45514d	0.19269295
199	0xbdc0f8a9	-0.09422428
200	0x3de7af64	0.1131275
201	0xbfba8e62	-1.4574702
202	0x3f19618e	0.5991448
203	0xbf0f225b	-0.559118
204	0x3d7e31f9	0.062059376
205	0xbeafd444	-0.34341633
206	0x3f091cce	0.5355958
207	0x3efb8cea	0.49130946
208	0x3f577883	0.8416826
209	0xbeb9e071	-0.36304048
210	0x3ea6c0a9	0.32568863
211	0x3f217235	0.6306489
212	0xbf2cdf3c	-0.6752813
213	0xbe743ee4	-0.23852116
214	0xbf9f2f8a	-1.2436383
215	0x3ea859ff	0.32881162
216	0x3e98c0a0	0.2983446
217	0x3ea7ca8a	0.32771713
218	0x3e9af953	0.30268344
219	0xbf21eae6	-0.6324905
220	0x3f57dc40	0.8432045
221	0x3e175fab	0.14782588
222	0x3ea58280	0.32326126
223	0xbe8cf779	-0.27532557
224	0xbee8cc64	-0.45468438
225	0x3df6f35c	0.12058136
226	0xbd3635ea	-0.04448501
227	0xbe921d5d	-0.28538027
228	0xbd19c19d	-0.03753816
229	0xbf09c33f	-0.53813547
230	0xbe38c851	-0.18045165
231	0xbf13fbcc	-0.57806087
232	0xbd0af4d0	-0.033924878
233	0x3e45127f	0.19245337
234	0xbf1446a1	-0.5792027
235	0xbeb5aaa8	-0.35481763
236	0xbd9a31ae	-0.07529007
237	0xbefc5116	-0.49280614
238	0xbd95ff18	-0.07324046
239	0x3ef11238	0.47084212
240	0xbf03fe7c	-0.5156019
241	0x3eaac5f3	0.33354148
242	0x3f3a6e60	0.7282467
243	0xbe28eccf	-0.16496585
244	0xbc2235a5	-0.009900485
245	0x3e34ae1b	0.17644541
246	0xbe45ea05	-0.19327553
247	0xbf3bacc2	-0.7331048
248	0x3dc7afb4	0.097503096
249	0xbe93ded4	-0.28880942
250	0x3ebd40d0	0.3696351
251	0xbdf9ef61	-0.12203861
252	0x3e271f66	0.16320571
253	0xbf2c7a71	-0.6737433
254	0xbdd2ca7e	-0.102925286
255	0xbd4067d3	-0.046974014

lstm.bias_ih_l0 f4 [128]
0	0x3e954ed9	0.29161718
1	0xbeee738e	-0.46572536
2	0xbf34eaf6	-0.7067102
3	0x3f75fbda	0.9608742
4	0xbdd4ce20	-0.10390878
5	0xbc39f3c7	-0.011349625
6	0xbf5354ea	-0.82551444
7	0xbc7fd996	-0.015615841
8	0xbfb2da17	-1.3972806
9	0xbd63f772	-0.055655904
10	0xbec3ef9e	-0.3826875
11	0xbed49b04	-0.41524518
12	0x3eebddf3	0.4606777
13	0x3f22c2b3	0.6357834
14	0x3f93c1d8	1.1543531
15	0xbeb8ecbd	-0.36118117
16	0xbf165bc5	-0.5873378
17	0x3e404c5b	0.18779127
18	0xbf1bac3c	-0.60809684
19	0xbe91f03e	-0.28503603
20	0x3d4919fb	0.049097043
21	0xbec55100	-0.3853836
22	0xbe5b8c5d	-0.21440263
23	0xbe8c28fc	-0.2737502
24	0x3eb9e603	0.36308298
25	0xbf621e30	-0.8832731
26	0x3e0425f6	0.12905106
27	0xbe04e745	-0.12978847
28	0xbe4df2a3	-0.2011209
29	0x3e68bd5e	0.22728488
30	0xbf493b5d	-0.78606206
31	0xbe5a17ce	-0.21298143
32	0x3e0ba35d	0.13636537
33	0xbe5b151b	-0.2139477
34	0xbebdeb06	-0.3709337
35	0x3dbf4abc	0.09340426
36	0xbb697bb7	-0.0035626718
37	0xbe109f22	-0.14123204
38	0x3fa3f1f6	1.2808216
39	0xbe89684f	-0.26837394
40	0x3fb2b9e7	1.3962983
41	0xbf1bfac8	-0.60929537
42	0x3dbf8116	0.09350793
43	0xbe875fa4	-0.26440156
44	0xbe9b4c16	-0.30331486
45	0xbcad7e03	-0.021178251
46	0x3e0b214d	0.13586922
47	0xbea3fcf5	-0.32028928
48	0xbefb2c81	-0.4905739
49	0x3daca4ee	0.08429895
50	0xbef2a206	-0.4738924
51	0x3e2205fe	0.15822598
52	0x3f3f39df	0.7469768
53	0xbe255dd1	-0.1614907
54	0xbe225a8b	-0.15854852
55	0x3e013087	0.12616168
56	0xbe3038e9	-0.1720921
57	0xbf62629f	-0.88431734
58	0xbf927ede	-1.1444967
59	0xbeae60ce	-0.3405823
60	0xbdf03ddb	-0.11730548
61	0xbf13df6b	-0.57762784
62	0xbf0a2d9b	-0.5397584
63	0xbf03d887	-0.5150227
64	0xbf0768c8	-0.5289426
65	0x3eac0b6b	0.3360246
66	0xbd3a3d5b	-0.04546867
67	0x3e74bd46	0.23900327
68	0x3ef1af98	0.4720428
69	0x3e0fc52b	0.14040057
70	0xbddd95e8	-0.10819608
71	0xbe19e9b2	-0.15030554
72	0x3c38c4ab	0.011277358
73	0xbe817084	-0.25281155
74	0x3e81a8d6	0.25324124
75	0x3f00c8c0	0.5030632
76	0xbc155a4f	-0.0091157695
77	0x3e3b0476	0.1826342
78	0x3e8de1ea	0.2771142
79	0x3db250e5	0.08706836
80	0xbe5c8268	-0.21534121
81	0xbe5ecad3	-0.21757059
82	0x3e1352b5	0.14387019
83	0x3eecc4d1	0.4624391
84	0x3ebaf4b4	0.3651482
85	0xbeff0341	-0.4980717
86	0xbe9c4f58	-0.30529284
87	0xbe0eca0e	-0.13944265
88	0xbe84c6af	-0.25932834
89	0xbd8f7eb5	-0.07006589
90	0x3df39bde	0.11894964
91	0xbe46bc36	-0.19407734
92	0x3f45949c	0.77179885
93	0xbda92664	-0.082592756
94	0xbec16e54	-0.37779486
95	0xbef94030	-0.48681784
96	0x3ea513b7	0.32241604
97	0xbefddb50	-0.49581385
98	0xbf034779	-0.51280934
99	0x3f58e3ce	0.847226
100	0xbd121a35	-0.035669524
101	0xbe4c9e7f	-0.19982336
102	0xbe390139	-0.18066873
103	0xbe88bad3	-0.26705036
104	0xbe8855d9	-0.26627997
105	0xbdd83992	-0.10557856
106	0xbf0ac9c2	-0.5421411
107	0xbea27137	-0.31727
108	0x3eddc82d	0.43316785
109	0x3f1d5648	0.6145978
110	0x3f4814d5	0.7815679
111	0xbe2fa595	-0.17153008
112	0xbf3009ff	-0.6876525
113	0x3dcee040	0.10101366
114	0xbf0be868	-0.546515
115	0xbef561a6	-0.47926062
116	0xbe8150de	-0.2525701
117	0xbe953589	-0.29142407
118	0xbe556f94	-0.20843345
119	0xbd73466c	-0.05939333
120	0x3efdfde8	0.49607778
121	0xbf21038d	-0.62896043
122	0x3def7fec	0.11694321
123	0xbdbe2a66	-0.092854306
124	0xbe4e8342	-0.20167258
125	0x3e51b8ad	0.20480604
126	0xbf1ae1ce	-0.605008
127	0xbed3c07e	-0.41357797

lstm.bias_hh_l0 f4 [128]
0	0x3e2647e0	0.16238356
1	0xbe91d307	-0.28481314
2	0xbf3cbf3a	-0.7372929
3	0x3f8b3c07	1.0877694
4	0xbdaebc62	-0.08532025
5	0xbd4b996c	-0.04970686
6	0xbf6049f4	-0.87612844
7	0xbe78a546	-0.24281797
8	0xbf9a14a0	-1.2037544
9	0xbb880e2e	-0.004152081
10	0xbf145053	-0.57935065
11	0xbe49976e	-0.19686672
12	0x3f0e9c36	0.5570711
13	0x3e9859b7	0.29755947
14	0x3f70d16d	0.9406956
15	0xbebadd29	-0.36496857
16	0xbf3a8e50	-0.728734
17	0x3e65860b	0.22414415
18	0xbeee8f4f	-0.4659371
19	0xbeb14dcd	-0.3462967
20	0xbd8ec1f6	-0.06970589
21	0xbe97f958	-0.29682422
22	0xbeb5a019	-0.35473707
23	0x3d1cd5af	0.038289722
24	0x3ee8b3c6	0.45449656
25	0xbf0cfdf4	-0.55075
26	0xb8c3df0d	-9.339871e-05
27	0xbe88e186	-0.2673456
28	0xbdce5647	-0.1007505
29	0x3e8d478b	0.27593645
30	0xbf29e5e3	-0.66366404
31	0xbe1ec780	-0.1550579
32	0xbddd48df	-0.10804915
33	0xbd6c9176	-0.05775591
34	0xbed2dd40	-0.41184425
35	0x3e8d2398	0.27566218
36	0xbe20ad33	-0.1569107
37	0xbe85d094	-0.26135695
38	0x3fa3795f	1.2771415
39	0xbe8438c2	-0.25824553
40	0x3fa79ce5	1.3094755
41	0xbeeea572	-0.466106
42	0xbd534188	-0.051576167
43	0xbdbf2cfc	-0.09334752
44	0xbe4ee620	-0.20204973
45	0xbe1607aa	-0.14651361
46	0x3e349379	0.17634381
47	0xbed94cc2	-0.42441374
48	0xbedd85fc	-0.43266284
49	0xbe3b2e90	-0.18279481
50	0xbf193d00	-0.59858704
51	0x3d84c960	0.06483722
52	0x3f31b4f7	0.69416755
53	0x3d8118d0	0.06303561
54	0xbe8a23e8	-0.2698052
55	0x3dd00df7	0.101589136
56	0xbe4a6881	-0.19766428
57	0xbf47b6a1	-0.78013045
58	0xbf8927fb	-1.0715326
59	0xbeade079	-0.33960322
60	0x3e142587	0.1446744
61	0xbf3fc122	-0.7490407
62	0xbf11fcc6	-0.57026327
63	0xbef8b8c0	-0.48578453
64	0xbf075577	-0.52864784
65	0x3f2244c4	0.6338618
66	0xbe0605ea	-0.13088194
67	0x3e550cb0	0.20805621
68	0x3f16bed5	0.58884937
69	0x3e0c63a1	0.1370988
70	0xbdb3fddd	-0.08788655
71	0xbef77843	-0.4833394
72	0x3d9852e1	0.07437683
73	0xbeec77fa	-0.46185285
74	0x3e8b11b4	0.27161944
75	0x3ef0e146	0.4704687
76	0x3cd0d4a9	0.02549203
77	0xbcc97b30	-0.024594873
78	0x3eb0457b	0.3442801
79	0x3ebccaa1	0.36873344
80	0xbe1a3cf2	-0.15062311
81	0xbcf1dfe0	-0.029525697
82	0xbd250587	-0.040288474
83	0x3ee98dcb	0.45615992
84	0x3ecc784f	0.39935538
85	0xbe930829	-0.28717163
86	0xbd5c504a	-0.053787507
87	0xbe9af2f2	-0.30263478
88	0xbea5eb40	-0.32406044
89	0xbd312a39	-0.043253157
90	0xbe2b47fe	-0.16726682
91	0xbdb77721	-0.08958269
92	0x3f229bfe	0.63519275
93	0xbe5930f6	-0.21210083
94	0xbe8e3931	-0.2777801
95	0xbf0a0803	-0.53918475
96	0x3db75b70	0.08952987
97	0xbf1b183a	-0.6058384
98	0xbf1c242c	-0.60992694
99	0x3f3bb584	0.73323846
100	0x3ddfd8be	0.10930012
101	0x3cc6c2fa	0.024262894
102	0xbe844a28	-0.25837827
103	0xbdf5a6ad	-0.119946815
104	0xbe4b8f1f	-0.19878815
105	0xbe4db86c	-0.20089883
106	0xbf03a8c0	-0.5142937
107	0xbeaaa286	-0.3332712
108	0x3eec8b27	0.46199915
109	0x3f30aca3	0.6901342
110	0x3f7fa651	0.99863154
111	0xbeb2d6d2	-0.3492952
112	0xbf26a3fa	-0.6509396
113	0xbd94de00	-0.07268906
114	0xbefeaf8e	-0.49743313
115	0xbef21a0c	-0.47285497
116	0xbdd0c84e	-0.10194455
117	0xbe842738	-0.25811172
118	0xbe81d1c6	-0.25355357
119	0xbe216fe7	-0.15765344
120	0x3ead7301	0.33876804
121	0xbf3af11a	-0.7302414
122	0x3dddb88d	0.10826216
123	0xbe278800	-0.16360474
124	0xbd37cd2f	-0.044873413
125	0x3dc46ed8	0.09591454
126	0xbf0693bd	-0.5256918
127	0xbed21fb8	-0.41039824

lstm.weight_ih_l1 f4 [128, 32]
0	0xbf4185a5	-0.7559455
1	0x3deca389	0.11554629
2	0x3f1a1808	0.6019292
3	0x3e9a9f08	0.30199456
4	0x3efae4eb	0.49002776
5	0xbe4186f8	-0.18899143
6	0xbf9fc3b4	-1.2481599
7	0xbe0131cf	-0.12616657
8	0xbe935913	-0.28778896
9	0x3f615823	0.8802511
10	0xbeb4b0db	-0.3529118
11	0xbdcb3135	-0.09921495
12	0x3e6646e4	0.2248798
13	0xbec14f13	-0.3775564
14	0x3eefb9f7	0.46821567
15	0x3eabdc46	0.33566493
16	0xbdb06941	-0.086138256
17	0x3e8a0942	0.26960188
18	0xbe1f30a3	-0.15545897
19	0x3d4a994a	0.049462594
20	0x3de88799	0.11353988
21	0x3edbf2d6	0.42958707
22	0x3f89e891	1.0774099
23	0xbf227a1c	-0.63467574
24	0x3f4f9dc3	0.811001
25	0xbea495c8	-0.32145524
26	0x3f569240	0.8381691
27	0x3ee860ad	0.45386258
28	0xbea0752e	-0.313394
29	0xbef11264	-0.47084343
30	0xbe18500f	-0.1487429
31	0x3db216b8	0.086957395
32	0xbdaa810d	-0.08325396
33	0x3ea5b91e	0.32367796
34	0x3cd66262	0.02616996
35	0x3eeca370	0.46218443
36	0x3e0a8dda	0.13530675
37	0xbe2d3bd1	-0.1691735
38	0x3e798e5f	0.24370717
39	0xbf211b5f	-0.6293239
40	0x3e594985	0.21219452
41	0xbdd76fe7	-0.105193906
42	0xbd3dfb68	-0.046382338
43	0xbe87f056	-0.2655055
44	0x3e0ee835	0.13955767
45	0xbe983314	-0.2972647
46	0x3f198868	0.59973764
47	0x3e474915	0.19461472
48	0xbddad7cc	-0.10685691
49	0x3db1bae2	0.08678223
50	0xbebec995	-0.3726317
51	0x3e9f8d38	0.3116243
52	0xbf06dbe9	-0.52679306
53	0xbe465a53	-0.19370393
54	0x3ea84116	0.32862157
55	0x3e1bc4c1	0.15211774
56	0x3e4e8589	0.20168127
57	0xbe768344	-0.24073511
58	0x3da0dbe9	0.078544445
59	0x3ebc7619	0.3680885
60	0xbdb26a40	-0.08711672
61	0x3d4a24a0	0.049351335
62	0x3e3bee13	0.18352537
63	0xbda463be	-0.08026837
64	0xbf02a754	-0.5103657
65	0x3f198f1f	0.5998401
66	0x3e533559	0.2062582
67	0xbd28cce6	-0.04121103
68	0x3ef44804	0.47711194
69	0x3f18438e	0.5947808
70	0xbe8477fc	-0.2587279
71	0x3f2a686c	0.66565585
72	0x3993b700	0.0002817437
73	0xbe8e6b08	-0.27816033
74	0x3df25774	0.118330866
75	0xbd8c0d7c	-0.068385094
76	0xbfa0a674	-1.2550797
77	0xc006f431	-2.1086543
78	0x3f3dd250	0.74149036
79	0xbf9574c4	-1.1676259
80	0x3e751d9f	0.23937081
81	0xbf3d9899	-0.7406097
82	0xbf66a7c2	-0.9009973
83	0x3e94a9f1	0.29035905
84	0x3d33d1ed	0.043901373
85	0xbf0b0331	-0.54301745
86	0x3e6dd689	0.2322637
87	0x3f44f29d	0.769327
88	0xbf136400	-0.5757446
89	0x3efba0eb	0.49146208
90	0xbf1467f5	-0.57971126
91	0x3ea6c4c7	0.32572004
92	0xbd046b21	-0.03232873
93	0x3f29ae77	0.6628184
94	0xbeece608	-0.4626925
95	0xbf2e0679	-0.67978626
96	0x3e841426	0.25796622
97	0x3d2ec87c	0.042671666
98	0x3eaac77c	0.3335532
99	0xbd8e2724	-0.06941059
100	0xbe93bc19	-0.28854445
101	0xbf128b59	-0.5724388
102	0xbe4c8dd5	-0.1997598
103	0xbb661883	-0.0035109825
104	0x3cf6570c	0.030070804
105	0x3e20641a	0.15663186
106	0x3e50b0bb	0.20379917
107	0xbeab5ecc	-0.33470762
108	0x3ee2e72d	0.44316998
109	0xbe9a72e1	-0.3016577
110	0x3d854dfe	0.065090165
111	0x3e61ab13	0.22037916
112	0x3be072c2	0.0068496177
113	0x3e657f6a	0.22411886
114	0x3eff3b06	0.4984972
115	0xbcd29118	-0.025703952
116	0xbf3c0096	-0.73438394
117	0xbe10e811	-0.14151026
118	0x3ef7e3dd	0.48416033
119	0x3e8d3855	0.2758204
120	0x3eb06461	0.34451583
121	0xbe88c534	-0.26712954
122	0x3e74e4e5	0.23915441
123	0x3f3a44a5	0.72760993
124	0xbef42bd9	-0.47689703
125	0x3e29e3cb	0.16590802
126	0x3f1f9952	0.62343323
127	0x3dcee53a	0.10102315
128	0xbf069a6c	-0.5257938
129	0xbe89d8fb	-0.26923355
130	0x3e44a76a	0.19204488
131	0xbf175203	-0.59109515
132	0x3d9e1f8e	0.07720862
133	0xbf866e24	-1.0502362
134	0x3e2ca47c	0.16859621
135	0x3e13fbcc	0.14451522
136	0xbd416daa	-0.047223724
137	0xbe8759b5	-0.2643563
138	0xbc3623ed	-0.011116964
139	0xbee242e0	-0.44191647
140	0x3e3eaa7b	0.1861972
141	0xbec30d58	-0.38096118
142	0xbf1fd440	-0.6243324
143	0xbf501f0e	-0.81297386
144	0x3d7f1517	0.062275972
145	0x3e41411e	0.18872496
146	0x3f351958	0.70741796
147	0xbdc494bd	-0.09598682
148	0xbf1d6cd0	-0.6149416
149	0xbe7dd938	-0.24789894
150	0x3e372bf8	0.17887866
151	0x3f3cc74d	0.7374161
152	0x3edc88df	0.43073174
153	0xbcdc730c	-0.026910327
154	0xbdcf15fd	-0.10111616
155	0x3eaf7afb	0.34273514
156	0x3b8d70ec	0.00431644
157	0x3f58b5ae	0.8465222
158	0x3f5baa04	0.858063
159	0x3f139307	0.5764622
160	0x3effac03	0.49935922
161	0x3e91d0ec	0.28479707
162	0x3f12ae60	0.57297325
163	0xbc790a10	-0.015200153
164	0x3d3f8271	0.046755258
165	0xbedba5c7	-0.42899916
166	0x3d9324c8	0.0718475
167	0xbedeff93	-0.43554363
168	0xbd4c914d	-0.049943257
169	0xbe6f5388	-0.23371708
170	0x3e8b1435	0.27163854
171	0xbe822776	-0.2542073
172	0x3ef9c416	0.48782414
173	0xbedff0d8	-0.43738437
174	0x3f0f9edb	0.5610177
175	0x3eecb6b0	0.4623313
176	0xbe66ad94	-0.22527152
177	0x3ec50839	0.38482836
178	0xbe7d51e4	-0.2473827
179	0x3e338712	0.17531994
180	0xbf30e748	-0.6910291
181	0xbeaa8016	-0.33300847
182	0x3ee8c3d9	0.4546192
183	0x3f455919	0.7708908
184	0xbe11fca7	-0.14256535
185	0xbe3f48df	-0.18680142
186	0x3e75af08	0.2399255
187	0x3ef4509d	0.47717753
188	0xbead1fdd	-0.33813372
189	0x3e7adc10	0.2449801
190	0x3e1bce1a	0.1521534
191	0x3c91feeb	0.01782175
192	0x3e5d241e	0.21595809
193	0x3e913014	0.28356993
194	0x3e8c0f4d	0.27355424
195	0x3f8ecbf3	1.115599
196	0x3d3e4701	0.046454433
197	0x3e0adc26	0.13560542
198	0x3f108812	0.56457627
199	0xbea1dfb1	-0.31615975
200	0x3dafc9c4	0.085834056
201	0x3d9ddb1a	0.07707806
202	0xbe0f46b6	-0.13991818
203	0xbe6b4974	-0.22977239
204	0x3e9d318a	0.30701858
205	0xbe0becfd	-0.13664623
206	0x3f797b70	0.97453976
207	0x3ddafc52	0.106926575
208	0xbb45cb6a	-0.0030181059
209	0x3f03c9d0	0.51479816
210	0x3c9cdd9a	0.019148637
211	0x3e01a617	0.12661014
212	0xbf2166b8	-0.6304736
213	0xbe224262	-0.15845636
214	0x3e85a423	0.2610179
215	0x3cec76ae	0.028865185
216	0xbd1604e2	-0.03662575
217	0xbd79dd3b	-0.061001997
218	0x3eea21fc	0.45729053
219	0x3f096099	0.5366302
220	0xbe8ac295	-0.2710158
221	0xbe21938a	-0.15778938
222	0x3e4b7847	0.19870101
223	0xbdc798df	-0.09745955
224	0x3e54472c	0.20730275
225	0xbe328825	-0.17434748
226	0x3e21d4bc	0.15803808
227	0x3f63f8fc	0.89051795
228	0x3e125107	0.14288722
229	0x3ea79cda	0.32736856
230	0xbdb7d204	-0.08975604
231	0xbe94267d	-0.28935614
232	0xbe0cc88a	-0.13748375
233	0xbf0be827	-0.5465111
234	0x3eddefc1	0.4334698
235	0xbe441748	-0.19149506
236	0xbd293c76	-0.041317426
237	0x3e02c496	0.12770304
238	0x3f9089fc	1.129211
239	0x3ea35bb7	0.3190591
240	0x3ecd9715	0.4015433
241	0xbf04bbda	-0.5184914
242	0x3ec0de55	0.37669626
243	0xbc9e7317	-0.019341988
244	0xbf2340ec	-0.6377094
245	0xbef214a8	-0.47281384
246	0x3e108642	0.14113715
247	0xbe78bef6	-0.24291596
248	0xbecda51b	-0.40165028
249	0x3eb184f7	0.34671757
250	0xbc82d9fb	-0.015973082
251	0x3f2a6186	0.6655506
252	0xbe0138ac	-0.12619275
253	0xbf472033	-0.7778351
254	0x3ea359d6	0.31904477
255	0x3d421acd	0.04738884

lstm.weight_hh_l1 f4 [128, 32]
0	0x3d2f449d	0.042790044
1	0x3da9fc7c	0.08300111
2	0x3f37f31c	0.7185533
3	0xbe73099a	-0.23734131
4	0xbec12371	-0.37722352
5	0x3e1a08ea	0.15042463
6	0x3e2c593e	0.16830918
7	0xbe41f149	-0.18939699
8	0x3ea8d7d4	0.32977164
9	0x3eb4764d	0.35246506
10	0xbd9bc741	-0.07606364
11	0xbf0ed041	-0.5578652
12	0x3f202601	0.6255799
13	0xbe42a8a0	-0.19009638
14	0x3db592c2	0.088658825
15	0x3f2a24f2	0.66462624
16	0x3f1f4204	0.62210107
17	0x3f917ebe	1.1366804
18	0x3adb69c3	0.0016739893
19	0xbd34450f	-0.044011172
20	0x3cdd25ef	0.026995627
21	0x3de523f5	0.11188499
22	0xbf25eadc	-0.6481149
23	0xbd77a44b	-0.060459416
24	0xbe1db113	-0.1539958
25	0xbe2fa48d	-0.17152615
26	0xbda080ef	-0.07837092
27	0x3df2209f	0.11822628
28	0xbf399171	-0.7248755
29	0x3d3b2c27	0.045696404
30	0xbeed99bd	-0.46406356
31	0x3de879a5	0.11351327
32	0x3ea64bba	0.3247965
33	0xbdb26e24	-0.08712414
34	0x3db80e96	0.08987157
35	0xbd5dc904	-0.05414678
36	0x3cac8d0a	0.021063346
37	0x3d7061f9	0.058687184
38	0xbd365c0e	-0.044521384
39	0x3e003148	0.125188
40	0x3e8d9e10	0.27659655
41	0xbef7d866	-0.48407286
42	0xbc864a54	-0.016392864
43	0xbf802070	-1.0009899
44	0x3fab4807	1.3381356
45	0xbdc8a3ad	-0.09796844
46	0x3d3c5cf4	0.045987085
47	0x3fc637b9	1.5485755
48	0x3f91ad23	1.1380962
49	0x3d8719c5	0.06596712
50	0x3d320386	0.04346039
51	0xbd9d3fae	-0.076781616
52	0x3e15ea33	0.14640121
53	0xbe29af66	-0.16570815
54	0xbd8eada4	-0.06966713
55	0x3da93596	0.08262174
56	0xbd79a6b7	-0.060950007
57	0x3e16ee40	0.14739323
58	0x3d7936c4	0.060843244
59	0xbddb68f3	-0.10713377
60	0xbf613e3e	-0.879856
61	0xbd37452c	-0.0447437
62	0xbfa1b003	-1.263184
63	0x3e496e56	0.19670996
64	0xbee8f8da	-0.4550236
65	0x3e071fdc	0.13195747
66	0xbe1f9d72	-0.15587404
67	0x3db191eb	0.0867041
68	0xbf4ee783	-0.8082201
69	0xbdadc7f7	-0.08485406
70	0x3efd6e56	0.49498242
71	0xbe9e7622	-0.30949503
72	0x3e5c0c47	0.21489058
73	0x3e169e21	0.14708759
74	0xbd82d9e8	-0.063892186
75	0xbf03546e	-0.51300704
76	0x3f24fb55	0.64446
77	0xbd67413f	-0.056458708
78	0x3e2f283f	0.17105196
79	0x3f46e2b8	0.77689695
80	0x3f20c5bf	0.62801737
81	0x3ecb496d	0.39704457
82	0xbca9e3e2	-0.020738546
83	0xbd1ac531	-0.037785713
84	0x3e336371	0.17518403
85	0x3cb9d393	0.022683894
86	0x3c76b3da	0.015057528
87	0xbe4c7b07	-0.19968806
88	0xbe05400e	-0.13012716
89	0xbf74e0fb	-0.9565579
90	0x3d22d6f4	0.039755777
91	0x3e827c85	0.25485626
92	0xbeaaab90	-0.33334017
93	0x3de6bbbe	0.11266278
94	0xbf10391b	-0.56337136
95	0xbe4379f2	-0.19089487
96	0x3e0a9f2e	0.13537285
97	0x3e4e07d2	0.2012017
98	0x3e304857	0.17215095
99	0x3f0169ec	0.5055225
100	0xbfa4b4a6	-1.286763
101	0xbe33ac70	-0.17546248
102	0xbf25b9f8	-0.6473689
103	0x3f4212c2	0.7580987
104	0x3ec712ea	0.38881618
105	0xbf7a689c	-0.9781587
106	0x3c74b827	0.014936483
107	0xbf913f65	-1.1347471
108	0x3f9dc41d	1.2325474
109	0xbeb1cd21	-0.34726813
110	0x3ddcd238	0.107822835
111	0x3f8140d1	1.0097905
112	0x3f50c10d	0.8154457
113	0xbf5f116f	-0.87135977
114	0xbe6ca21b	-0.23108713
115	0xbd3291b4	-0.043595985
116	0x3e3a4cbc	0.18193334
117	0xbe33eee6	-0.17571601
118	0x3ed3530a	0.4127429
119	0xbed8958c	-0.42301595
120	0x3ddc7302	0.107641235
121	0xbfb3b5ca	-1.4039853
122	0x3e224972	0.1584833
123	0xbdab357e	-0.08359812
124	0xbf617b11	-0.8807841
125	0x3e9849e2	0.29743868
126	0xbf8f6a52	-1.1204321
127	0x3eab9e45	0.33519188
128	0xbeef44b7	-0.46732113
129	0x3d2207c0	0.039558172
130	0x3f13c3ae	0.5772046
131	0x3f220410	0.6328745
132	0xc006a230	-2.1036491
133	0xbed93b9c	-0.4242829
134	0xbfa46a78	-1.2844992
135	0x3fb6db79	1.4285728
136	0x3f8438fb	1.0329889
137	0xbf73f6dc	-0.9529855
138	0xbda513c4	-0.080604106
139	0x3d21bfb1	0.03948945
140	0x3e349094	0.17633277
141	0xbf3d3ff7	-0.7392573
142	0xbcd5713b	-0.026054969
143	0x3ecb051e	0.39652342
144	0x3dc6d0a6	0.09707765
145	0xbf00e050	-0.50342274
146	0xbe28c908	-0.16482937
147	0x3ca1973d	0.019725436
148	0xbc23ecc7	-0.010005183
149	0xbdc1633c	-0.094427556
150	0xbe8135a0	-0.25236225
151	0xbf6ddbd5	-0.9291356
152	0x3f0af411	0.54278666
153	0xbfc54f14	-1.5414758
154	0x3f215bb2	0.6303054
155	0xbec18d44	-0.3780309
156	0xbdb60dc7	-0.088893466
157	0x3da285be	0.079356655
158	0xbeb01662	-0.34392077
159	0x3f4e5043	0.8059122
160	0x3da1fd79	0.07909674
161	0x3ddb57b3	0.10710087
162	0xbe28d148	-0.16486084
163	0x3e4620e5	0.19348486
164	0xbf637308	-0.888474
165	0xbdff50d0	-0.12466586
166	0xbe70367c	-0.23458284
167	0x3eb512f1	0.35366014
168	0x3ed0f645	0.4081289
169	0xbf7582e3	-0.9590284
170	0x3d8158bd	0.063157536
171	0xbfbccc2c	-1.4749808
172	0x3fbed2fa	1.4908135
173	0xbe1375a8	-0.14400351
174	0x3e94537f	0.28969952
175	0x3fbbd12f	1.4673213
176	0x3fc1a4a6	1.5128372
177	0xbedfb69b	-0.43694004
178	0xbe474cd4	-0.19462901
179	0xbd0835ae	-0.033254318
180	0xbc75e48b	-0.015008102
181	0x3e0c67a3	0.1371141
182	0x3e86e99a	0.263501
183	0xbe15147a	-0.14558592
184	0xbd6be84f	-0.057594594
185	0xbf2a2091	-0.6645594
186	0xbc9eba34	-0.019375898
187	0x3e1ce56f	0.15321897
188	0xbf9bc1c5	-1.2168509
189	0x3e71632a	0.23572984
190	0xbfe08f9e	-1.7543828
191	0x3e6de6fb	0.23232643
192	0xbe670175	-0.2255915
193	0xbd44460a	-0.047918357
194	0x3e421f43	0.18957238
195	0x3d8465e8	0.064647496
196	0xbe2440e2	-0.16040376
197	0x3de9a7df	0.11408972
198	0xbe83a0d1	-0.2570863
199	0x3e7eea41	0.24894048
200	0x3e849096	0.2589156
201	0xbf2e1e40	-0.6801491
202	0xbe007a78	-0.12546718
203	0xbf60448d	-0.876046
204	0x3f7d4555	0.9893392
205	0xbcea64dc	-0.028612547
206	0x3e58a6b8	0.21157348
207	0x3f93041e	1.1485631
208	0x3f65da23	0.89785975
209	0xbed2ea2b	-0.4119428
210	0x3b5f0498	0.0034029838
211	0xbda23a49	-0.07921273
212	0xbdd84d07	-0.10561567
213	0xbe21f380	-0.15815544
214	0x3e0f2ba0	0.13981485
215	0xbe6a9d15	-0.22911485
216	0x3c369a9c	0.01114526
217	0x3e0d1e50	0.13781095
218	0xbe0187b8	-0.12649429
219	0xbd8bfb7e	-0.06835078
220	0xbf4b653e	-0.7945136
221	0x3cc14f50	0.02359739
222	0xbf5f33aa	-0.8718821
223	0x3e252ae1	0.16129638
224	0x3e35aeda	0.17742482
225	0xbd72d3ef	-0.059284147
226	0x3f0794f4	0.5296166
227	0x3f33e51f	0.70271486
228	0xbf548efc	-0.83030677
229	0xbe3b2426	-0.18275508
230	0xbf9e032f	-1.2344722
231	0x3f9dcce6	1.2328155
232	0x3e8b2c69	0.2718232
233	0xbf7b7a88	-0.9823384
234	0x3d60da67	0.054895785
235	0xbe8c4d30	-0.2740264
236	0x3ea42979	0.3206289
237	0x3ccb5770	0.024821967
238	0x3e5e2ba0	0.21696329
239	0x3e95eec2	0.2928372
240	0x3ea258e1	0.31708434
241	0xbf5a1236	-0.8518404
242	0xbdb751e5	-0.08951167
243	0x3c65b917	0.01402118
244	0x3dd0cf72	0.10195817
245	0xbdd50468	-0.10401231
246	0x3e61d985	0.22055633
247	0xbf1b1431	-0.60577685
248	0x3f0c0ef3	0.5471031
249	0xbf3d02ba	-0.73832285
250	0x3e02f34c	0.12788123
251	0xbdcb2d77	-0.09920781
252	0xbe12345c	-0.14277786
253	0x3f00131d	0.50029165
254	0xbe08b3f7	-0.13349901
255	0x3ef2eb73	0.47445258

lstm.bias_ih_l1 f4 [128]
0	0xbedf79bd	-0.43647566
1	0xbffa7b51	-1.9568883
2	0xbf5154d4	-0.8177006
3	0xbf8c75bb	-1.0973428
4	0xbeb1287c	-0.346012
5	0xbf92a45a	-1.1456406
6	0xbf8cc540	-1.0997696
7	0xbdff550f	-0.124673955
8	0xbfe111ad	-1.7583519
9	0xbf339099	-0.70142514
10	0xc00007ed	-2.0004838
11	0x3ec3e542	0.38260847
12	0x3f072332	0.5278808
13	0xbfbb0c31	-1.4613096
14	0xbfe4da07	-1.7879037
15	0x3f08eec6	0.5348934
16	0x3f3df447	0.7420086
17	0xbed682bb	-0.41896614
18	0xbfc3ff14	-1.5312219
19	0xbff83384	-1.9390721
20	0xbfefcaea	-1.87338
21	0xbffefa48	-1.992013
22	0xbeab446f	-0.33450648
23	0xc000953c	-2.0091085
24	0xbf962b25	-1.1731917
25	0xbea64bde	-0.32479757
26	0xbfdd7d37	-1.7303838
27	0xbf731367	-0.9495148
28	0x3e9f2a45	0.31086937
29	0xbfb03c35	-1.3768374
30	0x3f182568	0.5943208
31	0xbfb5b345	-1.4195334
32	0x3f54f324	0.83183503
33	0xbf4b82b5	-0.7949632
34	0xbf3c8a6c	-0.73648715
35	0xbf90b036	-1.1303775
36	0xbf38c209	-0.72171074
37	0xbf9e0eb8	-1.2348242
38	0xbfa04f1c	-1.2524142
39	0xbf4dcf21	-0.8039418
40	0xbf524487	-0.82135814
41	0xbfd26213	-1.643618
42	0xbf2d12f1	-0.6760703
43	0x3ef502e9	0.47853783
44	0x3f62fd2d	0.88667566
45	0xbf398877	-0.72473854
46	0xbedd5d2d	-0.4323515
47	0x3f7eaa9a	0.9947907
48	0x3f35131a	0.7073227
49	0xbfac8886	-1.3479164
50	0xbedebaed	-0.43501988
51	0xbf1e724c	-0.61893153
52	0xbed94a7f	-0.42439649
53	0xbf85ee33	-1.0463318
54	0xbfb6f23e	-1.4292676
55	0xbf84273d	-1.0324475
56	0xbe1a8770	-0.15090728
57	0xbf10bdf2	-0.56539834
58	0xbf144812	-0.5792247
59	0xbfa63a4f	-1.2986544
60	0x3f631c81	0.8871537
61	0xbed0c281	-0.40773395
62	0x3f488c83	0.78339404
63	0xbf8a094a	-1.0784085
64	0x3ce4ce81	0.0279305
65	0x3d899b6f	0.067191
66	0x3ddf8b10	0.10915196
67	0xbdcaea96	-0.09908025
68	0xbd5218e9	-0.051293287
69	0x3e0d8aed	0.13822527
70	0xbddc777e	-0.10764979
71	0x3d3081dd	0.043092597
72	0x3cd560e4	0.026047178
73	0xbd8b1183	-0.067904495
74	0xbd99f474	-0.07517329
75	0x3f07ece8	0.53095865
76	0xbf158dc5	-0.5841945
77	0xbc8da174	-0.0172889
78	0xbd33c90d	-0.04389291
79	0xbf0ffe4d	-0.5624741
80	0xbf268c30	-0.6505766
81	0xbb943f54	-0.004524151
82	0x3e126e78	0.14299953
83	0xbd581134	-0.05275078
84	0x3c4f6bb6	0.012659958
85	0xbcda4ed1	-0.02664891
86	0xbe09ba6d	-0.13450022
87	0xbdcb1e95	-0.099179424
88	0xbdb2c4dd	-0.08728955
89	0x3da6f462	0.08152081
90	0xbdb2aac7	-0.087239794
91	0xbdd37b44	-0.103262454
92	0x3f01e9b5	0.50747234
93	0x3cbccb6a	0.023046214
94	0x3ee515c5	0.4474317
95	0xbc977f3b	-0.018493285
96	0xbf69437a	-0.91118586
97	0xc00191e6	-2.02453
98	0xbf28c773	-0.65929335
99	0xbf84e153	-1.0381263
100	0xbd8b4c6f	-0.06801688
101	0xbfa752c9	-1.3072139
102	0xbf6f9916	-0.93592966
103	0xbf03bd5a	-0.514608
104	0xc0054d77	-2.082853
105	0xbf5be033	-0.85888976
106	0xc00575c8	-2.0853138
107	0xbf9a7a55	-1.2068583
108	0xbf059c04	-0.52191186
109	0xbfb12cbe	-1.3841779
110	0xbfd4f6e5	-1.6637846
111	0xbe073046	-0.13202009
112	0xbf6acede	-0.91721904
113	0xbe9ce8e5	-0.30646434
114	0xbfd0de24	-1.6317792
115	0xbff429f9	-1.9075309
116	0xbfe87054	-1.815928
117	0xbfe6edba	-1.8041298
118	0xbeab644c	-0.33474958
119	0xbfe69aa7	-1.8015946
120	0xbfa8e278	-1.3194113
121	0xbdd3d104	-0.10342601
122	0xbfdce60c	-1.7257705
123	0xbf2e66cf	-0.68125623
124	0xbfa4b725	-1.2868391
125	0xbfc139c0	-1.5095749
126	0xbf6b907c	-0.9201734
127	0xbfb633cd	-1.4234558

lstm.bias_hh_l1 f4 [128]
0	0xbeed2d4d	-0.46323624
1	0xc00a012e	-2.156322
2	0xbf4ed4e1	-0.8079358
3	0xbf90f5f6	-1.1325061
4	0xbe4110ff	-0.1885414
5	0xbf93ae71	-1.153761
6	0xbf888c4b	-1.0667814
7	0xbe426ca6	-0.18986759
8	0xbfe6bdff	-1.8026732
9	0xbf4f340f	-0.8093881
10	0xc0040db7	-2.063337
11	0x3f0e73e0	0.5564556
12	0x3f2ee26e	0.68314254
13	0xbf98bb56	-1.193217
14	0xbfce656e	-1.6124704
15	0x3ee502c1	0.44728664
16	0x3f1a8b0d	0.60368425
17	0xbe8def8b	-0.2772182
18	0xbfb3666d	-1.4015633
19	0xbfe91e7a	-1.8212426
20	0xbff1a589	-1.8878642
21	0xbfec90a5	-1.8481642
22	0xbe9ab876	-0.30218858
23	0xbfee8764	-1.8635068
24	0xbf87cca7	-1.060933
25	0xbeb6ec1d	-0.35727015
26	0xbfdb414a	-1.71293
27	0xbf63d273	-0.88992995
28	0x3eafdba1	0.3434725
29	0xbfb048c4	-1.3772206
30	0x3f343566	0.7039398
31	0xbfca2263	-1.5791744
32	0x3f185b94	0.5951474
33	0xbf49ad12	-0.7877971
34	0xbf490fb9	-0.78539616
35	0xbf8ed2cc	-1.115808
36	0xbf55ba43	-0.8348734
37	0xbfb27d8c	-1.3944564
38	0xbf88a877	-1.0676411
39	0xbf08f59d	-0.53499776
40	0xbf6ba253	-0.9204456
41	0xbfc57e23	-1.5429119
42	0xbf1d1022	-0.6135274
43	0x3ebaa667	0.3645508
44	0x3f84bb86	1.0369728
45	0xbf4ab371	-0.79180056
46	0xbed95dc3	-0.42454347
47	0x3f748d0b	0.95527714
48	0x3f4481c4	0.76760507
49	0xbfa41d71	-1.2821485
50	0xbeda6287	-0.42653295
51	0xbf018f79	-0.50609547
52	0xbf307a77	-0.68936867
53	0xbf687702	-0.9080659
54	0xbfb44822	-1.4084513
55	0xbf6f2638	-0.9341769
56	0xbe586679	-0.2113284
57	0xbec966e7	-0.3933632
58	0xbf53a264	-0.82669663
59	0xbfa31ad8	-1.2742567
60	0x3f51b095	0.8191007
61	0xbf12cee4	-0.5734694
62	0x3f694ffe	0.91137683
63	0xbf9d0968	-1.2268496
64	0x3e0c741c	0.13716167
65	0xbd229316	-0.039691053
66	0xbd37a622	-0.04483617
67	0x3c70b8f2	0.014692532
68	0x3ddd5d31	0.108087905
69	0x3dd00c38	0.101585805
70	0xbe0fe194	-0.14050895
71	0x3e214185	0.1574765
72	0xbe0a7948	-0.13522828
73	0x3d2e2f2d	0.04252546
74	0x3e3573c9	0.1771995
75	0x3f07aaf6	0.5299524
76	0xbeee123d	-0.4649829
77	0x3df87651	0.12131942
78	0x3d21dd51	0.039517704
79	0xbee7625f	-0.4519224
80	0xbefcc15c	-0.49366271
81	0x3d840059	0.06445379
82	0xbdb154e5	-0.086587705
83	0x3e0f1f9f	0.13976906
84	0x3b0344c1	0.0020029994
85	0xbd8ebceb	-0.06969627
86	0xbe00e150	-0.1258595
87	0xbde888b1	-0.11354197
88	0xbcb69d26	-0.022291731
89	0xbc691489	-0.014226087
90	0x3c4490bd	0.011997399
91	0x3cf2b711	0.029628308
92	0x3ecd6854	0.4011866
93	0xbdcb0a1d	-0.09914038
94	0x3f000a6c	0.500159
95	0x3db16f7c	0.08663842
96	0xbf896c1a	-1.0736115
97	0xc00a790f	-2.1636388
98	0xbf3e77fe	-0.74401844
99	0xbf766db8	-0.9626117
100	0xbe91caa4	-0.28474915
101	0xbf8e94fa	-1.1139214
102	0xbf714383	-0.9424364
103	0xbebbe115	-0.3669516
104	0xbfe56ebf	-1.7924422
105	0xbf818434	-1.011847
106	0xc007e538	-2.1233654
107	0xbf8fb560	-1.1227226
108	0xbf1f7471	-0.6228705
109	0xbfb0ce2e	-1.3812921
110	0xbfe0af87	-1.7553567
111	0xbe90c6b2	-0.28276592
112	0xbf90d435	-1.131476
113	0xbf049688	-0.5179219
114	0xbfc47685	-1.5348669
115	0xbfdfb6af	-1.7477626
116	0xc003e8c4	-2.061082
117	0xbfd51df7	-1.664977
118	0xbe86c124	-0.2631923
119	0xbfee9d83	-1.8641819
120	0xbf9f524d	-1.2446991
121	0xbe0ba44f	-0.13636898
122	0xbfd6b2f3	-1.6773361
123	0xbf685f45	-0.9077037
124	0xbfa812b2	-1.3130705
125	0xbfc18433	-1.5118469
126	0xbf5cfedc	-0.86326385
127	0xbfbf9d37	-1.4969853

fc.weight f4 [5, 32]
0	0x3ece862e	0.40336746
1	0x3dc67a05	0.09691242
2	0xbf01cb8b	-0.50701207
3	0x3b2ec9d7	0.00266706
4	0xbd81cdce	-0.06338082
5	0x3e1985e2	0.14992478
6	0x3e6c8e51	0.23101164
7	0xbd37470b	-0.044745486
8	0xbd1141c9	-0.03546313
9	0xbec8da9e	-0.39229292
10	0x3dd95244	0.10611394
11	0x3e6bce9f	0.23028038
12	0xbe734e43	-0.23760323
13	0x3d328071	0.043579523
14	0x3df03616	0.11729066
15	0xbeaef8cf	-0.341742
16	0xbe375c3b	-0.17906277
17	0x3f3ccd69	0.7375093
18	0x3d40835c	0.047000274
19	0x3d85b7b7	0.065291815
20	0xbdd3ab34	-0.10335389
21	0x3e241588	0.16023839
22	0xbf05e32f	-0.5229978
23	0x3d84026f	0.06445777
24	0x3e636c2d	0.22209235
25	0x3db66f82	0.08907987
26	0xbe932f26	-0.2874691
27	0x3ebf071d	0.37310115
28	0x3d8525c2	0.06501342
29	0x3df124e5	0.11774615
30	0x3df2028b	0.11816891
31	0xbe07ba85	-0.13254745
32	0x3d8dea36	0.06929438
33	0x3d5bc367	0.053653147
34	0xbcac7982	-0.021054033
35	0xbd803a1f	-0.06261086
36	0xbd99e4d0	-0.07514346
37	0x3de11a1b	0.10991307
38	0x3e4c411a	0.1994671
39	0xbdc2f7ea	-0.09519942
40	0x3e10f43b	0.14155667
41	0xbe884e35	-0.26622167
42	0xbdab6431	-0.08368719
43	0x3e3272d5	0.17426617
44	0xbe4b5e60	-0.1986022
45	0xbe10d27b	-0.14142792
46	0xbcb72a7c	-0.022359125
47	0xbe3341ae	-0.17505524
48	0x3c8f101b	0.017463734
49	0x3d1c8945	0.038216848
50	0xbc896fc9	-0.016776936
51	0xbdaf6520	-0.0856421
52	0x3e38d658	0.18050516
53	0x3e22a286	0.1588231
54	0xbeb0b793	-0.34515056
55	0x3e05d7c4	0.1307059
56	0xbddda579	-0.10822577
57	0xbd18905a	-0.03724704
58	0x3d7e47a4	0.06208004
59	0xbe381106	-0.17975244
60	0xbd9ad27f	-0.0755968
61	0x3c219cad	0.009864015
62	0x3da491b9	0.08035607
63	0xbe56268b	-0.2091314
64	0xbe3ff528	-0.18745863
65	0xbe2734c6	-0.16328725
66	0xbe1f8d36	-0.15581211
67	0xbdaa553d	-0.08317039
68	0x3d9c51bc	0.07632777
69	0x3bbcf9ce	0.0057670837
70	0xbccb34b5	-0.024805406
71	0xbc0f6ff3	-0.008754718
72	0xbe409e1c	-0.18810314
73	0x3e588247	0.21143447
74	0xbe21381c	-0.1574406
75	0xbd80d87b	-0.062912904
76	0x3bc84dfe	0.006112813
77	0xbe106795	-0.14102013
78	0x3e18fee1	0.14940979
79	0xbe4b25e9	-0.1983868
80	0xbe6d6549	-0.23183168
81	0x3c16a9a6	0.009195721
82	0xbe944afa	-0.28963453
83	0xbddb2f7e	-0.10702418
84	0x3e3dd4af	0.18538164
85	0xbe3bd8c5	-0.1834441
86	0xbddc5fd3	-0.107604645
87	0xbdd5a7de	-0.10432409
88	0x3e4b1bd0	0.19834828
89	0x3d660e0c	0.05616574
90	0xbdc3bffc	-0.095581025
91	0x3c0926e6	0.0083710905
92	0x3e8a61c6	0.2702772
93	0x3df4d906	0.119554564
94	0x3dbd9ff9	0.09259028
95	0xbc57a971	-0.013162957
96	0xbed75ed1	-0.42064527
97	0xbda2d02b	-0.07949861
98	0x3eb0c1da	0.34522897
99	0x3e88e596	0.2673766
100	0x3d0e666f	0.034765657
101	0xbe80f052	-0.2518335
102	0xbea8aec0	-0.32945824
103	0xbc51c6bc	-0.01280373
104	0xbdf8b33a	-0.1214356
105	0xbe0c733c	-0.13715833
106	0x3d2a319b	0.041551214
107	0x3e450f3c	0.19244093
108	0xbe5e9652	-0.2173703
109	0x3dee21e5	0.116275586
110	0x3cbffdf3	0.023436522
111	0xbe4c3618	-0.1994251
112	0xbda6b9d2	-0.08140911
113	0xbee4e982	-0.44709402
114	0xbbac606e	-0.0052605188
115	0x3cc97e4a	0.024596352
116	0xbddb994b	-0.10722598
117	0xbe43c943	-0.19119744
118	0x3e70261a	0.23452035
119	0xbd8ef635	-0.06980554
120	0xbdff7783	-0.12473967
121	0x3ca30b6c	0.019902907
122	0xbcaeb9a0	-0.021328747
123	0xbd452ea9	-0.0481402
124	0x3e20a0e5	0.15686376
125	0xbd06a249	-0.03286961
126	0x3e067f0c	0.13134402
127	0x3e9c327d	0.3050727
128	0x3e951eb6	0.29124993
129	0xbdaa3394	-0.08310619
130	0xbcdf1270	-0.027230471
131	0x3eafbaa4	0.34322083
132	0xbf1d960a	-0.61557066
133	0xbe655141	-0.22394277
134	0x3e56a7c2	0.20962432
135	0xbef33c31	-0.4750686
136	0xbd90f70b	-0.0707837
137	0xbdcdad70	-0.10042846
138	0xbde96b78	-0.11397451
139	0x3e7cfcfb	0.2470588
140	0xbda39757	-0.0798785
141	0xbea7ea6a	-0.3279603
142	0x3e3d0aeb	0.18461196
143	0xbe3d2220	-0.18470049
144	0xbec9e953	-0.39435825
145	0xbe1eaf5b	-0.1549658
146	0xbf087853	-0.533086
147	0xbd646f13	-0.05576999
148	0x3d9829cc	0.07429847
149	0x3d0051a0	0.031327844
150	0xbd1f7dda	-0.03893838
151	0x3dc1a6c0	0.09455633
152	0x3f34b63b	0.7059056
153	0xbf246ca0	-0.6422825
154	0xbec25395	-0.37954393
155	0x3edd0952	0.43171173
156	0x3e72aa68	0.23697817
157	0x3e60c8c9	0.21951593
158	0x3e08f782	0.13375667
159	0xbd8593da	-0.06522341

fc.bias f4 [5]
0	0x3eae4808	0.3403933
1	0x3ed555e7	0.416671
2	0x3ed61a76	0.41817063
3	0x3ed18c46	0.40927333
4	0x3ec37257	0.38173172
