models/rnn/weights/last.pth (torch, 56291 bytes, 10 tensors)

lstm.weight_ih_l0 f4 [128, 5]
00000000: 451e d5bf eb92 bdbf 1d77 a5bf ec15 9cbf
00000010: 66b6 293f ecd5 96bf 2871 6bbf 70b4 83bf
00000020: c3fd 2bbe 0c78 b4bd d399 8fbf fb69 89bf
00000030: 1a38 f9be 0f6e 71be 9046 503c 2def a03e
00000040: 2d75 073f 81ce 983e 9acf 1f3f c991 0040
00000050: 4ff2 ddbf 1aa4 93bf b343 94bf 81ab 37bf
00000060: 1887 82be d3a6 60be 7521 8d3d 0102 9fbe
00000070: a83d 04bf 58f3 c33d 8ba9 3dbf e995 26bf
00000080: 11ea 4ebf 9f6c 2cbf d3c8 ebbe 0d34 513f
00000090: 8aaa 2c3f a990 983e 5f02 0c3e 11a0 a93e
000000a0: 3797 afbf c770 8abf 5eb8 8bbf 5d83 82bf
000000b0: 51b3 b1bf 8fe3 7bbf 6218 56bf 8ffc 91bf
000000c0: 7c18 b2be dcb4 5dbe 6931 07bf c505 d0be
000000d0: 1311 1fbf 9bce 1bbf 52a2 0ebf df06 87bf
000000e0: d444 61bf efc3 6cbf 00c1 06bf 98eb 06bf
000000f0: 70f0 4f3f 0a92 813f a529 d13d 6ad7 983e
00000100: cd6a 5a3f 238e 993e 39bb 2e3f 9530 16be
00000110: 299a 5b3e 5eca 273e 1d30 f73e 468c c13e
00000120: 2d44 643e 1878 d83e c7b1 5a3f b0db 97be
00000130: 07f1 aa3d ef44 e8be 2f9c 8dbe 1966 ccbe
00000140: 3262 68bf 58b1 54bf 444f a4bf d380 50bf
00000150: eb79 33be 0553 95be 0c5d ec3d 92ee 1abf
00000160: 95ad 07bf ffbe 9ebd 9748 143e e9ce 533e
00000170: 8c2a 66be 77bc 5fbe df28 15bf 6d46 96bf
00000180: a051 5fbf 4392 9fbf 4603 23bf 38e8 2abf
00000190: 45a2 a4be da79 abbe 48ee 5fbe a2a8 d7be
000001a0: 35a2 5fbe d4e5 81bf 0e3d 24bf cc71 81bf
000001b0: f532 5fbf 21a8 02bf 5a7c 1ebf 9dc9 92bf
000001c0: 1253 81bf 019a 1bbf c888 3c3e faf1 44be
000001d0: 8e4f a0bd a614 e53c a18a 93bd 7b59 a13e
000001e0: b340 8f3e 453e 473f 65cc 963e f711 ff3d
000001f0: 27ae 4f3f 0dcc d1be 49e5 edbe 7cd8 c5be
00000200: 58a1 1cbf 040b 46bd 112d fc3e 1a81 f03e
00000210: 2b30 473d 238f 3bbe 6e13 8d3e dcd0 b0bf
00000220: 0e8c 5ebf 2d62 37bf 5d1f 1d3d 0f63 eb3e
00000230: e2f8 94bf 865e 3abf 5670 6fbf 2284 34bf
00000240: 0c91 193f 61b1 af3d b0f4 983e ef29 aebe
00000250: f726 53be 8a69 3e3f 25bd 18bf 2ef7 66bf
00000260: b669 58bf 14ee 60bf f6a8 2cbf d651 8cbf
00000270: 8a0b 9fbf 12d0 a4bf b1ce 8dbf 3127 94be
00000280: 2b67 8cbf cd82 5cbf 65ac 0ebf adf7 2bbf
00000290: 3605 653d 3558 763e 4833 ef3c 5ee8 4e3c
000002a0: cca9 be3e 8ee2 013f 665d 8d3d 6bbb ae3d
000002b0: ac1e cc3d ae0b b83e ff90 a83c d15e 9a3e
000002c0: 5f5a ea3e 909c 1b3f b629 c93e 9b05 5e3f
000002d0: 6c7c a5bf db14 87bf 35cc 76bf aaff 4ebf
000002e0: d26e edbd 5112 b43c d7ed d9be 10f5 6fbd
000002f0: 1872 08bf 226b 01bf 48f8 8c3f 9b85 913f
00000300: 47b9 8d3f 28d5 9c3f 51e3 a63f cc4b 96be
00000310: b2fe a9be 6223 14bf df37 53bf 4f17 11be
00000320: 2baa c13f 2168 e53f 06e5 c23f 6962 e93f
00000330: 237c d03f b225 0ebf 68ea 1dbf 4bc8 74be
00000340: b55b 4abe 39a9 a9be 5d47 cbbd 7fe6 f3bd
00000350: f66d 8dbc db9c 513e 5c56 e03e e740 7abf
00000360: 7d24 febe abcf 19bf 5707 87be 1295 0ebe
00000370: 748c 7b3c 2420 ffbe cf84 cebe ace2 4abf
00000380: c81b e0be 272e 86bf ec70 4bbf ffc5 74be
00000390: ac0b d8bd 59b9 8e3d 4fb2 a3bd 4748 8b3e
000003a0: 393a eb3d f714 62bd 4247 9d3e 14d6 82bb
000003b0: b899 6fbe db3f 3abe 451e abbe 68c7 fc3d
000003c0: f722 89be 8a4b bfbe 4ad0 3ebf 1af4 b9be
000003d0: 7b45 c6be bf3a 10bd 3ac3 2abe b4df 2abd
000003e0: dfb9 003e 083b 73bd 389b 5abf f607 26bf
000003f0: 8ce4 2fbf 6a40 45bf 0dc2 e6be 5929 34bf
-1.6649863 -1.4810461 -1.2926975 -1.219419 0.6629394 -1.1784034 -0.9196954 -1.028944
-0.16796021 -0.088119596 -1.1218818 -1.0735468 -0.48675615 -0.2357714 0.012712136 0.31432477
0.5291317 0.2984505 0.6242615 2.008898 -1.7339572 -1.1534455 -1.158316 -0.7174607
-0.25493693 -0.21938638 0.06891147 -0.31056216 -0.5165658 0.095678985 -0.7408683 -0.65072495
-0.80825907 -0.6735324 -0.46051654 0.8172005 0.6744772 0.29797867 0.1367278 0.33129933
-1.3718022 -1.0815667 -1.0915639 -1.0196339 -1.3882848 -0.983941 -0.83630955 -1.14052
-0.34784305 -0.21651024 -0.5280977 -0.40629402 -0.6213543 -0.6086213 -0.5571643 -1.0548972
-0.8799565 -0.9248647 -0.52638245 -0.5270324 0.81226254 1.0122693 0.10213021 0.29851848
0.85319215 0.29991254 0.6825443 -0.1466697 0.21445526 0.1638579 0.48278895 0.37802333
0.22291632 0.42279124 0.85427517 -0.29659796 0.083467536 -0.45365092 -0.2765822 -0.39921644
-0.90774834 -0.83083105 -1.283669 -0.8144657 -0.17526977 -0.291649 0.11541185 -0.6052028
-0.5299924 -0.07751273 0.14480816 0.20684399 -0.22477168 -0.21849237 -0.5826549 -1.1740242
-0.87233925 -1.246651 -0.6367687 -0.6676059 -0.32155052 -0.33491403 -0.21868241 -0.42120844
-0.21839221 -1.0148263 -0.6415566 -1.0112853 -0.8718713 -0.51037794 -0.61908495 -1.1467777
-1.0103476 -0.60781866 0.18411553 -0.19232932 -0.07827674 0.027963948 -0.07204176 0.3151358
0.2797905 0.7782939 0.29452816 0.124545984 0.8112511 -0.4097599 -0.46463993 -0.38641727
-0.6118369 -0.04835035 0.49253133 0.46973497 0.04862992 -0.18316321 0.27553886 -1.3813739
-0.86932456 -0.7163418 0.03835999 0.45974013 -1.1638453 -0.7280048 -0.93530786 -0.7051412
0.5998695 0.08578754 0.29874182 -0.34016368 -0.20620333 0.7437979 -0.5966361 -0.90220916
-0.845363 -0.8786328 -0.67445314 -1.0962474 -1.2425396 -1.2875998 -1.1078702 -0.2893615
-1.0968984 -0.86137086 -0.55731803 -0.671748 0.055913173 0.24057086 0.029199257 0.012628643
0.3723892 0.5073632 0.0690258 0.08531841 0.09966788 0.3594641 0.020576952 0.30150464
0.45772073 0.6078577 0.39289635 0.86727303 -1.2928596 -1.055324 -0.96405345 -0.8085886
-0.11593403 0.02198139 -0.4256427 -0.05858332 -0.53299093 -0.50554097 1.101327 1.1368898
1.1072167 1.225255 1.3038121 -0.29354703 -0.3320213 -0.5786649 -0.8250713 -0.14169048
1.5130056 1.7922403 1.5226142 1.8233157 1.6287884 -0.5552627 -0.616858 -0.2390453
-0.19761546 -0.3313692 -0.09925721 -0.11909198 -0.017264348 0.20469992 0.43815887 -0.97755283
-0.49637213 -0.600825 -0.26372787 -0.13924053 0.015353311 -0.4982921 -0.403357 -0.79252124
-0.43771195 -1.0482835 -0.7946918 -0.23903655 -0.10549101 0.06968946 -0.07992994 0.2720358
0.114857145 -0.055195775 0.30718428 -0.0039928053 -0.23398483 -0.18188421 -0.3342153 0.12342721
-0.2678449 -0.3736232 -0.74536574 -0.36319047 -0.38724884 -0.035212275 -0.16676036 -0.041717246
0.12570904 -0.05938247 -0.85393095 -0.648559 -0.6870811 -0.77051413 -0.45069924 -0.7037559

lstm.weight_hh_l0 f4 [128, 32]
00000000: e8ee 2bbf b27c 153f aa6b 2c3d c3c7 a9bd
00000010: 1eb1 043f 2c24 07bf 8035 bf3e b9d3 92bf
00000020: 300e 3e3e 6890 6fbd f329 203f f97a b83e
00000030: 035e 4a3f 300e 403f d2bb 12bd 3a8d 7b3f
00000040: f0c3 d1be ae9f 4b3f ed33 033f b4e9 553f
00000050: 4a59 68be 47da 4bbf 7995 27be facc d83e
00000060: cf61 203e 996b b9bd feee 183f c79f 05bf
00000070: 8246 503f 8eba ec3e 16ed c73d 7168 abbe
00000080: 14d7 0dbf 2b48 143d 70b9 63be 8e0c f73e
00000090: 49ca 8e3e 7ac8 7bbe 75da 6cbd bcc9 22bf
000000a0: ca80 023e 6faf 30be cd7d 6cbe 4995 afbe
000000b0: 1c6e a53e bc29 453e d773 1cbf 40f6 14be
000000c0: a932 2fbf bea4 e2be db1e 033f 8a37 0a3e
000000d0: 6702 ee3c a4d2 38bd 792d 893e 6582 4f3f
000000e0: 1c64 db3e 7b96 dabe 7753 05be 9c47 e0be
000000f0: 7141 4ebd 06f9 16be 89a0 d7bd 9003 c4be
00000100: 1293 aebe b8f9 39be ed24 29bc 1fe3 0b3e
00000110: ccca e9be 731a b6be 4bfd 473e bc50 9c3e
00000120: e529 353e 8835 68be a43d 05be a96d babf
00000130: 0350 733e ebce 963d 0d47 97be 0ae3 25bf
00000140: bc1e 2b3f 9003 0abf ba22 f43d c71a 73bf
00000150: 5f3c 89be f39d a8be 4bdc 313e 10f0 803f
00000160: 64e1 303e 9943 f83d 6249 eebe 25f5 e0be
00000170: 8e59 18bf 7dfd 573e 9155 803f 59a2 513f
00000180: 5bf2 463f 2bf4 aabf a5e3 0ebd fabb 003f
00000190: 9370 ffbe b706 893f 57bb 573e de2b 4cbf
000001a0: 9928 67bf 0882 9b3c bffd 3dbf c673 8bbf
000001b0: 747e fd3d ee7d a2bd 2206 463f 5fcf ce3e
000001c0: 1557 2e3f a732 debe bf6c 6b3f 52d6 68bf
000001d0: cf9f 71be 09ff 2fbc 1d22 2f3d 81ed e9be
000001e0: 895d 81bf 52d5 203e 456b 553d e6c0 8e3e
000001f0: 40cc e4be 14c3 85bf bd24 3d3f 1851 843e
00000200: 5279 b9bf 95fe 9b3f 538b 7dbf 24bd 46bd
00000210: 6a14 3f3f a34a 03bf 8616 a1bd 7a2f 9dbe
00000220: 0a12 873e 1279 51bf 1067 b43e 86b6 553e
00000230: 12de 2b3f 46fa b63f b599 48bf a4ac 383f
00000240: b590 51be ab7f d83e ecb5 bfbd 1e10 693f
00000250: 6bc7 b9bd 602f 51bf 8197 86bf ad73 0b3e
00000260: 1c71 a63f 10a0 1e3e f369 743e f475 c2bf
00000270: ab2e b43f d714 d63b 525c 8e3e 3186 29bf
00000280: 8f00 03bf 5e25 803f 2c18 0d3f 12a8 373f
00000290: 6254 163f f8ff de3e 7e1f 57bd ba49 c8bf
000002a0: 0ca0 523e a468 56be d1b3 c5bc 36d4 fa3e
000002b0: 17af 19be d7ea 1e3e 559a 2b3f 79ae 233e
000002c0: 62b0 94bf 935c 80bf 2a27 703d 9448 6d3f
000002d0: c562 d13e c55f adbf 7ae4 c13e b90a 723f
000002e0: 64e7 3fbf 021b 8dbf 19eb 35bf 6cab 70be
000002f0: 9a11 2f3f d6fb 02bf 732d 80bf 15f0 c0bf
00000300: 9d07 2fbf 88e0 903e 7dcd e3be 762f 4f3d
00000310: c5e2 81be ebe0 49bf 9769 bdbc 7a2e fdbe
00000320: 5506 dc3d 82bb e8bf 8e6d 903e 302e 4cbf
00000330: 4c2e 203f 5a48 fabd fb25 2e3f d0d2 b13e
00000340: 7d3b 3e3f 7a2e c7bc 98ce 163e b26c ec3e
00000350: 722c 22bf d8e1 8cbe 9df5 6abf 4fe5 313f
00000360: 5a1f 513f 675f e7be 5457 493f 73a3 e2be
00000370: 40a2 253f 137f bbbe bd1d 2a3e e21f acbe
00000380: 0050 47bf f627 c33e 1b11 923e 1064 8ebe
00000390: 6413 173d d22c 20bf 45a3 0cbf 8ed1 5abf
000003a0: f24c 51bd 165b 883e 9996 c6be 0c4b 27bf
000003b0: c779 e83e 09b8 2ebf 9a18 8fbe 29a2 5d3f
000003c0: ffa7 9ebf 4a7c ed3e b71e b73f f6c7 46be
000003d0: dc40 273e e1cd 213e d427 133e 6c5e 84bf
000003e0: 9e53 d43c bacd 48bf bc08 3b3f 98fe 07be
000003f0: 9bc3 a93d 7ca3 73bf d51c 1dbd f592 1bbf
-0.67161417 0.58393395 0.042094864 -0.08290055 0.5183276 -0.5278957 0.37345505 -1.1470863
0.185601 -0.058487326 0.6256401 0.3603132 0.790497 0.7502165 -0.03582365 0.9826237
-0.409698 0.79540527 0.5125111 0.8355973 -0.22690311 -0.7962994 -0.16365613 0.42343885
0.15662311 -0.09053726 0.59739673 -0.52196926 0.81357586 0.4623608 0.097620174 -0.3347812
-0.5540631 0.036201637 -0.22238708 0.48251766 0.27888706 -0.24588194 -0.057825524 -0.6358907
0.12744442 -0.17254423 -0.23094864 -0.34293583 0.3231057 0.19254202 -0.6111426 -0.14547062
-0.68436676 -0.44266313 0.51218957 0.13497749 0.02905388 -0.045122758 0.26792505 0.8105834
0.42849815 -0.42692932 -0.1302012 -0.43804634 -0.05035538 -0.14743432 -0.105286665 -0.38283968
-0.3409658 -0.18161666 -0.010323745 0.13660859 -0.45662534 -0.35567054 0.19530217 0.30530345
0.17691763 -0.2267667 -0.13011795 -1.4564716 0.23760991 0.07363685 -0.29546395 -0.6479956
0.6684377 -0.53911686 0.11920686 -0.94962734 -0.26803872 -0.32933006 0.17369191 1.0073261
0.1727348 0.12122268 -0.46540362 -0.4393703 -0.5951165 0.21092792 1.0026113 0.8188835
0.77713555 -1.3355764 -0.034885067 0.5028683 -0.49890575 1.0705174 0.21067558 -0.79754436
-0.9029632 0.018982902 -0.7421531 -1.0894706 0.12377635 -0.079341754 0.7735311 0.40392587
0.68101627 -0.4339802 0.9196281 -0.90952027 -0.23596118 -0.010741957 0.042757142 -0.45689014
-1.010667 0.15706375 0.052104253 0.27881545 -0.4468708 -1.0450158 0.73884183 0.2584312
-1.4490149 1.2187067 -0.99040717 -0.048520222 0.74640524 -0.5128576 -0.07865624 -0.30700284
0.2638095 -0.81825364 0.3523488 0.20870408 0.6713573 1.4295127 -0.7835954 0.7213843
-0.20465358 0.42284903 -0.09360871 0.9104022 -0.09071239 -0.81712914 -1.0514985 0.13618346
1.3003268 0.15490746 0.23868541 -1.5192246 1.4076742 0.006533246 0.2780481 -0.66220385
-0.5117273 1.0011404 0.5511501 0.7174083 0.5872251 0.43554664 -0.052520268 -1.56475
0.20568866 -0.20938355 -0.024133595 0.4899003 -0.15008198 0.15519272 0.67032367 0.15984525
-1.1616328 -1.0028251 0.0586311 0.9268887 0.40895668 -1.3544852 0.37869626 0.9454761
-0.7496245 -1.1023867 -0.71061856 -0.23502892 0.6838623 -0.5116552 -1.001387 -1.5073267
-0.6837099 0.28296304 -0.44492713 0.05058237 -0.25368324 -0.7885882 -0.023121638 -0.4944952
0.10743395 -1.8182223 0.28208584 -0.79757977 0.62570643 -0.12220831 0.68026704 0.3473115
0.7430952 -0.024314154 0.14727247 0.46176678 -0.6334907 -0.27516055 -0.91781026 0.6949052
0.81688464 -0.45189974 0.7864888 -0.44265327 0.647007 -0.36620387 0.16612907 -0.33618075
-0.77856445 0.38116425 0.28528675 -0.27810717 0.036883727 -0.6256839 -0.5493663 -0.85476005
-0.05109877 0.26631993 -0.38786772 -0.6534889 0.4540541 -0.68249565 -0.27948457 0.8657556
-1.2395018 0.46383888 1.4306248 -0.19412217 0.16333336 0.15801193 0.14370662 -1.0341315
0.025918778 -0.78438914 0.730602 -0.13280714 0.08289262 -0.9517133 -0.038357574 -0.60771114

lstm.bias_ih_l0 f4 [128]
00000000: 5bef 283e 73af b8be 4bd1 fcbe b22b 3c3f
00000010: 8bbf 0cbe e066 bbbd 8b72 80bf af9b 9d3d
00000020: 1100 c3bf 2b4e 56bd 24bd 17be 63e5 cbbe
00000030: 3909 323f 34c7 0e3f e31b 973f 08bf e1be
00000040: 12d9 a7be 6144 7d3d 9485 2bbf 1fe2 e5be
00000050: 0fd1 7fbe b429 e9be 0023 d3bd 614a 62be
00000060: 37db 083f 5d99 0dbf 1343 673e f724 70be
00000070: 8502 2cbe ee7f 7e3e 1983 18bf 4e3c 063d
00000080: 577e 183c e527 1c3e b855 b6bd 5da0 a93e
00000090: 7853 32bd 302e 0ebe 0445 b93f 2151 afbe
000000a0: 44f8 df3f 57ac 8ebe 8059 103f dccb ddbe
000000b0: 9f9f 1fbf 2dea 7dbd a73e adbb 9f38 70be
000000c0: df9d e9be 23cb 003d 296f eabe 101e 1e3e
000000d0: 2163 0a3f ef82 e7bd e541 ddbc ef58 293e
000000e0: c635 9abe dc93 03c0 3fe4 bbbf ec68 81be
000000f0: 58ed 6abd 5fc8 88bf 719e 67be 3ec9 bdbe
00000100: 7049 01bf d4eb 663e f5d8 063d 2903 093e
00000110: d069 c53e bc6f 2c3e 5a98 06be 61be acbe
00000120: 5627 46bd 50d6 61be 0382 993e c9b2 513f
00000130: 719c e6bd 7215 0f3e e8a2 cc3e 301d 1d3e
00000140: 15a6 78be 60c8 90be c8b7 c23d f014 173f
00000150: b317 643e d49e 10bf 904f 38be 803c 31be
00000160: 85f8 37be 5811 523c db40 093e e617 cebd
00000170: 697f 293f df86 2d3e d1c2 52bf 93f8 26bf
00000180: cab2 333e e671 c4be ffdb 8dbe 9e66 4c3f
00000190: 3888 f6bd a560 8fbe f776 56bd 1c3c 26be
000001a0: 9f70 8abe 1201 e7bd c651 b6be 1162 a6be
000001b0: 10d6 1c3f 5121 223f e6a8 813f 7750 59be
000001c0: c220 d7be 046c 823c 7c5a 1dbf 2770 2abf
000001d0: ec7b 9ebe 42ae 19be 8324 c8bd e507 50be
000001e0: c66d 023f 85f5 95be a6e3 723e 87b4 3fbe
000001f0: abad 4ebe c2e0 3f3e d760 cabe c124 08be
0.16497557 -0.36071357 -0.49378428 0.73504174 -0.13744943 -0.09150481 -1.0034956 0.0769571
-1.5234395 -0.05232064 -0.14818245 -0.39823446 0.6954532 0.5577271 1.1805385 -0.44091058
-0.327828 0.06183279 -0.670007 -0.4489908 -0.24982093 -0.4553963 -0.1030941 -0.22098686
0.53459495 -0.5531214 0.2258418 -0.23451601 -0.16797836 0.24853489 -0.5957504 0.032772355
0.0093074655 0.15249594 -0.08903068 0.3313016 -0.043536633 -0.13884807 1.4474187 -0.34241584
1.749764 -0.2786586 0.56386566 -0.43319595 -0.6235294 -0.061990906 -0.0052870098 -0.23459099
-0.4562826 0.031443726 -0.45787933 0.15441155 0.5405751 -0.113042705 -0.02700896 0.16537832
-0.3011915 -2.0558996 -1.467903 -0.25275362 -0.057355255 -1.0686148 -0.22619034 -0.37067598
-0.5050268 0.22550899 0.03292175 0.13380112 0.3855729 0.16839498 -0.13144055 -0.33738998
-0.048377357 -0.2205441 0.29982004 0.8191343 -0.112603076 0.13973024 0.39968038 0.15343165
-0.24282105 -0.28277874 0.0950771 0.59016323 0.22274666 -0.5649235 -0.179991 -0.17308235
-0.17965896 0.012821518 0.13403647 -0.10063152 0.6621004 0.1694598 -0.82328516 -0.65223044
0.17548671 -0.38368148 -0.27706906 0.7984408 -0.120377004 -0.2800342 -0.052359547 -0.16233867
-0.27039048 -0.11279501 -0.35609263 -0.32496694 0.61264133 0.63332087 1.0129669 -0.21222101
-0.4201718 0.015920646 -0.61466193 -0.6657738 -0.3095392 -0.1500788 -0.09772589 -0.20315512
0.5094875 -0.2928888 0.23719653 -0.1872121 -0.20183437 0.18738082 -0.39527008 -0.1329527

lstm.bias_hh_l0 f4 [128]
00000000: 5264 123d 691e 38be c43c 06bf c8a7 5c3f
00000010: 906d f3bd 85fa 04be 33ed 86bf 30da 19be
00000020: 9a3a aabf b3f4 55ba a18f b0be 3d2c 38be
00000030: 4cb6 4a3f 33c4 603e 0286 773f 66af e3be
00000040: d93d f0be 5915 c93d e420 07bf d29f 02bf
00000050: 2cbc bcbe e1d1 bbbe 6645 79be 7479 ba3d
00000060: c241 203f 42e4 61be 2609 c63d 7d80 bebe
00000070: b276 8abd d928 983e 885b f2be c0be b93d
00000080: 6bbf 70be 360c 9e3e 220f 05be c878 033f
00000090: 539c 49be ec97 84be 6dcc b83f 9f21 aabe
000000a0: 42db d43f b8b7 0abe 2a6a d63e 9137 86be
000000b0: 05b3 05bf 96d2 3fbe 2021 103d b66c adbe
000000c0: a9f7 cbbe 104e 71be 9f23 15bf 3df3 793d
000000d0: b2bc f93e b552 e43d 0995 0dbe 8c2f 103e
000000e0: 634d a7be a3d1 f9bf 5c8d b2bf 97e8 80be
000000f0: 8b89 513e 1fb9 9ebf b86d 83be c0d0 aebe
00000100: 2336 01bf f0f9 053f a101 57bd aca5 d23d
00000110: 059c 003f 4d0e 293e 5498 e3bd daa0 2bbf
00000120: a931 713c 0ff3 dbbe e7ea a23e b35a 493f
00000130: c6bb 9fbd c93c 8abd 7906 ef3e 23c5 de3e
00000140: 8160 36be cb03 c2bd 4170 b6bd 7079 153f
00000150: 6d8f 833e 3943 b5be f775 923d 6a2c acbe
00000160: 3641 7abe 3c57 223d 3fd5 1bbe 2d20 7d3b
00000170: c086 063f 4ea3 233d 5e28 39bf 9960 34bf
00000180: bb1b 6bbd a7c7 fcbe 7795 bfbe 5f38 2f3f
00000190: ae72 c93c 3f29 65bd 8a30 05be 6197 79bc
000001a0: 01c6 4fbe 221c 55be b00f a8be 5f93 aebe
000001b0: 9e37 243f ac77 353f b271 9d3f 89ab c7be
000001c0: c454 c4be ba91 21be c0c9 10bf 68cc 28bf
000001d0: c5b9 22be c421 efbd b145 12be 6a53 9abe
000001e0: f050 b43e b2d0 c9be 0700 6a3e 6d13 84be
000001f0: a776 38bd abbe a03d 9fc4 a1be 4de3 04be
0.035740204 -0.1798035 -0.5243647 0.86193514 -0.11886132 -0.1298619 -1.0541137 -0.15024638
-1.3299134 -0.0008161768 -0.3448458 -0.17985626 0.7918441 0.21949844 0.96688855 -0.44469756
-0.46922186 0.09818525 -0.5278456 -0.51025116 -0.36862314 -0.36683562 -0.2434288 0.091051966
0.6260034 -0.2205973 0.09669714 -0.37207404 -0.067609206 0.29718664 -0.47335458 0.09069586
-0.2351052 0.3086869 -0.12994054 0.5135617 -0.19688539 -0.25897157 1.4437386 -0.33228776
1.6629412 -0.13546646 0.41877872 -0.2621427 -0.5222629 -0.18732676 0.03518784 -0.33872002
-0.39837387 -0.23564935 -0.5825748 0.061022986 0.48776776 0.111485876 -0.13826384 0.14080638
-0.3267623 -1.9517101 -1.394939 -0.25177452 0.20462625 -1.2400244 -0.25669646 -0.3414364
-0.5047323 0.523345 -0.052491788 0.10285506 0.50238067 0.16509362 -0.11113039 -0.67042315
0.014721313 -0.42958876 0.3181984 0.7865402 -0.07799487 -0.06749875 0.46684626 0.43509778
-0.17810251 -0.0947338 -0.089081295 0.58388424 0.25695363 -0.3540285 0.07151406 -0.33627635
-0.24438938 0.039633974 -0.15218066 0.0038623915 0.5254936 0.03995066 -0.7232722 -0.70459896
-0.057399493 -0.49371073 -0.3741872 0.6844539 0.024590816 -0.05594754 -0.13006797 -0.015233845
-0.20290376 -0.20811513 -0.3282447 -0.3409681 0.64147365 0.7088573 1.2300322 -0.38998058
-0.3834592 -0.15778247 -0.56557846 -0.659369 -0.15891178 -0.11676362 -0.14284398 -0.30141765
0.35218 -0.39417034 0.22851573 -0.2579607 -0.04503503 0.07848867 -0.31595322 -0.12977333

lstm.weight_ih_l1 f4 [128, 32]
00000000: b22b cabf 6f89 003f cdec c03f 762a f1bd
00000010: 20c5 f33f 08ff 7bbe 750c 6cbf e52b 41bf
00000020: ed9f d6be 84d2 dc3f a82e eebd e536 7c3f
00000030: 5977 003f 14df 55bf 5ea1 893f 35d8 b33f
00000040: 2ab7 51bf c37e 903e 7f15 0dbf d269 5e3f
00000050: d411 8cbd 1f96 a73f 2910 c33f 0eb5 86bf
00000060: 39dc 093f 0f92 f0be a3a6 b53f 8c1a 223f
00000070: 8800 67bc a39a efbc 8ed2 1cbf 13b9 72bf
00000080: da08 4cbd b402 a33e 0778 d73c 0908 ed3e
00000090: 8cc5 dd3d 8bf0 39be d4e4 673e 659d 30bf
000000a0: 15c3 6c3e a8fc e3bd cb92 40bd ca2a 8cbe
000000b0: be69 2c3d 7ceb b1be 4424 1a3f 2709 453e
000000c0: 50d1 d9bd 9a20 a33d e88c c0be 6e10 9f3e
000000d0: 5e62 20bf 54fc 43be 98d5 ab3e 1e41 603e
000000e0: 08f2 683e 3b29 79be 8833 c43d 4fff c83e
000000f0: dc44 c1bd 05d1 22b9 52c1 353e ec46 9abd
00000100: 963d 0ebf 968f 253f a27b df3e dc65 8dbe
00000110: 6c9b 263f c7f5 0d3e ec72 68bf 3f77 3e3f
00000120: b3ca cbbe 8a1b 99be 0a78 8c3c d9ea 0e3e
00000130: f59a a8bf 803d 1dc0 9800 3d3f e628 97bf
00000140: dca7 b23e 5206 e0be 46fb 03bf 7662 a83e
00000150: 13a2 8cbe 3ee5 dfbe 25eb a23e 93e5 273f
00000160: a7ef e9be fd6e 5b3f 1813 3dbf 6910 1c3f
00000170: 9675 64bc cf1a 693f 8487 99be bc68 65bf
00000180: 7da2 2a3f b1fd f4be 22f5 7b3e 5312 bdbe
00000190: 6c2d 82bf 3193 7ebf 14e5 16bf caf9 923e
000001a0: c58d a63e 867c 5a3f 9bc3 08bb dcd7 1dbf
000001b0: 4d60 af3e 6ba2 bcbe 4507 76be 96bc 173e
000001c0: 32d2 9bbb 1936 933d 46e0 263f 22f1 cfbd
000001d0: c671 46bf 388d 833e 5e99 26be ae36 1ebe
000001e0: 1c5e a23e 5346 e2be 66d3 363e 664b 833f
000001f0: 7f12 07bf bc95 e5bc 7450 233f 8719 fa3d
00000200: 4307 dfbe 9d67 f2be 73d1 443e 0ccb 44bf
00000210: dc2e d03c 3bfe 58bf 1e32 723e 45b0 a73e
00000220: 92bd d43e e025 313d e753 13be c457 00bf
00000230: 34bd 013d 2cfa 44be 00f8 81bf 7250 90bf
00000240: 9f88 0e3e 9d2b 2a3e 70f5 c23e 608f 8cbe
00000250: 9d6d 0bbf e6af c13d ea3f 86be 4d76 1d3f
00000260: 810f c83e 40ab 45be 43bd 1bbe a51a e93e
00000270: 2863 de3d 3b60 1e3f 77da 233f 7a1a b93e
00000280: a573 0f3f f47a d0bc d87b 053f bfcc 13bf
00000290: c2a7 afbe aa97 4bbf 1889 7cbe b2ea 34bf
000002a0: 1b7c a73e 4105 64bd 1bd1 0f3e 4832 03bf
000002b0: 77da 2c3f 3385 3fbf 5f3d ad3e 32e0 843e
000002c0: d713 9abe 7269 373d 569d 10be d4dc 223e
000002d0: df16 4bbf d053 56be b0d2 0e3e e7d4 bc3e
000002e0: 58eb a9be 9804 85be 77c7 6b3e 170e 4b3f
000002f0: a884 01bf 4eeb 353d 1ba3 1e3e 15fd 453c
00000300: 6321 f03d 9dab 443f 021a e63d 62f2 883f
00000310: 3913 3e3d c0d4 2f3f 6ca1 723e 9f0e a23e
00000320: de93 0c3f 096c bcbd cf2a c4be 577f 2bbe
00000330: 9db5 86be 37ca 003e abd2 5d3f cdd5 53be
00000340: ee4d 1e3e 868e d73d 6efd fcbe 8806 c93e
00000350: 0959 d2be 34c6 9ebe 132c 313e fa0f f53d
00000360: 419d 943c 7856 6cbe 30f2 d03c 9ad4 943e
00000370: d0d5 f73d 3f7a 04bf 0516 653e b7d3 57bd
00000380: bcd9 763d 5de4 4cbe 9b0e 85be 7ad8 eb3e
00000390: b93b 06bc bfff 8a3e 1ea9 69bd 178c cfbe
000003a0: 275d d9bc 6f37 16bf 69ab 483f 5e0d 75bd
000003b0: e11f 523d 87ef 373d 1b11 c93f 41d3 0c3f
000003c0: fab6 023f baf7 71bf 2468 bfbc 752d f13e
000003d0: cedb 3abf d652 d1be 218f 96bd 9523 a9be
000003e0: b094 10bf b2ed 5e3f 3a27 3f3e f982 4f3f
000003f0: 4b9d 703e dbd0 40bf 95b1 b83d 94f9 eebd
-1.5794585 0.5020971 1.5072266 -0.11775677 1.9044533 -0.24609005 -0.9220651 -0.754576
-0.4191889 1.7251744 -0.11629993 0.9852126 0.5018211 -0.83543515 1.075237 1.4050356
-0.8192011 0.28221712 -0.55110925 0.8688022 -0.06839338 1.3092688 1.5239307 -1.0524004
0.5385166 -0.46986434 1.4191478 0.6332176 -0.014099248 -0.029248541 -0.6125878 -0.9481365
-0.04981313 0.31838 0.02630235 0.46295193 0.10828695 -0.18158166 0.22645885 -0.68990165
0.23121293 -0.11132175 -0.047014993 -0.27376395 0.04209303 -0.34749973 0.60211587 0.19241773
-0.10635626 0.07965203 -0.37607503 0.31067222 -0.62650096 -0.19139224 0.33561397 0.2189984
0.22748578 -0.24332134 0.09580141 0.39257285 -0.09436962 -0.0001552739 0.17749527 -0.075330585
-0.5556272 0.6467222 0.43649012 -0.27616775 0.65080905 0.13863288 -0.90800357 0.74400705
-0.39803085 -0.29903823 0.017147083 0.13956775 -1.3172289 -2.4568787 0.7382903 -1.1809356
0.34893692 -0.43754822 -0.5155529 0.3288762 -0.27467403 -0.43729585 0.31820026 0.6558468
-0.45690653 0.8571623 -0.7385726 0.6096254 -0.01394405 0.9105653 -0.29986203 -0.89612937
0.6665419 -0.478498 0.2460523 -0.36928043 -1.0170112 -0.99443346 -0.58943295 0.287062
0.32530037 0.8534626 -0.0020868543 -0.616575 0.3425316 -0.36842665 -0.2402621 0.14818034
-0.004755282 0.07188053 0.65185964 -0.10153414 -0.77517354 0.2569368 -0.16269442 -0.15450546
0.31712425 -0.44194278 0.1785408 1.0257385 -0.527626 -0.0280255 0.63794637 0.122119
-0.43560228 -0.47344676 0.19220524 -0.76872325 0.02541297 -0.84762925 0.2365193 0.3275167
0.4155088 0.04324901 -0.14387475 -0.5013392 0.03167458 -0.19236058 -1.0153809 -1.127455
0.13919304 0.166182 0.3807788 -0.27453136 -0.5446413 0.09457378 -0.26220638 0.6150864
0.3907433 -0.19303608 -0.15208916 0.4552814 0.10858756 0.61865586 0.64005226 0.36153013
0.56035835 -0.025449254 0.52142096 -0.5773429 -0.34307677 -0.79528296 -0.24661672 -0.70670617
0.32711872 -0.055669073 0.14044611 -0.512486 0.6752085 -0.7481262 0.33835885 0.25952297
-0.30093262 0.044778295 -0.14122519 0.15904552 -0.79331774 -0.2093041 0.13947558 0.36881182
-0.33187366 -0.25980067 0.23025309 0.79318374 -0.5059304 0.044413857 0.15491907 0.012084265
0.11725118 0.7682436 0.11235429 1.0698969 0.04640505 0.68684006 0.2369439 0.3165178
0.5491313 -0.092002936 -0.3831391 -0.16747795 -0.26310435 0.12577139 0.8664958 -0.20687027
0.15459415 0.10525231 -0.49412102 0.39262795 -0.41083553 -0.31010592 0.17301969 0.11965938
0.01814139 -0.2307986 0.025506109 0.29068452 0.121013284 -0.5174903 0.22371681 -0.05269214
0.06026624 -0.20008989 -0.25987706 0.46063596 -0.00819295 0.27148244 -0.05704605 -0.40536568
-0.026533676 -0.58678335 0.7838655 -0.0598272 0.051299933 0.044906165 1.5708345 0.5500985
0.5106045 -0.94518626 -0.023365088 0.47104993 -0.72991645 -0.4088351 -0.073515184 -0.3303496
-0.5647688 0.87081444 0.18667307 0.81059223 0.23497503 -0.7531869 0.09018246 -0.11668697

lstm.weight_hh_l1 f4 [128, 32]
00000000: e7b3 77be b211 763d 7fc4 8c3e a26a 933e
00000010: bf7c 42bf 234a e43c c70a 953e 62f1 59bf
00000020: 03c7 893e b010 8a3f b175 afbd 1860 92bf
00000030: 8f0e 963f 6440 02bf 5f8e 193e d46c 8e3f
00000040: 9784 8a3f ba2c cd3f 088b e23c 5bf3 92bd
00000050: ad88 1c3e 4cc6 9f3e 7da4 1bbf 8ce0 13bd
00000060: 2f46 7ebe 02c7 14bf b2f7 5c3c d378 993f
00000070: c700 9fbf d1a5 c43e 7753 80bf 7f5c 1c3e
00000080: 1595 a23e 146e b2bd e016 b93d 8ac8 5dbd
00000090: 4703 033c d279 703d 9528 32bd f7f5 df3d
000000a0: cf9d 8d3e d8d9 f6be cd49 86bc d422 81bf
000000b0: 6dfb b03f 8f3a c9bd 9e5b 3c3d 9cbd d53f
000000c0: ff82 933f c672 8f3d 17f9 313d d03f 9dbd
000000d0: 8eeb 153e 0da5 29be b8dd 81bd 0a35 a93d
000000e0: ed79 7abd 572e 153e b733 793d c3b2 d8bd
000000f0: 63c7 62bf 59dd 36bd 349f a3bf c04a 493e
00000100: 85a2 87bf 6025 0b3e 63e5 1bbd 1cd6 473e
00000110: 2169 1fbf dc2e cbbd 450b e03d 8d92 b6be
00000120: 8691 803e 972e 6f3e aa9b 76bd d20a 55bf
00000130: a872 6f3f a883 793c 43c5 fd3d a8f1 843f
00000140: e7ab 4d3f 19e4 34bd 6473 8d3a 3b09 1cbd
00000150: 7293 3a3e 98d7 5cbd af3b 043e 7109 54be
00000160: a06a ddbe 0edb 94bf 9a74 bc3d 5924 11be
00000170: f9c8 0cbf 860c a9bd 54e0 52bf 984b 0cbd
00000180: 7ba4 243f 7646 4d3e 8f47 943e 7beb 1e3f
00000190: 9f89 a4bf 4d24 36be 2b8d 72bf c004 e13e
000001a0: 17b8 c63e 13a1 88bf 8a46 673c e4cd 89bf
000001b0: 70e1 a53f f619 dcbe e696 e43d 913f 883f
000001c0: 77e8 3d3f ef5e aebf 2b9b 70be 84b6 34bd
000001d0: 4950 3b3e 7737 3cbe 10b9 2e3f ada6 dabe
000001e0: f913 e53e 2dc6 cabf 684d 213e 85a7 d6bc
000001f0: 5674 3cbf 2da9 963e 329e 92bf 51e4 b43e
00000200: 9e6b 0dbe b32e 073d 0514 e33e d783 193f
00000210: 0a28 f3bf dbe5 09bf c160 a5bf eb7f 833f
00000220: 4c83 833f aed6 81bf 3b3c 98bd 5410 be3d
00000230: 419d a13e 68a9 a7bf 117b c43d 4beb 053f
00000240: 5594 843c 1305 1fbf 537a 61be 7364 533c
00000250: 3261 d1bc 6ebd 083d 0812 d3bd 3584 63bf
00000260: ea17 883f 0587 9dbf caac 203f 51f5 b73c
00000270: dd82 1ebe 5f3e ae3e 96e2 10bf b67f 343f
00000280: 1275 c43e 6214 db3d 4b64 e2bd eef4 483e
00000290: 3f85 4ebf 1db7 ffbd 13de 9fbe 2df8 263d
000002a0: 7ed5 d03e c469 80bf 0101 813d ff90 c5bf
000002b0: 4d66 e33f 2fb2 53be c1a4 943e 9daf dd3f
000002c0: 416b d23f fcc0 15bf a5af 48be 8ff1 08bd
000002d0: 2a55 6bbc f698 0c3e 9a73 bf3e 9f97 15be
000002e0: c282 503c 8f3d 3bbf 785e 9bbc d66b 2c3e
000002f0: d70e abbf 0ed4 753e f718 fdbf f89d 6e3e
00000300: b9dc d9be 01db 2bbd 50c3 a93e c702 d43d
00000310: 6321 8abe 6663 503e 76d9 88be 954e a83e
00000320: 0623 8a3e 866e f4be 7544 f0bd 5609 4abf
00000330: c363 6f3f 19bb c13d fc37 473e 7880 943f
00000340: 4744 4f3f 4407 f2be 49f9 da3d 4704 a3bd
00000350: b4ff 00be 3928 0fbe f58a 9fbd 4582 5fbe
00000360: f0fd b1be df5c 403e 898c f1bd 428a c7bd
00000370: 8b3e 3bbf e9f2 55be faf9 1dbf ed36 963e
00000380: 87a7 7a3f 280d abbd 85bb 953f 7d18 4a3f
00000390: 4e6a 7cbf 0846 49be 4890 c9bf 268f 8c3f
000003a0: fb25 763e 0db5 aabf 6262 063d 1305 acbd
000003b0: f876 df3e 76f1 08be 776e b13e d05d e13e
000003c0: e64e 6f3d 83e9 7dbf c58d c8be 5f84 a73b
000003d0: e695 163e 57d2 80be 208e 833d 3446 2bbf
000003e0: 4c6f 9c3f d15e 86bf ad79 2c3d ebca 83be
000003f0: baba 56bd b3af 743f c48c 09be 24c9 143f
-0.24189721 0.06007547 0.27493665 0.28792292 -0.759716 0.027867382 0.29109785 -0.85133946
0.26909646 1.0786343 -0.0856737 -1.1435575 1.1723193 -0.508795 0.14995717 1.1126962
1.0821713 1.6029274 0.027654186 -0.071753226 0.15286513 0.31205976 -0.60797864 -0.036102816
-0.2483146 -0.5811616 0.01348679 1.1989998 -1.2422112 0.38407758 -1.0025471 0.1526966
0.31754366 -0.08712402 0.09037566 -0.054146327 0.007996387 0.058709927 -0.043495733 0.10935586
0.2765946 -0.48213077 -0.016392613 -1.0088754 1.3826729 -0.09825622 0.04598581 1.6698489
1.1524352 0.07004313 0.04345044 -0.07678187 0.14640638 -0.16566868 -0.063411176 0.082620695
-0.061151434 0.14568458 0.060840335 -0.10580971 -0.8858549 -0.044644687 -1.278296 0.19657421
-1.0596472 0.13588476 -0.038060557 0.1951527 -0.6226979 -0.09921047 0.109396495 -0.35658684
0.25111026 0.23357616 -0.060207047 -0.83219635 0.93534327 0.015229143 0.1239114 1.0386248
0.8034043 -0.044162843 0.0010791835 -0.03809474 0.18220308 -0.053916544 0.12913392 -0.20706727
-0.4324541 -1.162935 0.092019275 -0.14174022 -0.5499416 -0.08254342 -0.8237355 -0.03425178
0.6431348 0.2004641 0.28960845 0.62078065 -1.2854499 -0.17787285 -0.94746655 0.43948936
0.38812324 -1.0674156 0.014115939 -1.0765958 1.2959423 -0.42988557 0.11161594 1.0644399
0.7418284 -1.3622721 -0.23496692 -0.044119373 0.18292345 -0.18380533 0.6825113 -0.4270529
0.447418 -1.5841728 0.15752184 -0.026202926 -0.73615015 0.29425946 -1.1454527 0.35330442
-0.13810584 0.03300352 0.4435121 0.59966797 -1.8996594 -0.53866357 -1.2920152 1.0273412
1.0274444 -1.014364 -0.07433363 0.09280458 0.31565288 -1.3098574 0.095937856 0.52312154
0.016184011 -0.6211712 -0.22019319 0.012902367 -0.025559042 0.03338378 -0.103061736 -0.88873607
1.0632298 -1.230683 0.62763655 0.022455843 -0.15479608 0.3403196 -0.5659574 0.7050737
0.38370568 0.10697247 -0.110542856 0.19624683 -0.8067207 -0.12486098 -0.31224117 0.040764023
0.40787882 -1.0032277 0.062990196 -1.5434874 1.7765595 -0.2067344 0.29031947 1.7319218
1.6438981 -0.58497596 -0.19598253 -0.033433493 -0.014363566 0.13730225 0.37392884 -0.1460862
0.012726488 -0.73140806 -0.018965945 0.16838011 -1.3363904 0.24006674 -1.9773244 0.23302448
-0.4255121 -0.041956905 0.33156824 0.10352092 -0.26978597 0.20350417 -0.2672841 0.32872453
0.26979846 -0.47740573 -0.11731807 -0.78920496 0.935116 0.09459514 0.1945495 1.1601706
0.8096356 -0.47271168 0.106920786 -0.079598 -0.12597543 -0.13980187 -0.07790176 -0.21827038
-0.3476405 0.18785428 -0.11794383 -0.097431675 -0.7314231 -0.20893444 -0.6170956 0.2933878
0.97911876 -0.08352119 1.1697851 0.78943616 -0.9859971 -0.19655621 -1.5747156 1.0981185
0.24037926 -1.3336502 0.03280867 -0.08399405 0.43645453 -0.1337336 0.3465459 0.44016886
0.058424853 -0.99184436 -0.39170662 0.0051122154 0.14705619 -0.25160477 0.064235926 -0.66903996
1.2221465 -1.0497686 0.042108227 -0.25740752 -0.05242417 0.95580596 -0.13432604 0.58119416

lstm.bias_ih_l1 f4 [128]
00000000: 0e25 5cbf abb2 12c0 7856 8bbf 9fac 9dbf
00000010: 7ac4 f8be 18d7 bbbf 8df5 7fbf 470c b3be
00000020: 66af 0fc0 7ee4 5dbf abd4 19c0 e4bc 09bc
00000030: d8f5 113f 5113 9ebf 165d 0ac0 8a56 143f
00000040: bd4f b03e 8467 00bf 4796 e6bf 79e3 1cc0
00000050: 8424 09c0 7d3f e5bf 2f8b f9be 7827 17c0
00000060: 1611 96bf 9ae3 10bf dcda 09c0 b226 80bf
00000070: ec3c e23e b3b7 a6bf fee3 a73e 0083 b4bf
00000080: 4d48 8e3f d43e 62bf 6e5a 22bf b6c2 eabf
00000090: f57c 64bf a265 d2bf 869e ccbf 2e7c 92bf
000000a0: b64f 69bf 78b5 ebbf 145c 4dbf bfb9 c03e
000000b0: 65c8 703f 6f9b b3bf b6bd 03bf 84df 8b3f
000000c0: 90c7 013f 3de1 c8bf 7c48 d6bb f7a2 33bf
000000d0: 5f12 f0be 0b66 9ebf ea21 f4bf 9640 94bf
000000e0: 2f46 363e 7f02 36bf ce0f 7dbe 3445 f0bf
000000f0: 240e 803f 1927 053e c235 f33e 674e d3bf
00000100: 17de 2e3c 6e63 683d 9b3b 883e 2743 10be
00000110: e3de c2bc 3e66 0e3e 8126 57bc 13ec c33d
00000120: 8da4 5d3d b4d5 d5bd 6965 08be d04e 3f3e
00000130: 3907 22bf 61e8 38bd 4f32 30bd 4de3 1abf
00000140: 1505 8bbe 47a6 113d d09f 09bd f3df 6ebd
00000150: 7e04 553c 7a1d c0bc ef97 88be dfb0 0dbd
00000160: 981a 5ebd ba8a bf3c 78ab e1bd 85a5 81be
00000170: 9b71 1d3f 8a44 123e 196c 2e3e e11a ccbd
00000180: 414e 85bf e707 17c0 7c05 70bf 7990 95bf
00000190: e05f 4fbe 5192 d0bf afad 52bf b174 36bf
000001a0: 0684 24c0 2a43 7ebf 9346 1fc0 bed1 ddbf
000001b0: 78b1 81bf 8396 93bf 7c81 02c0 0f3d dcbe
000001c0: d800 c7bf b680 c0be 43f2 f2bf f1dc 1ac0
000001d0: 845e 05c0 5430 cdbf 7648 f6be d5de 09c0
000001e0: 2170 aabf ebe1 9fbe f08f 09c0 8c38 3cbf
000001f0: 1655 cebf d372 b6bf 1eee bdbf b60e b5bf
-0.8599404 -2.292155 -1.0885763 -1.2318305 -0.485874 -1.4675016 -0.99984056 -0.34970304
-2.2450805 -0.86676776 -2.4036052 -0.008406851 0.5701575 -1.2349645 -2.1619315 0.5794455
0.34435835 -0.5015795 -1.8014611 -2.4513838 -2.1428537 -1.791 -0.48739 -2.361784
-1.1723964 -0.5659729 -2.153983 -1.0011809 0.44187105 -1.302481 0.32791132 -1.4102478
1.1115814 -0.8837712 -0.63419235 -1.8340671 -0.8925317 -1.6437266 -1.5985878 -1.1444147
-0.91137254 -1.8414755 -0.80218625 0.37641713 0.9405578 -1.403181 -0.5146135 1.0927587
0.50695133 -1.5693737 -0.0065394025 -0.7017054 -0.46889016 -1.2374891 -1.907285 -1.158221
0.1780021 -0.7109756 -0.2471306 -1.8771119 1.0004315 0.13003196 0.4750195 -1.6508301
0.0106730675 0.05673545 0.26607975 -0.14088117 -0.023787921 0.1390619 -0.013131739 0.09566512
0.054112006 -0.10441151 -0.13319935 0.18682408 -0.6329227 -0.04514349 -0.043016728 -0.60503083
-0.27152315 0.035558965 -0.033599675 -0.058319043 0.013001559 -0.023451556 -0.26678416 -0.034592506
-0.05422458 0.02338158 -0.11019033 -0.25321594 0.61501473 0.14283958 0.17033423 -0.09966064
-1.0414506 -2.3598573 -0.9375837 -1.1684715 -0.20251417 -1.6294652 -0.8229627 -0.71271807
-2.570558 -0.99321234 -2.4886825 -1.7329633 -1.0132284 -1.1530308 -2.039153 -0.43015334
-1.5547132 -0.375982 -1.8980182 -2.4197352 -2.0838938 -1.6030374 -0.48102158 -2.1542256
-1.3315469 -0.3122705 -2.1494102 -0.73523784 -1.6119716 -1.4253792 -1.4838293 -1.4145114

lstm.bias_hh_l1 f4 [128]
00000000: c8fe 62bf 0e76 1fc0 7c16 8abf d62c a2bf
00000010: 7224 a8be 2fe1 bcbf 6a83 77bf 726d d4be
00000020: ab85 12c0 f487 79bf 90da 1dc0 4069 293e
00000030: 15b5 393f 3585 77bf 3945 febf f2d1 fb3e
00000040: 0bfa 523e bc3b b8be a0fd d5bf f658 15c0
00000050: bf11 0ac0 efd5 d2bf f6fe e8be fad5 0dc0
00000060: 8cb2 87bf b933 19bf e6bc 08c0 2a0c 71bf
00000070: 48ee f23e 42c4 a6bf 0f04 e03e 1ef2 c8bf
00000080: b4f8 5f3f 3169 60bf badf 2ebf 4ce5 e8bf
00000090: 6cba 80bf 76d4 e6bf e1f7 b4bf d51e 60bf
000000a0: af56 81bf 88d1 debf 4559 3dbf 845d 863e
000000b0: 2aa1 8b3f cb30 bcbf 08be 01bf a1d0 863f
000000c0: 2536 113f 0d76 c0bf e644 ff3a 24c0 16bf
000000d0: aade 3bbf 3cb3 8cbf ce77 f1bf faac 87bf
000000e0: 08ce f03d caf7 09bf e33c fdbe bd25 edbf
000000f0: 61b0 6e3f 5341 12bd 975e 1a3f 854e e6bf
00000100: bb8f f53d cc66 4dbd 2190 e53d c310 debc
00000110: 4cd9 0a3e 33c3 d13d c661 3cbd d716 573e
00000120: 0079 dbbd 2c34 c53b 9911 f43d 1747 3e3e
00000130: 3282 03bf 056a bf3d 9373 253d c62c fdbe
00000140: 62b9 eabd b217 d63d 8ec0 86be ab6b 093e
00000150: 58a6 193b bc30 88bd 342b 84be 6d84 48bd
00000160: b380 303c fc33 94bd 0e75 33bc ce6d f6bd
00000170: 843b 023f 0531 a93c 286a 643e ea45 b33b
00000180: 0118 9abf 10ef 1fc0 e0da 82bf ebe5 8bbf
00000190: 56a7 d6be 82d4 b7bf 2658 54bf 05a7 10bf
000001a0: b7ed 11c0 d4b5 92bf 03b6 21c0 c90c d3bf
000001b0: e59d 8ebf f537 93bf e15d 08c0 b2b5 14bf
000001c0: 706d e2bf 6062 16bf a48a e6bf 32a3 10c0
000001d0: e60e 15c0 9160 bbbf 3ea5 d1be 4ae0 0dc0
000001e0: f6df a0bf dcbf b0be 6276 06c0 f630 76bf
000001f0: a3b0 d1bf 46bd b6bf 44a5 b6bf 2078 bebf
-0.88670015 -2.4915805 -1.0788112 -1.2669933 -0.32840306 -1.475622 -0.96684897 -0.4148975
-2.2894084 -0.97473073 -2.466465 0.16544056 0.72541934 -0.9668763 -1.9864875 0.49183613
0.20603196 -0.35983074 -1.6718025 -2.3335547 -2.1573331 -1.6471537 -0.4550702 -2.216185
-1.0601363 -0.5984455 -2.1365294 -0.94159186 0.4744742 -1.3028643 0.43753096 -1.5698888
0.87488866 -0.8766051 -0.6831013 -1.8194976 -1.0056891 -1.8033588 -1.4138147 -0.87547046
-1.0104579 -1.7407694 -0.7396434 0.26243222 1.0908558 -1.470239 -0.5068059 1.0532418
0.56723243 -1.5036026 0.0019475489 -0.58886933 -0.73386633 -1.0992198 -1.8864686 -1.0599663
0.11758047 -0.5389372 -0.49460515 -1.8527142 0.9323788 -0.03570683 0.6030058 -1.7992712
0.11990305 -0.050146863 0.11209131 -0.027107602 0.13559455 0.102423094 -0.04599168 0.21004806
-0.10716438 0.0060181823 0.11917419 0.18581806 -0.5137054 0.093463935 0.040393423 -0.49448222
-0.1146114 0.10453738 -0.26318783 0.13419978 0.0023445096 -0.0664992 -0.2581421 -0.048954416
0.010772872 -0.07236478 -0.010953201 -0.12032662 0.50872064 0.020653257 0.2230612 0.005470981
-1.2038575 -2.4989662 -1.0223045 -1.092954 -0.41924542 -1.4361727 -0.82947004 -0.5650485
-2.280134 -1.146174 -2.526734 -1.6488277 -1.1141936 -1.1501452 -2.13073 -0.58089745
-1.7689648 -0.5874386 -1.801106 -2.2599607 -2.3290343 -1.4638845 -0.40946382 -2.2168145
-1.2568347 -0.34521377 -2.1009755 -0.9616846 -1.638203 -1.4276512 -1.4269185 -1.4880409

fc.weight f4 [5, 32]
00000000: e86d 1bbe 49ad 353e d0a7 f0be d42d a93c
00000010: 5fa1 5dbd ca50 303e 09f1 e43e f5e1 07bd
00000020: 94b4 2a3e 0266 f3be d541 823e c31b 873e
00000030: d4d2 31be 2e02 933e 8c1a 2dbd 3e2d 91be
00000040: 023b e2bd d371 533f 71e6 993e e0b6 183e
00000050: 30c3 cbbe b1c8 123f 0c98 dcbe 7fe7 a03e
00000060: 2737 b13e a5ea 8b3d a218 98be 5181 a63d
00000070: 8e01 643c b2db 823c 540c 5d3d 53d8 54be
00000080: e82d 9cbe 758a 313e bae1 9dbd cb84 d6bd
00000090: 9035 98b9 0cb4 6d3e 93ec 273e 82d7 60bd
000000a0: a9d2 313e be28 a4be e818 86bb 5c13 913e
000000b0: 768a 3cbe 1b7a 14be cd67 f6bd 605d 1dbe
000000c0: 1792 6ebd f836 583e 3f60 803d 98cf acbd
000000d0: d30d de3d d843 ac3e b269 adbe 5423 003d
000000e0: f88e 6d3a 5315 98bd f9e0 89bd 8cc0 99be
000000f0: 1d87 fabb 6756 3e3d aaa6 af3d 8d14 f0be
00000100: 7618 c6be b415 39be c559 9ebd c4a0 ecbe
00000110: e014 ba3d 5813 0e3e 57df 3ebd 754d e4b9
00000120: 3d7c 4fbe 5214 0abd 4539 80be 232e 80bd
00000130: 78bf 2fba 7b9d c3bc b06b cb3d ef37 44be
00000140: 93c6 38be b420 0b3e d768 b4be 2964 23be
00000150: 95ed 823e e8a4 c2be 5183 1abe 42b8 95be
00000160: 6922 293e 0453 603d 7655 263d 0e48 9abe
00000170: f785 c33e 0d27 f53d f05f d73d 5eeb 72bd
00000180: aa58 f9be 915b d9bd a3da a23e ca68 973e
00000190: 56bc ad3d fff2 46be bdc5 bebe 7288 333c
000001a0: b977 24be 2a79 11be 9c89 9cbb 0758 2d3e
000001b0: 8ce7 42be a7b5 853e fe80 da3c c5c6 22be
000001c0: a5a0 72bd 24db 96be cadd f9bc 1533 b93d
000001d0: c7bb 39be 9959 aabe fb1f 4d3d 79d8 a7bd
000001e0: 5755 71be cb73 1fbd d42a 96bc c20a 9dbd
000001f0: a837 313e 168c 603d 0641 ff3d 45fc 8c3e
00000200: ad75 c13d f14d 413d 0fa2 7fbb 87c4 cb3e
00000210: 58dc 2abf 56b4 a5be 6bbd d23e b8ae 15bf
00000220: bce7 ffbc 4828 5c3d 5b0d 2abd 1613 2d3e
00000230: 326f 9739 72bf e7bd 5a9c acbd 7a89 08be
00000240: 273e 6abe 5b17 893c aecb 6dbb ac8f 213e
00000250: 6b85 3dbe 202f 343e 0b96 21bd ec7e ab3d
00000260: de7b d63e e524 40bf 5cf1 4cbe e059 7c3e
00000270: 0d60 453e 04a2 853d daff 823d 4057 2abe
-0.15178645 0.17741884 -0.4700303 0.020651735 -0.054108974 0.17218319 0.44715145 -0.033174474
0.16670448 -0.47538763 0.2544085 0.26388368 -0.17365581 0.287126 -0.042261645 -0.2835483
-0.11046411 0.82595557 0.30058625 0.14913511 -0.39797354 0.5733748 -0.43084753 0.31426618
0.3461239 0.06831864 -0.29706293 0.08130134 0.013916386 0.0159739 0.053966835 -0.20785646
-0.30503774 0.17337973 -0.077090696 -0.10474547 -0.00029031606 0.23213214 0.1639884 -0.054893024
0.17365517 -0.32062334 -0.0040923245 0.28335083 -0.18412194 -0.14499705 -0.12031517 -0.15367651
-0.05824479 0.21114719 0.062683575 -0.08438033 0.108424805 0.3364551 -0.33869702 0.03128369
0.00090621365 -0.07425942 -0.06732363 -0.30029714 -0.0076455013 0.04646912 0.085767105 -0.4689068
-0.38690537 -0.18074685 -0.07731966 -0.46216404 0.09086013 0.13874567 -0.046599712 -0.0004354526
-0.20262237 -0.033710785 -0.25043693 -0.062588 -0.0006704251 -0.023878803 0.09932649 -0.19161962
-0.180445 0.13586694 -0.35236236 -0.15956177 0.25571886 -0.38016438 -0.15089156 -0.2924214
0.16517033 0.05476667 0.040608846 -0.30133098 0.38188145 0.11970339 0.105163455 -0.059306495
-0.48700458 -0.10613168 0.31807432 0.29572135 0.08483188 -0.19428633 -0.37260237 0.010957824
-0.16061296 -0.14206377 -0.0047771465 0.16928111 -0.1903364 0.26115152 0.026672836 -0.15896137
-0.059235234 -0.29464066 -0.030501265 0.09042946 -0.18138038 -0.33271483 0.050079327 -0.08195586
-0.23567711 -0.03892879 -0.018330969 -0.076680675 0.17306387 0.054821096 0.12463574 0.27536216
0.09446273 0.04719347 -0.0039006507 0.39798376 -0.6674247 -0.32364148 0.4116014 -0.58469725
-0.03123843 0.053749353 -0.041516643 0.16901812 0.0002888381 -0.11315812 -0.08428259 -0.13333693
-0.22875272 0.01673477 -0.0036284733 0.15777463 -0.18507926 0.17596102 -0.039449733 0.08373818
0.41891378 -0.75056297 -0.20013946 0.2464366 0.19274922 0.06525043 0.06396456 -0.16634846

fc.bias f4 [5]
00000000: 211a e53e 890e e43e ef4f e83e 34e3 e83e
00000010: 6f43 f93e
0.44746497 0.4454234 0.45373484 0.45485842 0.4868426
