models/rnn/AMZN/weights/best.pth (torch, 34915 bytes, 18 tensors)

lstm.weight_ih_l0 f4 [64, 5]
0.3004045 0.12724876 0.28571376 0.2403407 0.08646413 -0.16780166 -0.11638681 0.002628892
0.04452378 0.07304431 -0.040499877 -0.010461431 0.1081396 0.13664992 -0.04301621 -0.009507904
0.21669342 0.14935875 0.2309318 -0.06750894 -0.2225642 -0.14895643 -0.1696236 0.039937414
0.21074185 0.10864129 -0.046200898 -0.09656351 0.19988687 0.04988625 -0.20801558 0.20962407
-0.17293586 0.19731024 -0.161286 0.015936319 -0.0062745675 -0.0063380715 -0.08483686 0.24321117
-0.0147045795 -0.17629391 -0.087097436 -0.04224357 0.15550327 -0.023829482 0.109759815 0.0942811
0.3899137 0.01479485 -0.043631162 -0.050390698 -0.03740622 -0.23418933 -0.0510571 -0.14082469
0.0030385861 0.2698185 -0.11837432 -0.011531985 0.07531185 -0.23237817 0.16178022 -0.13700071
0.030842924 0.0987356 -0.0080101425 0.26031175 0.03291821 0.023852946 0.1033854 0.030875282
-0.14191763 0.13182922 -0.08135173 0.0027245218 -0.06948954 0.12906484 -0.089043036 0.20995374
0.1397439 0.24738714 0.138351 0.17790353 0.2789321 -0.05215806 0.18427281 -0.13932379
0.18706995 -0.19865504 -0.090367876 0.007998902 0.25491026 -0.041868452 -0.05064696 0.04455997
0.03729193 -0.107427716 0.13430354 -0.066779494 0.24529885 0.1453026 0.2248382 0.15712799
0.18270493 -0.051601928 -0.09908924 -0.048474632 -0.068454474 -0.045229595 0.15405737 -0.08316941
0.07302617 -0.0020858375 -0.015561619 0.03256831 -0.15904392 0.25188103 0.15072612 0.13466981
-0.1510473 -0.08097201 0.2949774 -0.10407445 0.015055395 0.18577476 -0.06359377 0.118408315
0.047721025 0.26036406 -0.20244737 0.093248025 -0.085595265 0.14541058 0.25721613 -0.1299657
0.038184416 0.21934617 0.28451732 -0.23194614 -0.03214053 -0.022603795 -0.14161605 0.11990048
0.030010292 0.17569143 0.059957635 -0.09697103 0.21486236 0.3122459 0.15039349 -0.055536862
-0.12243761 0.18930323 -0.11178537 -0.088852085 -0.15712632 0.03616028 0.17959137 0.17168605
-0.08135669 0.13886327 0.23151195 0.011252395 -0.024932584 0.08325724 0.12009262 -0.14476363
-0.21305422 0.058953144 -0.2354964 -0.23889333 -0.10865288 -0.14002715 0.028725665 0.12360203
0.10808396 -0.06862355 0.058475737 0.10922845 0.034762945 0.18059888 -0.16080628 0.021036537
-0.13866043 0.14139673 -0.14119661 0.12417904 -0.02812472 -0.17131059 -0.17015578 0.19678487
0.12198287 0.18256563 0.033414286 0.15897416 0.109289914 -0.22985116 -0.1405065 -0.101055704
-0.067245945 0.17112419 -0.25866464 -0.03300917 -0.1213032 0.22892867 0.22278222 -0.17555837
0.08238482 -0.17932108 -0.07794797 0.0755095 -0.26881197 -0.26968253 0.16966878 0.059626073
-0.24037747 -0.080233224 -0.17237498 -0.18333776 -0.07096534 -0.10745922 -0.16688228 0.044768136
0.10688672 -0.30191666 -0.26483294 0.1413267 -0.30771443 0.20711921 -0.08490436 -0.015974624
-0.08493862 -0.26767358 -0.17677242 0.095408015 -0.025570517 0.011686917 -0.10787439 0.06033046
0.025036436 -0.050294474 -0.020255612 0.20407245 -0.13153206 0.11195542 0.21526219 -0.008528046
-0.09675554 0.2623765 -0.068958305 0.107047774 -0.10039534 0.16031979 0.06889198 -0.027410844
00000000: 9ece 993e 804d 023e 1349 923e df1b 763e
00000010: 1b14 b13d 33d4 2bbe 355c eebd 7d49 2c3b
00000020: 915e 363d 4198 953d 33e3 25bd 6c66 2bbc
00000030: 4b78 dd3d f5ed 0b3e c431 30bd 0ac7 1bbc
00000040: e1e4 5d3e 80f1 183e 6379 6c3e 2142 8abd
00000050: dfe7 63be 0988 18be cfb1 2dbe 6a95 233d
00000060: b6cc 573e 537f de3d 273d 3dbd 17c3 c5bd
00000070: 25af 4c3e 8655 4c3d 0902 55be b1a7 563e
00000080: 1916 31be b20b 4a3e 2828 25be e28c 823c
00000090: e39a cdbb 99af cfbb f3be adbd 590c 793e
000000a0: 7aeb 70bc 6486 34be 2460 b2bd 9807 2dbd
000000b0: 403c 1f3e 0c36 c3bc c1c9 e03d 7316 c13d
000000c0: c5a2 c73e 1966 723c 97b6 32bd 7a66 4ebd
000000d0: 4437 19bd 54cf 6fbe 4021 51bd 5934 10be
000000e0: 0423 473b a725 8a3e 3c6e f2bd a7f0 3cbc
000000f0: 193d 9a3d 8bf4 6dbe b7a9 253e ea49 0cbe
00000100: 4daa fc3c e435 ca3d f93c 03bc 9547 853e
00000110: 3fd5 063d 4167 c33c b9bb d33d 29ee fc3c
00000120: db52 11be 3dfe 063e bc9b a6bd e48d 323b
00000130: 8850 8ebd 9329 043e 325c b6bd 1dfe 563e
00000140: 0619 0f3e 0e53 7d3e e2ab 0d3e 582c 363e
00000150: 30d0 8e3e b1a3 55bd 03b2 3c3e e5aa 0ebe
00000160: 448f 3f3e 3a6c 4bbe cb12 b9bd d40d 033c
00000170: 9983 823e 417e 2bbd 3073 4fbd 8484 363d
00000180: 6cbf 183d 1003 dcbd de86 093e b0c3 88bd
00000190: 9f2f 7b3e 34ca 143e fc3b 663e 29e6 203e
000001a0: 0017 3b3e 8b5c 53bd 4def cabd 568d 46bd
000001b0: dc31 8cbd ab42 39bd 37c1 1d3e b954 aabd
000001c0: bf8e 953d 8cb2 08bb 29f6 7ebc 5966 053d
000001d0: 69dc 22be 8df6 803e f357 1a3e e2e6 093e
000001e0: 25ac 1abe a7d4 a5bd 4707 973e fc24 d5bd
000001f0: e7aa 763c bd3b 3e3e 733d 82bd 0f80 f23d
00000200: 1f77 433d 704e 853e 5d4e 4fbe d2f8 be3d
00000210: 924c afbd 83e6 143e d5b1 833e ba15 05be
00000220: 4367 1c3d 489c 603e 41ac 913e 4a83 6dbe
00000230: caa5 03bd 982b b9bc cc03 11be 628e f53d
00000240: 25d8 f53c 74e8 333e 2396 753d bf98 c6bd
00000250: e104 5c3e b2de 9f3e c000 1a3e 9f7a 63bd
00000260: 92c0 fabd b5d8 413e baef e4bd 15f8 b5bd
00000270: b9e5 20be cd1c 143d cde6 373e 78ce 2f3e
00000280: 569e a6bd 2c32 0e3e 7811 6d3e f75b 383c
00000290: 6b3f ccbc c682 aa3d 1ff3 f53d eb3c 14be
000002a0: e32a 5abe da78 713d f825 71be 74a0 74be
000002b0: 6785 debd 4763 0fbe 1652 eb3c 1023 fd3d
000002c0: 205b dd3d 818a 8cbd 4184 6f3d 2ab3 df3d
000002d0: 9763 0e3d eaee 383e 67aa 24be d154 ac3c
000002e0: 00fd 0dbe 4eca 103e d895 10be 9551 fe3d
000002f0: d065 e6bc 0b6c 2fbe 513d 2ebe f981 493e
00000300: 28d2 f93d 7cf2 3a3e 6bdd 083d 1fca 223e
00000310: 64d3 df3d 1a5e 6bbe f0e0 0fbe 4bf6 cebd
00000320: 3eb8 89bd 2e3b 2f3e b16f 84be a034 07bd
00000330: d06d f8bd 476c 6a3e 0621 643e 93c5 33be
00000340: 5fb9 a83d f29f 37be 2fa3 9fbd baa4 9a3d
00000350: b9a1 89be d413 8abe a7bd 2d3e 783a 743d
00000360: 8325 76be 5151 a4bd 1183 30be e5bc 3bbe
00000370: 4756 91bd 9413 dcbd 30e3 2abe cb5e 373d
00000380: 6de7 da3d d294 9abe 2f98 87be f2b7 103e
00000390: bf8c 9dbe 0f17 543e 56e2 adbd 37dd 82bc
000003a0: 4df4 adbd 830c 89be d403 35be 4765 c33d
000003b0: 4379 d1bc 7c7a 3f3c 40ed dcbd 131d 773d
000003c0: 3619 cd3c 9401 4ebd 19ef a5bc 5ef8 503e
000003d0: 57b0 06be e248 e53d b16d 5c3e 38b9 0bbc
000003e0: c527 c6bd 3656 863e 033a 8dbd dd3b db3d
000003f0: 129c cdbd df2a 243e 3d17 8d3d b58c e0bc

lstm.weight_hh_l0 f4 [64, 16]
0.2984632 0.19701912 0.19342266 -0.25846088 -0.205502 0.08224973 -0.035522617 -0.18794033
0.055109717 0.006760095 -0.0144533785 -0.24251546 0.05344025 0.108717225 0.18803912 -0.081818916
0.29916793 0.22957236 -0.21897489 0.1357353 0.090618454 0.049307052 -0.19680735 -0.017549265
0.042503327 -0.030392377 0.15880181 0.054801546 0.22652297 -0.13626508 0.05798285 0.07663237
-0.12159317 0.04222805 -0.101713054 -0.16511622 0.13156521 -0.09116958 -0.0895735 0.12990065
-0.15691835 -0.08437021 -0.09878332 -0.0065278322 0.24620016 -0.042403094 -0.11295989 -0.02399255
0.107969604 -0.15033199 0.16300328 -0.13965458 -0.20621261 -0.07009513 -0.025355747 0.24389723
-0.015103093 0.18441081 0.059047084 -0.18201058 -0.040770415 0.06265818 -0.028831251 -0.077405185
-0.19178842 -0.052739684 0.18421015 -0.07061661 0.088081636 -0.07489446 0.14900239 0.028064722
-0.15303557 -0.03564642 0.18955168 -0.19858691 -0.13909931 -0.19485684 0.0580111 -0.20761481
-0.08544721 0.14871302 -0.23172608 0.17086886 -0.20592397 -0.22227594 0.017522302 -0.15426339
0.10275251 -0.015445217 -0.05824212 0.23120698 -0.105385534 -0.068821065 -0.025319953 0.12545419
0.0781555 -0.12910868 0.045439254 -0.005554552 -0.066319846 0.024505408 -0.23733519 0.023144273
-0.2092401 0.03446866 -0.12846337 0.21453919 -0.103400566 0.09231527 -0.098692045 0.15734245
0.25995672 -0.14110474 -0.13187669 0.07018823 0.006719263 -0.1182068 -0.08119471 -0.0691746
-0.07152647 0.102227636 0.08019635 0.12120913 0.016207557 -0.08424318 0.14368725 0.1348737
0.045968957 0.05014061 0.1352534 0.17026882 0.20138873 -0.25449523 -0.25194064 0.12936972
-0.062526055 0.07454501 0.011970478 0.05867579 0.2393468 -0.011373209 0.04905455 -0.027874546
0.3168674 0.34981278 -0.12415137 -0.35709095 -0.37244582 -0.18332201 -0.017192347 0.16851147
0.0096009765 -0.11819749 -0.078628264 -0.22754598 0.44898283 -0.21145833 -0.3448133 0.38713405
-0.085665986 -0.10106655 -0.107637346 -0.13402367 -0.18606128 0.17625163 -0.12689416 -0.21614438
0.14924704 0.14040665 0.14526239 0.19220284 0.34782183 -0.072125 -0.16252717 0.10128979
0.014515728 0.17422652 -0.26980057 0.20681478 0.06684361 0.16332547 0.06186336 -0.013867586
-0.20845269 0.21173842 0.16349305 0.16935648 -0.11734239 -0.32416224 -0.23534732 -0.21098216
0.0045731636 0.13146284 0.2505713 -0.1820553 -0.049473397 0.15322408 -0.05651865 0.06585717
-0.19673277 0.056494795 0.22149953 0.04942006 -0.06121667 0.11935282 -0.06618541 -0.021688005
0.18279044 0.15606368 0.019194676 0.0753782 0.03408027 -0.016671026 -0.26902053 0.25885096
0.039623264 0.07858688 0.21850128 -0.28255886 0.10889602 -0.1944331 -0.108268954 -0.00085738715
0.16946854 -0.0102970665 -0.30283877 0.11328347 0.1567408 0.11748307 -0.11870796 0.22899953
-0.17155278 0.0565903 -0.011965036 -0.19541807 -0.13241698 -0.18878905 -0.13890906 0.16964473
0.06661143 -0.06492641 0.044548713 -0.23150784 -0.15250355 -0.14452127 0.19661279 -0.011608786
-0.27828 0.1836455 -0.1300732 -0.032343704 -0.09782212 0.021814799 -0.16471949 0.22964066
00000000: 2bd0 983e 61bf 493e 9710 463e fc54 84be
00000010: 1e6f 52be 8c72 a83d 2a80 11bd 6e73 40be
00000020: baba 613d c983 dd3b ddcd 6cbc f955 78be
00000030: 2ae4 5a3d 23a7 de3d 548d 403e ad90 a7bd
00000040: 8a2c 993e 0415 6b3e f43a 60be 32fe 0a3e
00000050: 2b96 b93d 31f6 493d de87 49be 7ac3 8fbc
00000060: f817 2e3d 6ff9 f8bc f19c 223e 9677 603d
00000070: a3f5 673e 1389 0bbe 6d7f 6d3d 6ff1 9c3d
00000080: d705 f9bd 52f7 2c3d ef4e d0bd 3a14 29be
00000090: 08b9 063e 1eb7 babd 5072 b7bd ad04 053e
000000a0: 34af 20be 4aca acbd e94e cabd 6de7 d5bb
000000b0: e51b 7c3e deae 2dbd 8457 e7bd 068c c4bc
000000c0: 2b1f dd3d a1f0 19be 55ea 263e 9c01 0fbe
000000d0: 6629 53be 098e 8fbd dbb6 cfbc 32c0 793e
000000e0: f772 77bc 30d6 3c3e 5bdb 713d fb60 3abe
000000f0: e1fe 26bd ef52 803d 842f ecbc 9c86 9ebd
00000100: 2f64 44be 9105 58bd 96a1 3c3e 719f 90bd
00000110: 2564 b43d 4462 99bd 1594 183e fde7 e53c
00000120: 5bb5 1cbe fb01 12bd d619 423e 5e5a 4bbe
00000130: 0d70 0ebe 8d88 47be 0c9d 6d3d fa98 54be
00000140: f2fe aebd 3a48 183e 9a49 6dbe 3ff8 2e3e
00000150: bcdd 52be 4e9c 63be ee8a 8f3c 39f7 1dbe
00000160: e86f d23d ef0d 7dbc 4a8f 6ebd 86c1 6c3e
00000170: 5fd4 d7bd 0ff2 8cbd ca6b cfbc 1077 003e
00000180: fe0f a03d 1135 04be 831e 3a3d f602 b6bb
00000190: b3d2 87bd 91bf c83c ff07 73be 0f99 bd3c
000001a0: 0943 56be 022f 0d3d e78b 03be 29b0 5b3e
000001b0: adc3 d3bd ca0f bd3d 0e1f cabd 611e 213e
000001c0: 0c19 853e c37d 10be af0a 07be d9be 8f3d
000001d0: 432d dc3b 6816 f2bd 6a49 a6bd 6aab 8dbd
000001e0: 787c 92bd b95c d13d fc3d a43d 7e3c f83d
000001f0: b6c5 843c b087 acbd c022 133e 551c 0a3e
00000200: f249 3c3d 3e60 4d3d de7f 0a3e f35a 2e3e
00000210: d938 4e3e 334d 82be 5dfe 80be 7f79 043e
00000220: a90d 80bd 0eab 983d d31f 443c 0656 703d
00000230: 5417 753e b256 3abc 6ced 483d 2959 e4bc
00000240: 723c a23e a91a b33e 1343 febd a0d4 b6be
00000250: 38b1 bebe c4b8 3bbe f7d6 8cbc 458e 2c3e
00000260: 6a4d 1d3c 8711 f2bd db07 a1bd d001 69be
00000270: 14e1 e53e 8888 58be 5e8b b0be 6f36 c63e
00000280: a671 afbd fbfb cebd f870 dcbd 803d 09be
00000290: d986 3ebe 4f7b 343e 8bf0 01be f454 5dbe
000002a0: 37d4 183e c3c6 0f3e aabf 143e d2d0 443e
000002b0: b415 b23e 46b6 93bd 866d 26be 0571 cf3d
000002c0: 60d3 6d3c 7068 323e 4d23 8abe 41c7 533e
000002d0: 4de5 883d cb3e 273e 6f64 7d3d df34 63bc
000002e0: 9f74 55be f5d1 583e b96a 273e c96b 2d3e
000002f0: 3551 f0bd 98f8 a5be e3fe 70be b50b 58be
00000300: 7ada 953b 329e 063e e24a 803e b46c 3abe
00000310: 9ea4 4abd c6e6 1c3e 1a80 67bd 20e0 863d
00000320: 5174 49be 1667 673d c6d0 623e b06c 4a3d
00000330: 55be 7abd 406f f43d 378c 87bd 0bab b1bc
00000340: 6b2d 3b3e 28cf 1f3e 273e 9d3c e35f 9a3d
00000350: c197 0b3d ad91 88bc 0fbd 89be 1d88 843e
00000360: 014c 223d 28f2 a03d cdbe 5f3e 8eab 90be
00000370: e004 df3d 7819 47be 1dbc ddbd 47c2 60ba
00000380: 2989 2d3e 07b5 28bc af0d 9bbe 2a01 e83d
00000390: a980 203e f79a f03d 291d f3bd da7e 6a3e
000003a0: 88ab 2fbe 3bcb 673d 0009 44bc ad1b 48be
000003b0: 5198 07be eb51 41be 2d3e 0ebe 59b7 2d3e
000003c0: 936b 883d 23f8 84bd b678 363d 6410 6dbe
000003d0: e429 1cbe 62fd 13be dd54 493e c732 3ebc
000003e0: b77a 8ebe 910d 3c3e e931 05be d57a 04bd
000003f0: f756 c8bd f3b4 b23c 3aac 28be ec26 6b3e

lstm.bias_ih_l0 f4 [64]
-0.1172392 -0.12304945 0.1549905 0.06291932 0.25379676 0.02027952 -0.0019525164 -0.14906074
0.060424518 0.24854971 -0.0614076 0.074043095 -0.07500225 -0.037990127 -0.07809719 0.013618817
0.07242075 -0.058175504 0.29521734 -0.20467454 -0.19809462 -0.15566733 -0.23869258 -0.17236209
-0.22224888 0.116689846 0.08028058 0.054354653 0.07763111 0.15920132 0.119293906 -0.05801925
-0.028318962 0.13835697 -0.08677858 0.004279613 0.22016993 -0.22364084 -0.22877842 0.22334999
-0.22705886 -0.06339858 0.105029866 -0.20683688 0.033537682 0.15371688 -0.07552787 0.25823674
0.29227847 0.0761251 0.06302693 0.2489511 0.11097908 0.09097337 0.071486615 -0.0017524243
0.121136345 0.008889429 0.16931234 0.07246755 -0.064081915 0.03713043 0.14022171 0.09052899
00000000: 1b1b f0bd 5a01 fcbd d4b5 1e3e d8db 803d
00000010: a6f1 813e 3c21 a63c 94eb ffba 61a3 18be
00000020: b37f 773d d183 7e3e 8986 7bbd e8a3 973d
00000030: c89a 99bd 899b 1bbd 6bf1 9fbd 7521 5f3c
00000040: 5551 943d 7049 6ebd ba26 973e 3496 51be
00000050: 51d9 4abe 4267 1fbe d46b 74be b07f 30be
00000060: 3695 63be 16fb ee3d 256a a43d fca2 5e3d
00000070: 0ffd 9e3d ac05 233e 5d50 f43d 98a5 6dbd
00000080: 2bfd e7bc 73ad 0d3e f8b8 b1bd ff3b 8c3b
00000090: 3a74 613e 1b02 65be e444 6abe dcb5 643e
000000a0: 1e82 68be 1dd7 81bd e619 d73d 0ccd 53be
000000b0: cf5e 093d f567 1d3e 5bae 9abd 9b37 843e
000000c0: 86a5 953e 7ae7 9b3d 4314 813d 0aed 7e3e
000000d0: 0049 e33d 3f50 ba3d 9367 923d 9ab1 e5ba
000000e0: 5516 f83d f8a4 113c 3760 2d3e de69 943d
000000f0: 613d 83bd 1416 183d 4896 0f3e 4367 b93d

lstm.bias_hh_l0 f4 [64]
-0.13308355 0.20517957 0.19919488 0.102766424 -0.026968801 -0.24508727 -0.1799236 0.053493533
0.1233813 0.06573006 0.18570617 0.15118402 -0.061031424 0.018809654 0.2686718 0.0284259
0.2308601 -0.18194205 -0.054263625 -0.2472642 0.26177755 0.08123183 -0.009372898 -0.21671288
-0.11038332 0.26495156 -0.0015225202 -0.12470862 0.06960019 0.15573612 -0.10695027 0.20582613
-0.10327646 0.28996795 0.21280521 -0.20688786 -0.23984483 0.050426852 -0.03221422 0.10646275
0.2322832 -0.04723117 0.20513758 -0.19999507 0.023604492 -0.02003052 -0.27605936 0.14837848
0.25588882 0.1629213 -0.08325034 -0.06777135 -0.010194771 -0.03816285 0.0051343367 0.26922044
-0.10553844 0.15708713 0.08547413 -0.086252354 0.26725137 0.29355425 0.0932044 -0.11767076
00000000: 0e47 08be 981a 523e bef9 4b3e 3477 d23d
00000010: aded dcbc 28f8 7abe e43d 38be 091c 5b3d
00000020: 56af fc3d 7b9d 863d c229 3e3e fccf 1a3e
00000030: 16fc 79bd b416 9a3c 5a8f 893e 6fdd e83c
00000040: 9766 6c3e 044f 3abe 8943 5ebd d432 7dbe
00000050: b507 863e e05c a63d c990 19bc fbe9 5dbe
00000060: a610 e2bd bba7 873e 4d8f c7ba 3c67 ffbd
00000070: 8b8a 8e3d 4a79 1f3e be08 dbbd 16c4 523e
00000080: 9c82 d3bd ae76 943e 9ce9 593e 69da 53be
00000090: e299 75be 638c 4e3d 0ff3 03bd 2409 da3d
000000a0: a6db 6d3e 7975 41bd 960f 523e 82cb 4cbe
000000b0: 355e c13c 0c17 a4bc a757 8dbe 87f0 173e
000000c0: dc03 833e d7d4 263e 277f aabd b5cb 8abd
000000d0: f807 27bc a650 1cbd f03d a83b 43d7 893e
000000e0: 8a24 d8bd 73db 203e 100d af3d 13a5 b0bd
000000f0: 2cd5 883e be4c 963e f3e1 be3d 5efd f0bd

lstm.weight_ih_l1 f4 [64, 16]
-0.10111619 -0.13292594 -0.116718955 0.17467317 -0.238662 0.025627997 -0.101510525 0.2591948
0.07971306 0.33697417 0.13611197 0.018501014 -0.21800554 -0.06446456 -0.08284819 -0.001101285
-0.057438 0.17154159 0.14068712 -0.015091938 0.112102404 -0.09511742 -0.28307045 -0.11635982
-0.10466133 -0.007931513 -0.12790914 -0.21273993 -0.0019238471 -0.14384532 -0.21302736 0.12941962
-0.07026066 -0.16657749 -0.07832646 -0.08436574 -0.06710916 -0.047689933 0.1410467 0.097666495
0.024319584 0.25200814 -0.07900941 0.19984196 0.2616296 -0.29660255 -0.13938527 0.1756192
0.2348895 0.1615791 -0.010640702 -0.19760683 -0.23304094 -0.0963535 0.089809194 -0.049499486
0.15202773 -0.033742115 -0.090237394 0.13363715 -0.14465745 -0.3139827 -0.0336369 0.23812407
-0.07336747 0.28534672 0.015653543 -0.24960157 0.0032355657 -0.13133785 0.022727674 -0.10104911
0.080919616 0.0036776161 0.1833282 0.06764596 -0.18671185 -0.031347446 0.16582027 0.22675803
0.04482828 -0.028529868 0.11011179 -0.2291415 0.0026473624 0.021580182 0.079824515 0.19366015
-0.1861557 -0.07965707 -0.09168139 -0.0044755214 -0.18220222 -0.040215775 -0.15445052 -0.097019084
0.09252286 -0.17127787 -0.20628673 -0.07512031 -0.040060304 0.2273737 -0.05334055 0.21564496
0.06964573 0.29373583 -0.26053563 -0.057077534 -0.008173957 -0.07745098 0.075186394 0.10605152
-0.13957596 -0.05086551 -0.015860843 0.0062240716 -0.043133914 0.20541073 0.21726227 0.27358165
-0.26018474 0.053326562 -0.23153396 -0.006946804 -0.0708819 0.05057743 -0.21998186 -0.019589571
-0.06764753 -0.0072213854 -0.18960245 0.15208642 -0.083347924 -0.14068168 0.06388441 0.046955362
-0.057726208 0.13304065 0.04155934 -0.2345562 0.11600169 -0.29112846 0.1759438 0.07152099
0.1455654 0.27307475 0.1285858 -0.090666585 -0.26924607 -0.034820758 -0.15147084 0.28876653
-0.25334406 0.3507999 -0.034800325 -0.22815332 -0.14379883 -0.36672086 0.09044383 0.10778404
-0.12535919 0.08263508 0.08243417 -0.21375091 -0.1827133 0.07712441 -0.04473722 -0.19340776
0.07373229 -0.35162163 0.19860323 -0.14308244 0.3857414 0.19871694 0.1416735 0.1541972
-0.08823083 0.015783666 0.15351893 -0.057415552 -0.0139386775 -0.13114808 -0.23821077 0.09709553
-0.24017513 0.0881478 0.21880935 -0.20967712 0.11003401 -0.16813123 0.071071126 0.15604657
0.090281576 0.27769837 -0.29352412 0.034022633 -0.22481857 -0.0823526 -0.16554411 -0.14360064
-0.19338709 -0.07335614 0.04845186 0.03498483 -0.21413161 -0.27678743 0.028588794 0.2480147
-0.17729132 0.049717724 0.089309484 -0.28765607 -0.32158485 -0.18102056 0.087485656 0.20480564
-0.14992443 -0.055034254 0.08038694 -0.03534925 0.15246743 0.16461065 0.0038962509 0.21101846
-0.1105853 -0.12522098 -0.15181673 -0.21019864 -0.18608536 -0.0077460892 -0.11370055 0.02230695
-0.18899538 0.07465454 -0.20592797 -0.18014207 -0.31031126 -0.20145683 -0.0620916 0.06615765
0.06846332 0.29814032 0.025842134 -0.2889768 -0.25694206 0.14154872 -0.07233935 -0.17791101
-0.13717678 -0.08203408 0.09226573 0.21936886 0.035346128 0.38366124 0.19427882 0.055676986
00000000: 0116 cfbd bd1d 08be 590a efbd 86dd 323e
00000010: d063 74be cef1 d13c c0e4 cfbd 2eb5 843e
00000020: 9a40 a33d e187 ac3e f060 0b3e 708f 973c
00000030: d83c 5fbe ff05 84bd 50ac a9bd fe58 90ba
00000040: 1c44 6bbd 99a8 2f3e 4910 103e 2d44 77bc
00000050: f295 e53d eccc c2bd 9cee 90be 0f4e eebd
00000060: ae58 d6bd 2df3 01bc 9dfa 02be 7fd8 59be
00000070: 9929 fcba 304c 13be d823 5abe 9486 043e
00000080: d2e4 8fbd 4a93 2abe a069 a0bd f2c7 acbd
00000090: 8770 89bd 8556 43bd 8c6e 103e 5f05 c83d
000000a0: dd39 c73c 3607 813e b0cf a1bd 5fa3 4c3e
000000b0: 51f4 853e 4adc 97be 03bb 0ebe 85d5 333e
000000c0: e086 703e fe74 253e 5756 2ebc 7259 4abe
000000d0: 49a2 6ebe fc54 c5bd e2ed b73d f9bf 4abd
000000e0: 28ad 1b3e 2c35 0abd 62ce b8bd 2dd8 083e
000000f0: 1521 14be 57c2 a0be d9c6 09bd ccd6 733e
00000100: af41 96bd f718 923e dc3b 803c 8e97 7fbe
00000110: c90b 543b 6e7d 06be 632f ba3c d6f2 cebd
00000120: 2fb9 a53d 2904 713b 63ba 3b3e f789 8a3d
00000130: 6431 3fbe 2e66 00bd cacc 293e 4233 683e
00000140: dc9d 373d 78b7 e9bc 4a82 e13d 12a4 6abe
00000150: 5f7f 2d3b ecc8 b03c 097b a33d d94e 463e
00000160: 9a9f 3ebe 3f23 a3bd 74c3 bbbd 65a7 92bb
00000170: 3893 3abe 4cb9 24bd 4728 1ebe f1b1 c6bd
00000180: a07c bd3d 7763 2fbe d43c 53be add8 99bd
00000190: 4616 24bd a7d4 683e 9f7b 5abd 08d2 5c3e
000001a0: 6ca2 8e3d 8b64 963e ed64 85be 22ca 69bd
000001b0: 0fec 05bc 9f9e 9ebd 53fb 993d 8a31 d93d
000001c0: 00ed 0ebe 5a58 50bd 99ee 81bc 4cf3 cb3b
000001d0: 30ad 30bd 3157 523e 007a 5e3e e512 8c3e
000001e0: ef36 85be f46c 5a3d 3d17 6dbe 04a2 e3bb
000001f0: 882a 91bd 472a 4f3d ed42 61be 4f7a a0bc
00000200: ca8a 8abd 5fa1 ecbb 2527 42be 8bbc 1b3e
00000210: 51b2 aabd dc0e 10be d4d5 823d 4454 403d
00000220: 5172 6cbd cf3b 083e 203a 2a3d 802f 70be
00000230: 4b92 ed3d ca0e 95be 9d2a 343e 9979 923d
00000240: 190f 153e 74d0 8b3e ffab 033e 67af b9bd
00000250: 9fda 89be 36a0 0ebd 2c1b 1bbe 35d9 933e
00000260: 50b6 81be 0b9c b33e c98a 0ebd 06a1 69be
00000270: 0040 13be d6c2 bbbe 9d3a b93d e1bd dc3d
00000280: 295e 00be 953c a93d 3fd3 a83d 85e1 5abe
00000290: 3219 3bbe 67f3 9d3d 603e 37bd af0c 46be
000002a0: f400 973d c007 b4be a55e 4b3e 3484 12be
000002b0: e67f c53e 747c 4b3e dc12 113e dfe5 1d3e
000002c0: 5eb2 b4bd bf4c 813c 1134 1d3e 922c 6bbd
000002d0: 0d5f 64bc af4b 06be 86ed 73be 05da c63d
000002e0: 78f0 75be d586 b43d 8f0f 603e 99b5 56be
000002f0: 8359 e13d 982a 2cbe bd8d 913d acca 1f3e
00000300: 8ce5 b83d 7b2e 8e3e cb48 96be 515b 0b3d
00000310: d736 66be 7ba8 a8bd 6584 29be 0c0c 13be
00000320: 4407 46be be3b 96bd 7575 463d 414c 0f3d
00000330: 5145 5bbe 15b7 8dbe 0c33 ea3c 91f7 7d3e
00000340: db8b 35be d0a4 4b3d e4e7 b63d a847 93be
00000350: c5a6 a4be 745d 39be ae2b b33d 92b8 513e
00000360: ca85 19be 996b 61bd e8a1 a43d 60ca 10bd
00000370: 6c20 1c3e b28f 283e 3e58 7f3b 3915 583e
00000380: 8c7a e2bd ee39 00be d875 1bbe 503e 57be
00000390: 298d 3ebe e8d2 fdbb d5db e8bd 11bd b63c
000003a0: 0188 41be 7be4 983d c8de 52be 2a77 38be
000003b0: 1ee1 9ebe b34a 4ebe c353 7ebd a97d 873d
000003c0: 7f36 8c3d d9a5 983e e2b2 d33c c4f4 93be
000003d0: e98d 83be 26f2 103e a726 94bd 4e2e 36be
000003e0: 1278 0cbe 7c01 a8bd d1f5 bc3d 3ba2 603e
000003f0: 1ac7 103d 3f6f c43e 07f1 463e 8d0d 643d

lstm.weight_hh_l1 f4 [64, 16]
-0.19561625 -0.13138469 -0.08793456 -0.12521707 0.014207717 -0.15010567 0.25677562 0.027185097
-0.07362285 -0.058848385 -0.09631542 0.1786951 0.17919967 0.23252062 -0.07629364 0.020029774
0.06758529 -0.085512675 -0.27558863 -0.16656397 -0.27007157 0.12101304 0.20429617 0.15259734
0.018096486 -0.23000564 0.06608976 0.11388146 0.025758013 -0.16287914 0.07632554 0.07237659
0.08456769 0.069008574 -0.08708273 -0.17652763 -0.3043327 0.090263404 0.07054961 -0.22860308
0.12106508 0.10769324 0.032510955 -0.131214 0.12267321 0.18654405 0.28380048 -0.05996727
-0.032589782 -0.07485286 -0.16635388 -0.046298884 0.18659887 0.116438895 0.27457795 0.08495601
0.14890353 -0.23148875 0.10127012 -0.19138953 -0.20237699 -0.049388267 0.18042146 -0.11223174
0.15234306 -0.20634493 -0.101124115 -0.09420884 -0.17742568 -0.16880667 -0.20906274 0.015828412
0.14980358 0.16086887 0.27107662 -0.018998284 -0.095827535 -0.033097215 -0.1011178 0.053046294
-0.08454017 -0.12110969 0.19262643 -0.01278728 -0.26285344 -0.16234174 -0.01592965 0.0066596996
-0.2215055 -0.039850745 -0.05418387 -0.15926868 0.16167979 0.26761156 -0.09553182 -0.24095552
0.064233825 0.2764722 -0.32825574 -0.28213695 -0.104074664 -0.1768166 -0.12643665 -0.27398983
-0.18447416 0.09455459 0.23817001 -0.15386553 0.28543377 0.060387086 -0.022567295 0.104019955
0.13620494 0.14872658 -0.23525761 0.0024283675 0.20235485 -0.012050016 -0.17352933 0.21385105
0.26640838 -0.21052465 0.05034374 0.03647377 -0.20721202 0.31270975 -0.072347105 0.23595616
0.042757966 -0.047686525 0.087219216 0.087922856 -0.021894619 0.09925016 -0.20877792 0.20326263
-0.22540213 0.10089491 0.062493466 0.051724546 -0.14924857 0.19953999 -0.12648296 -0.13120088
-0.09319051 0.010546526 0.081552915 -0.07476837 -0.09592732 0.041062646 -0.016454237 -0.19071993
0.10047451 0.093119346 0.09884053 -0.19703831 0.044368852 0.20193866 0.25071323 0.17708832
0.19891681 0.03027557 0.24762201 0.29203495 0.10168238 0.14658614 -0.20106784 0.08144973
0.04556995 0.09504589 -0.0974702 -0.1429632 -0.06406213 -0.32895842 -0.026598841 0.09388274
-0.12689297 -0.077419214 -0.13634712 -0.09901948 -0.17479825 0.11522093 0.1614339 -0.23266004
-0.16094734 -0.1076102 -0.15444508 0.0555158 0.2926477 0.16326453 0.14732876 -0.08448824
0.1910615 -0.10819315 0.16556726 0.009232346 -0.07699509 -0.11540371 0.25645223 -0.17383116
-0.12134373 -0.094368994 0.15247855 0.23824422 -0.115961425 0.053866956 0.22153458 0.11974109
-0.2778328 0.30520496 0.12836507 0.16504622 -0.15860946 0.10286456 -0.16361815 -0.3323111
0.051386077 0.015189091 -0.10915695 0.11234824 -0.14052188 0.22712407 -0.023740012 -0.24071088
-0.009014858 0.034384355 -0.10479586 -0.05302022 0.08179432 0.0765306 0.19000734 -0.19335707
0.20676047 -0.2627628 -0.15897897 0.23749547 0.04027488 -0.11085632 0.11283828 -0.07702154
-0.29855424 -0.1962739 -0.01412467 0.02165351 -0.20294479 0.2509388 0.029696865 0.012308959
0.025189698 -0.078689344 0.31350774 0.12281614 0.13947569 -0.15457976 -0.13563311 -0.27862245
00000000: a04f 48be b589 06be 0917 b4bd e738 00be
00000010: 7cc7 683c 4db5 19be 1878 833e 48b3 de3c
00000020: 94c7 96bd 010b 71bd 0541 c5bd d9fb 363e
00000030: 1e80 373e e319 6e3e d73f 9cbd 7b15 a43c
00000040: 286a 8a3d 4521 afbd f419 8dbe bf8f 2abe
00000050: d246 8abe afd5 f73d 0433 513e 7a42 1c3e
00000060: 153f 943c 9986 6bbe 115a 873d af3a e93d
00000070: 7802 d33c cac9 26be 9150 9c3d 2d3a 943d
00000080: d331 ad3d 5e54 8d3d 6e58 b2bd a9c3 34be
00000090: 7fd1 9bbe 05dc b83d 507c 903d ed16 6abe
000000a0: f8f0 f73d 468e dc3d 352a 053d f65c 06be
000000b0: 183c fb3d 6705 3f3e 4c4e 913e 3da0 75bd
000000c0: dd7c 05bd 754c 99bd ac58 2abe e6a3 3dbd
000000d0: c613 3f3e 8477 ee3d 7b95 8c3e 6bfd ad3d
000000e0: 2b7a 183e 630b 6dbe b566 cf3d 9efb 43be
000000f0: ea3b 4fbe 5a4b 4abd 67c0 383e c1d9 e5bd
00000100: d2ff 1b3e 164c 53be 291a cfbd 90f0 c0bd
00000110: 14af 35be a8db 2cbe 8b14 56be 96aa 813c
00000120: 1c66 193e cfba 243e 8eca 8a3e 4aa2 9bbc
00000130: 3a41 c4bd f290 07bd d916 cfbd 1247 593d
00000140: 6623 adbd 5b08 f8bd dd3f 453e bd81 51bc
00000150: ba94 86be ea3c 26be e67e 82bc 9c39 da3b
00000160: 56d2 62be 893a 23bd e8ef 5dbd 5417 23be
00000170: 638f 253e 6204 893e 30a6 c3bd 0bbd 76be
00000180: 068d 833d c48d 8d3e 2311 a8be 4174 90be
00000190: 1925 d5bd 690f 35be 9c78 01be 6548 8cbe
000001a0: cbe6 3cbe d6a5 c13d d7e2 733e ed8e 1dbe
000001b0: 6024 923e 7358 773d 0cdf b8bc 6a08 d53d
000001c0: 4f79 0b3e c84b 183e 5fe7 70be 3f25 1f3b
000001d0: 1c36 4f3e 6e6d 45bc acb1 31be c5fb 5a3e
000001e0: ae66 883e c693 57be 3d35 4e3d 8565 153d
000001f0: 632f 54be 7e1b a03e b82a 94bd 7e9e 713e
00000200: fa22 2f3d f252 43bd fd9f b23d e610 b43d
00000210: 585c b3bc ab43 cb3d e1c9 55be 1424 503e
00000220: d1cf 66be fea1 ce3d 26f9 7f3d 1edd 533d
00000230: 9ed4 18be 3654 4c3e c084 01be 8659 06be
00000240: abda bebd 56cb 2c3c 3705 a73d 2920 99bd
00000250: 8b75 c4bd 4e31 283d 09cb 86bc 164c 43be
00000260: 94c5 cd3d 5bb5 be3d e76c ca3d 69c4 49be
00000270: 1dbc 353d 02c9 4e3e 7c5d 803e a456 353e
00000280: d9b0 4b3e 7904 f83c a090 7d3e 9b85 953e
00000290: da3e d03d ad1a 163e bae4 4dbe 1ecf a63d
000002a0: 8ea7 3a3d 6ba7 c23d 759e c7bd f264 12be
000002b0: 0233 83bd 3d6d a8be d0e5 d9bc 9845 c03d
000002c0: 3bf0 01be f78d 9ebd 949e 0bbe baca cabd
000002d0: 50fe 32be f3f8 eb3d ee4e 253e 6f3e 6ebe
000002e0: 61cf 24be bd62 dcbd da26 1ebe 8964 633d
000002f0: ebd5 953e d12e 273e 5add 163e 2c08 adbd
00000300: a0a5 433e 5f94 ddbd 778a 293e 4443 173c
00000310: 9aaf 9dbd c858 ecbd b54d 833e cc00 32be
00000320: 1083 f8bd 8844 c1bd 5623 1c3e 4bf6 733e
00000330: 2f7d edbd 99a3 5c3d f6d9 623e d13a f53d
00000340: 1a40 8ebe d343 9c3e 2272 033e e001 293e
00000350: 856a 22be a8aa d23d 848b 27be ae24 aabe
00000360: 357a 523d aadb 783c ae8d dfbd d616 e63d
00000370: f8e4 0fbe 3693 683e 6a7a c2bc ea7c 76be
00000380: 0eb3 13bc 9cd6 0c3d 369f d6bd bb2b 59bd
00000390: c883 a73d 13bc 9c3d 4991 423e 65ff 45be
000003a0: 04b9 533e d988 86be 62cb 22be 0332 733e
000003b0: 46f7 243d a308 e3bd c217 e73d 78bd 9dbd
000003c0: 1adc 98be 06fc 48be 296b 67bc b462 b13c
000003d0: c2d0 4fbe 0d7b 803e d746 f33c 84ab 493c
000003e0: a05a ce3c e127 a1bd 1684 a03e 0787 fb3d
000003f0: b7d2 0e3e 284a 1ebe 68e3 0abe 9aa7 8ebe

lstm.bias_ih_l1 f4 [64]
0.017869338 -0.18048249 -0.19651538 0.171142 0.27668366 -0.074569315 -0.101221666 0.07985565
-0.20976183 -0.025345422 -0.10685047 0.17553972 -0.14894831 0.026757449 0.12331289 -0.12376688
0.044693034 0.18811809 0.1703119 0.22668052 0.06100148 -0.19452487 0.24621984 -0.07263439
-0.17271198 0.012041624 -0.11696593 0.28121865 -0.09928118 -0.100786895 -0.10467441 -0.16885869
-0.11081517 0.080020145 -0.049283992 -0.16823453 -0.1811254 0.079552636 0.14042722 -0.20025378
0.11613791 0.16867307 0.18112862 0.0323142 0.0128435865 0.19724849 -0.06620324 -0.115522146
-0.031155447 0.072021306 0.25732842 0.14333765 0.07582734 -0.11767508 -0.01290682 0.20055681
0.0042534103 -0.12657464 -0.07914857 -0.16986936 0.14447188 0.23403111 0.20603463 0.08633227
00000000: b862 923c 67d0 38be 543b 49be d93f 2f3e
00000010: 7ba9 8d3e ccb7 98bd 4e4d cfbd 5c8b a33d
00000020: cecb 56be 34a1 cfbc 6bd4 dabd afc0 333e
00000030: e885 18be 7032 db3c 788b fc3d 7d79 fdbd
00000040: 0b10 373d 07a2 403e 3e66 2e3e f01e 683e
00000050: b0dc 793d 8731 47be 0e21 7c3e 57c1 94bd
00000060: 69db 30be 3b4a 453c d58b efbd e4fb 8f3e
00000070: ee53 cbbd 5c69 cebd 895f d6bd 4be9 2cbe
00000080: 10f3 e2bd 9ae1 a33d 03de 49bd ac45 2cbe
00000090: f078 39be 7eec a23d 27cc 0f3e 540f 4dbe
000000a0: b6d9 ed3d a2b8 2c3e c879 393e e55b 043d
000000b0: e86d 523c 82fb 493e 9095 87bd e096 ecbd
000000c0: b539 ffbc e87f 933d 8dc0 833e 1bc7 123e
000000d0: 5d4b 9b3d a2ff f0bd 2077 53bc c45e 4d3e
000000e0: 3160 8b3b c89c 01be a518 a2bd 3cf2 2dbe
000000f0: 70f0 133e daa5 6f3e befa 523e f9ce b03d

lstm.bias_hh_l1 f4 [64]
0.041478716 0.013974881 0.2791018 -0.20024239 -0.017916095 0.054586474 -0.057576913 0.07416943
-0.06455961 -0.07444157 -0.023735844 0.17326127 -0.0008942906 0.25001347 0.03266282 0.1765544
-0.20481198 0.16681202 -0.17517148 0.13364938 -0.18219762 0.03576224 -0.09324285 0.21859534
-0.058185175 0.086447306 0.1516301 0.21472014 0.23589194 0.3036216 -0.15471025 -0.13580324
-0.11627144 0.20444791 -0.14265311 -0.076268695 0.00091274944 -0.107448295 0.26123565 -0.2470841
0.018228674 -0.106049456 0.05277424 0.02564686 0.09540562 -0.20120552 0.26356992 -0.06243779
-0.101616845 -0.20141256 -0.033621818 -0.038915925 -0.17416906 0.17910296 -0.08781098 0.020660453
0.019812793 -0.008395051 0.20612136 0.25408795 -0.06629106 0.13118775 0.25272056 0.018600874
00000000: 96e5 293d e6f6 643c 6ee6 8e3e 570c 4dbe
00000010: c6c4 92bc 1196 5f3d c5d5 6bbd 24e6 973d
00000020: d437 84bd d274 98bd ac71 c2bc 676b 313e
00000030: d46e 6aba c401 803e 73c9 053d adca 343e
00000040: 3bba 51be c5d0 2a3e 2760 33be 62db 083e
00000050: 0392 3abe 6d7b 123d 1bf6 bebd 75d7 5f3e
00000060: 9453 6ebd 490b b13d ec44 1b3e 99df 5b3e
00000070: a88d 713e 4a74 9b3e 5d6c 1ebe 0110 0bbe
00000080: b91f eebd cb5a 513e a813 12be c332 9cbd
00000090: 9445 6f3a da0d dcbd aec0 853e 9d03 7dbe
000000a0: 4d54 953c 7530 d9bd cd29 583d 5d19 d23c
000000b0: 0664 c33d d208 4ebe a3f2 863e c5be 7fbd
000000c0: 7e1c d0bd 183f 4ebe 08b7 09bd 4e66 1fbd
000000d0: 6059 32be c466 373e 3ed6 b3bd 1c40 a93c
000000e0: 704e a23c 658b 09bc 7a11 533e d117 823e
000000f0: 9bc3 87bd 1556 063e 9764 813e dc60 983c

lstm.weight_ih_l2 f4 [64, 16]
-0.17146073 -0.18877359 -0.091771044 -0.18132935 -0.14808503 -0.14742133 0.10675246 -0.2194649
0.23147707 -0.21453975 0.06265758 -0.133948 0.07103882 0.1511577 0.1474396 -0.17919922
-0.31609982 -0.1141083 -0.0024894292 -0.110545985 -0.25370982 0.26694104 -0.16234313 0.16077708
-0.09575539 -0.12352546 0.020399908 -0.15848452 -0.07659254 0.117050886 -0.17497268 -0.15194353
0.0321796 0.052363373 -0.32951254 0.03603858 0.042826343 0.032724373 -0.09045462 -0.21866776
-0.104484774 -0.07705327 -0.09615258 0.2558078 -0.03979567 -0.06412756 0.034138788 0.22397381
0.080530874 -0.28154996 0.18607005 0.104661085 0.015849922 -0.06354993 -0.08145265 -0.16930847
0.13894464 -0.086325794 0.06343721 -0.0011732783 -0.030239398 -0.09700665 -0.14876813 -0.14135274
0.113658726 -0.075821206 -0.29317832 0.04147734 -0.10294176 0.16595279 0.25114655 0.07242262
-0.13029413 0.05296366 0.043832954 0.079792164 0.03077357 0.08780771 -0.1308362 0.115449235
0.02356731 -0.19147623 -0.098799385 0.13546158 0.1610042 -0.13114797 -0.0517524 -0.057546344
0.19225866 -0.040132668 0.12772404 0.28871408 0.19684045 0.267837 0.20864858 0.21200679
-0.04855241 -0.15429512 -0.24542627 -0.2770557 -0.17469859 -0.09494233 -0.15169516 -0.22851954
0.22704066 -0.20135818 -0.14800918 0.08153338 -0.052187134 0.12727852 0.11766201 0.038874656
0.07876419 -0.13902374 -0.10555439 -0.25916216 0.027583502 -0.113490686 0.11475115 -0.20724477
0.2392133 0.13893308 0.18723427 -0.23979895 0.2553586 -0.03876138 0.14416327 0.2731623
-0.23172793 0.05986255 -0.21910203 -0.17639332 -0.09876748 0.22366387 -0.1838723 -0.2951528
0.15935008 -0.041816887 0.04276734 -0.08019571 -0.11753851 0.18379603 -0.06735808 -0.27432573
-0.07591577 0.0619375 -0.093109444 0.12132527 0.05239972 0.082491755 -0.14522737 -0.05450461
0.1767641 0.04548992 -0.21219696 0.1451453 0.16677247 -0.19709614 0.24361762 -0.19237857
0.19320899 0.056964114 0.11318905 0.099194594 -0.038157836 -0.185926 0.09214658 0.10313536
0.23563685 -0.005392298 -0.113970555 0.089131355 -0.18030345 0.031056702 -0.060301557 -0.11231578
-0.14392166 0.025659677 -0.078635514 0.04730904 -0.013165022 0.14251283 -0.1891098 -0.21411791
0.254667 -0.1949448 -0.051313814 -0.18424676 -0.11406478 0.22558111 -0.14798148 0.13550673
-0.08483506 0.09293443 0.060141645 0.20492023 0.061995946 -0.16424312 -0.2863235 0.24922612
0.029488657 0.14367278 0.39166972 -0.2439077 -0.16003013 0.18771513 0.020534774 -0.12024298
0.11441286 -0.08142991 -0.05972487 -0.085707955 0.075669356 0.1565007 0.25418612 0.021665785
0.011144502 -0.14025007 0.15282126 0.13500522 -0.052026574 -0.059111163 0.2373102 -0.18653952
-0.021454236 -0.0560558 0.02943325 0.047698397 0.0149209015 0.13053353 -0.16603354 -0.06094126
0.124470346 0.14780356 -0.000700969 -0.16720223 -0.16193877 -0.08728773 -0.1155372 -0.1946136
0.054591257 0.21714325 0.032362893 0.18813013 -0.2860658 -0.0008171619 0.13818291 0.055306397
0.032063868 0.13906789 0.3110341 0.06372952 -0.047333587 0.06725706 0.10229499 -0.07830904
00000000: 6793 2fbe dd4d 41be 75f2 bbbd 67ae 39be
00000010: 9aa3 17be 9ef5 16be 09a1 da3d 68bb 60be
00000020: 5308 6d3e 4fb0 5bbe 9e52 803d aa29 09be
00000030: cd7c 913d 16c9 1a3e 68fa 163e 0080 37be
00000040: d6d7 a1be 9db1 e9bd b125 23bb ef65 e2bd
00000050: 41e6 81be 7fac 883e 473d 26be bfa2 243e
00000060: 671b c4bd ebfa fcbd b51d a73c c449 22be
00000070: 8ddc 9cbd 60b8 ef3d 0a2c 33be 1697 1bbe
00000080: c2ce 033d fa7a 563d deb5 a8be 319d 133d
00000090: ad6a 2f3d fe09 063d 4640 b9bd 71ea 5fbe
000000a0: 1dfc d5bd 1bce 9dbd a5eb c4bd 3df9 823e
000000b0: c900 23bd 4f55 83bd 1dd5 0b3d 6459 653e
000000c0: 5fed a43d 5127 90be 2689 3e3e 8d58 d63d
000000d0: b2d7 813c 7726 82bd a6d0 a6bd 335f 2dbe
000000e0: 8147 0e3e 94cb b0bd 5eeb 813d b0c8 99ba
000000f0: 9db8 f7bc 6cab c6bd ac56 18be c6be 10be
00000100: e8c5 e83d 2648 9bbd 781b 96be 25e4 293d
00000110: 21d3 d2bd 87ef 293e 4896 803e 5052 943d
00000120: d36b 05be 6cf0 583d 2f8a 333d 136a a33d
00000130: db18 fc3c 87d4 b33d edf9 05be a670 ec3d
00000140: 3b10 c13c 5812 44be 5557 cabd 71b6 0a3e
00000150: 49de 243e a74b 06be 53fa 53bd b7b5 6bbd
00000160: 74df 443e 2762 24bd 17ca 023e 55d2 933e
00000170: 8b90 493e ee21 893e f9a7 553e 4f18 593e
00000180: e4de 46bd 8aff 1dbe 0651 7bbe 3fda 8dbe
00000190: 30e4 32be 2071 c2bd fa55 1bbe 0701 6abe
000001a0: 597d 683e d730 4ebe b88f 17be f9fa a63d
000001b0: 2dc2 55bd 4d55 023e c8f8 f03d 083b 1f3d
000001c0: 1f4f a13d 3d5c 0ebe e62c d8bd e7b0 84be
000001d0: ccf6 e13c ce6d e8bd a702 eb3d f937 54be
000001e0: 55f4 743e 7944 0e3e 57ba 3f3e db8d 75be
000001f0: 5dbe 823e 41c4 1ebd 899f 133e eedb 8b3e
00000200: 164a 6dbe 6f32 753d 485c 60be 73a0 34be
00000210: 9b46 cabd 2408 653e 0549 3cbe 451e 97be
00000220: ab2c 233e 2f48 2bbd ce2c 2f3d a63d a4bd
00000230: 08b8 f0bd 0735 3c3e 08f3 89bd 6c74 8cbe
00000240: ba79 9bbd 2db2 7d3d 2ab0 bebd 6279 f83d
00000250: 17a1 563d 70f1 a83d 7cb6 14be 3a40 5fbd
00000260: a601 353e a353 3a3d 294a 59be f8a0 143e
00000270: 67c6 2a3e 92d3 49be e676 793e e3fe 44be
00000280: 94d8 453e 3453 693d a9cf e73d 8926 cb3d
00000290: 644b 1cbd 6363 3ebe 59b7 bc3d a238 d33d
000002a0: c94a 713e e0b1 b0bb 6569 e9bd 808a b63d
000002b0: 78a1 38be a06a fe3c c4fe 76bd d105 e6bd
000002c0: 3360 13be 3e34 d23c a80b a1bd 20c7 413d
000002d0: 1bb2 57bc e2ee 113e 00a6 41be ba41 5bbe
000002e0: b763 823e 9c9f 47be 6f2e 52bd 2fab 3cbe
000002f0: cc9a e9bd bcfe 663e 7588 17be 47c2 0a3e
00000300: 01be adbd 6854 be3d 1657 763d 9cd6 513e
00000310: 76ef 7d3d 592f 28be fe98 92be 2235 7f3e
00000320: 3292 f13c f51e 133e ef88 c83e f1c2 79be
00000330: f0de 23be 6538 403e 8b38 a83c f441 f6bd
00000340: 4a51 ea3d bac4 a6bd 11a2 74bd a787 afbd
00000350: 89f8 9a3d b841 203e af24 823e 727c b13c
00000360: 6e97 363c b79d 0fbe 2d7d 1c3e cf3e 0a3e
00000370: d119 55bd 8c1e 72bd 7201 733e 3704 3fbe
00000380: cbc0 afbc c49a 65bd 001e f13c 655f 433d
00000390: cc76 743c 95aa 053e b204 2abe 8b9d 79bd
000003a0: 4fea fe3d d159 173e 3cc1 37ba 1037 2bbe
000003b0: 47d3 25be e9c3 b2bd c49e ecbd ca48 47be
000003c0: 159b 5f3d cd5a 5e3e f48e 043d 2fa5 403e
000003d0: 3777 92be cf36 56ba d27f 0d3e f688 623d
000003e0: 6755 033d d067 0e3e dd3f 9f3e 9f84 823d
000003f0: dde0 41bd 12be 893d 0980 d13d 7d60 a0bd

lstm.weight_hh_l2 f4 [64, 16]
-0.2763896 0.00941592 0.01924162 0.16172329 -0.2598242 -0.14724047 0.26396933 0.100491
-0.01671668 0.19400524 0.078259185 -0.005784383 -0.023679277 0.2662849 0.27460173 -0.0022834872
-0.22801395 0.33482358 0.13064213 0.05459756 -0.014516394 -0.18212391 -0.09432953 -0.18848233
0.22358249 0.22714461 0.17378114 0.24359526 0.12755406 -0.1971838 -0.19852808 -0.116173625
0.1408868 0.18598682 -0.15352573 0.07880876 0.0111513985 -0.13117944 0.024183728 0.08846807
0.24516514 -0.1324763 0.08792102 -0.18146817 0.1992919 -0.17483363 0.1683954 0.101238884
0.051833075 -0.17478226 0.18765089 -0.047351245 -0.23291707 0.060017463 -0.14911658 0.06997411
-0.13420592 0.027832163 0.05966664 0.20423982 0.15793562 -0.11148128 0.17463078 0.13078225
-0.16291687 0.2043632 0.1396169 -0.18874532 -0.21398626 -0.20715523 0.14050403 -0.28440306
-0.13072424 -0.033982385 -0.22224998 -0.10600096 0.012628736 -0.13876915 0.00975534 0.19267935
-0.14468363 0.18794121 -0.041997638 -0.16272047 -0.24023795 -0.19850758 0.14907369 -0.18686917
0.17487104 -0.11352928 0.19696386 -0.1822507 0.04901501 0.21760067 0.15935561 -0.049091928
-0.1682019 -0.08298065 -0.058767717 -0.17922522 -0.2059152 -0.06760277 0.23922542 0.18323025
-0.038607668 0.12335664 0.009482051 0.030552596 -0.0064843376 0.19786479 -0.19767421 0.18515791
0.1787731 -0.14029883 0.022433529 -0.082181886 0.04364283 -0.05998207 0.22421338 0.013175711
-0.21391669 0.15690714 0.18696874 0.15320878 -0.09708785 -0.0017233333 0.1611278 0.22589013
0.09216162 -0.19989914 -0.09055579 -0.24507596 -0.07760906 -0.2210143 0.23465055 -0.1218339
0.0619317 0.1060223 0.20280287 0.004092894 -0.20846356 -0.0974805 0.1052769 -0.17740387
0.07297277 -0.1672016 0.072479695 -0.18803942 -0.101817906 0.017240591 0.15265256 -0.05112551
0.014212121 0.059537854 -0.07561891 0.19123895 -0.017018078 -0.07772097 -0.0027424477 -0.13446546
0.042906355 0.18537663 0.28277817 0.017907945 -0.06277721 -0.1423158 -0.22275057 0.17736684
0.09028245 -0.028876606 0.00012361624 -0.14349735 -0.22854556 -0.033350646 0.0579608 -0.25413072
-0.018017106 -0.07688539 -0.109781206 0.08576421 0.18350767 0.20057315 -0.056843758 -0.036836404
0.09033492 0.16990943 -0.03316001 0.19210209 0.18310805 0.14112629 0.17688067 0.062342707
0.21821599 -0.017623965 0.13390012 -0.02860158 0.22871771 0.10435913 -0.21676372 0.2698006
-0.26396108 0.21342584 -0.21385595 -0.36355296 -0.108826935 -0.02450642 0.055687413 -0.14091186
-0.22765332 0.1411045 0.22499064 0.039373133 0.08614008 -0.04556912 -0.124752834 -0.037444536
-0.20189457 -0.23342377 -0.0979311 0.05377737 -0.11347074 0.14046499 -0.16702166 -0.24608712
-0.2422662 -0.02424841 0.056979146 0.14558141 -0.24645786 0.2075374 0.06363862 0.11249945
-0.20276631 0.025802363 0.17153758 0.2280078 -0.15876412 -0.14157513 -0.05296693 -0.11418976
0.081478 0.14160363 0.033693347 -0.21938394 0.14721468 -0.26511788 0.11210729 0.053103287
-0.021192418 0.066907234 -0.099923305 -0.04224647 -0.14692815 0.08529491 0.09632058 -0.123858035
00000000: f082 8dbe 3b45 1a3c 9aa0 9d3c ca9a 253e
00000010: ad07 85be 35c6 16be fd26 873e 3ace cd3d
00000020: 6bf1 88bc 4fa9 463e 5a46 a03d ec8a bdbb
00000030: 0bfb c1bc 7f56 883e 9998 8c3e 8fa6 15bb
00000040: 7d7c 69be ff6d ab3e 0dc7 053e b1a1 5f3d
00000050: 2bd6 6dbc b17e 3abe d72f c1bd 8301 41be
00000060: cff2 643e 9998 683e aff3 313e 0971 793e
00000070: 889d 023e 8dea 49be f24a 4bbe 70ec edbd
00000080: a144 103e 5473 3e3e d935 1dbe 7d66 a13d
00000090: 5bb4 363c e753 06be f41c c63c bf2e b53d
000000a0: 920c 7b3e dea7 07be f00f b43d cbd2 39be
000000b0: 2d13 4c3e 9607 33be d86f 2c3e 5556 cf3d
000000c0: eb4e 543d 1ffa 32be 8e27 403e 61f3 41bd
000000d0: d081 6ebe dfd4 753d 04b2 18be 964e 8f3d
000000e0: 476d 09be 4700 e43c 0265 743d 3e24 513e
000000f0: e0b9 213e 4c50 e4bd 69d2 323e c8eb 053e
00000100: aed3 26be 9644 513e bcf7 0e3e 7446 41be
00000110: 371f 5bbe 8020 54be 4ae0 0f3e 479d 91be
00000120: 93dc 05be 1d31 0bbd 8095 63be 0817 d9bd
00000130: c2e8 4e3c 8019 0ebe ddd4 1f3c bc4d 453e
00000140: f227 14be a973 403e b705 2cbd 32a0 26be
00000150: f000 76be 9245 4bbe c6a6 183e a25a 3fbe
00000160: 6511 333e 0a82 e8bd e5b0 493e ed9f 3abe
00000170: f7c3 483d b6d2 5e3e 1e2e 233e 9e14 49bd
00000180: 1e3d 2cbe c2f1 a9bd 6bb6 70bd d186 37be
00000190: 6fdb 52be 5273 8abd 82f7 743e b6a0 3b3e
000001a0: 1323 1ebd 68a2 fc3d 9b5a 1b3c 7049 fa3c
000001b0: 917a d4bb 119d 4a3e 1c6b 4abe 099a 3d3e
000001c0: 4c10 373e 7faa 0fbe 85c6 b73c fa4e a8bd
000001d0: d3c2 323d c2af 75bd 3198 653e f0de 573c
000001e0: fa0c 5bbe 44ac 203e bc74 3f3e c3e2 1c3e
000001f0: ffd5 c6bd 78e1 e1ba b0fe 243e be4f 673e
00000200: 3bbf bc3d 5cb2 4cbe 5075 b9bd 31f5 7abe
00000210: 80f1 9ebd 9351 62be 3c48 703e 0d84 f9bd
00000220: 18ac 7d3d 3822 d93d 8eab 4f3e af1d 863b
00000230: 7977 55be dba3 c7bd 6a9b d73d 5ca9 35be
00000240: bf72 953d e536 2bbe 3c70 943d 688d 40be
00000250: e885 d0bd 243c 8d3c f450 1c3e fc68 51bd
00000260: f5d9 683c f7dd 733d 16de 9abd 25d4 433e
00000270: 7f69 8bbc 2c2c 9fbd a3ba 33bb 50b1 09be
00000280: 93be 2f3d 5fd3 3d3e 4dc8 903e afb3 923c
00000290: 5691 80bd 3cbb 11be ba18 64be a79f 353e
000002a0: 01e6 b83d a28e ecbc fb9e 0139 f8f0 12be
000002b0: d907 6abe b09a 08bd 4e68 6d3d 6c1d 82be
000002c0: 9c98 93bc 1676 9dbd f8d4 e0bd 25a5 af3d
000002d0: 6fe9 3b3e 0c63 4d3e 00d5 68bd c5e1 16bd
000002e0: 8401 b93d bdfc 2d3e cad2 07bd 69b6 443e
000002f0: ad80 3b3e 6983 103e 3520 353e 115b 7f3d
00000300: 0374 5f3e 2260 90bc 1d1d 093e dc4d eabc
00000310: fa34 6a3e 3dba d53d 4ff7 5dbe 4e23 8a3e
00000320: e825 87be 4e8c 5a3e 0efd 5abe 9d23 babe
00000330: a8e0 debd b0c1 c8bc 7c18 643d 334b 10be
00000340: f41d 69be b37d 103e f263 663e b945 213d
00000350: 366a b03d b0a6 3abd 6a7e ffbd 715f 19bd
00000360: 73bd 4ebe a406 6fbe 1a90 c8bd a945 5c3d
00000370: 5963 e8bd 0ed6 0f3e ba07 2bbe 43fe 7bbe
00000380: a114 78be 9aa4 c6bc f762 693d 4b13 153e
00000390: 735f 7cbe af84 543e f754 823d 1d66 e63d
000003a0: f9a1 4fbe 7a5f d33c 8ca7 2f3e e07a 693e
000003b0: 1093 22be 12f9 10be daf3 58bd 52dc e9bd
000003c0: f0dd a63d 8b00 113e 0902 0a3d 2fa6 60be
000003d0: 72bf 163e 88bd 87be 8298 e53d d582 593d
000003e0: b99b adbc a906 893d 97a4 ccbd a20a 2dbd
000003f0: 5574 16be 19af ae3d b943 c53d 48a9 fdbd

lstm.bias_ih_l2 f4 [64]
0.09978338 0.04327092 0.2626061 -0.161883 -0.21064006 0.015777553 -0.16030811 0.16645749
0.21254526 -0.19649625 -0.134849 -0.11368092 0.18251087 0.04767962 -0.043047857 0.044739418
0.20773359 0.09481941 -0.16340259 0.06279427 -0.11657383 0.2553187 0.09622951 -0.20262642
-0.13010396 0.28980887 -0.04297836 0.25779235 -0.1147891 -0.1514855 -0.1731841 -0.054709405
-0.21271591 -0.18439205 0.27422988 -0.043846384 -0.24930537 0.07069498 0.23678745 -0.05912558
0.13459076 -0.25137576 -0.27403653 -0.15663119 -0.05291351 0.01228015 -0.10987105 -0.25527313
-0.06204059 0.18372329 -7.810263e-05 0.08637545 0.26872513 0.024525175 0.26875478 -0.20349348
-0.07960543 -0.013381586 0.15941091 0.25478637 0.14389752 0.04824665 5.6976376e-05 -0.18450555
00000000: 3b5b cc3d d93c 313d 4f74 863e a8c4 25be
00000010: 07b2 57be ed3f 813c cf27 24be d573 2a3e
00000020: 77a5 593e 5036 49be db15 0abe 8bd1 e8bd
00000030: 21e4 3a3e b54b 433d f352 30bd ae40 373d
00000040: 1db8 543e ae30 c23d 0253 27be 489a 803d
00000050: 43be eebd 22b9 823e fa13 c53d 4d7d 4fbe
00000060: f939 05be d461 943e 140a 30bd 5cfd 833e
00000070: 8c16 ebbd 041f 1bbe 2c57 31be f816 60bd
00000080: 33d2 59be 45d1 3cbe dc67 8c3e 4498 33bd
00000090: e849 7fbe 88c8 903d 6978 723e aa2d 72bd
000000a0: 29d2 093e 53b4 80be 844e 8cbe ed63 20be
000000b0: d6bb 58bd af32 493c 1304 e1bd 29b3 82be
000000c0: 461e 7ebd f521 3c3e 08cb a3b8 9de5 b03d
000000d0: 5796 893e 05e9 c83c 3a9a 893e 9860 50be
000000e0: 2c08 a3bd 713e 5bbc 9d3c 233e 5c73 823e
000000f0: df59 133e 479e 453d ebf9 6e38 06ef 3cbe

lstm.bias_hh_l2 f4 [64]
0.11557964 0.2570305 -0.08201441 -0.1621843 -0.115625136 0.26844886 -0.1891932 -0.047395647
0.22992356 0.19835708 0.23357873 -0.1613124 -0.11934608 -0.052669067 -0.09830058 -0.025060406
0.25910333 -0.18895517 -0.20994675 0.057430297 0.18207115 0.27918702 0.17942208 -0.114937045
-0.00019436341 0.05084435 0.19411242 0.19768754 0.028250301 0.10828295 0.00087566953 -0.15720916
-0.124296054 0.049875952 0.07586542 0.028124241 -0.13774875 -0.1969193 -0.16387892 0.03930441
0.20454277 0.2006414 -0.2446697 0.20142107 -0.23101796 -0.11659025 0.15882929 0.019320825
0.19652942 -0.16561863 0.06398251 0.044941984 0.24255298 0.18683524 -0.18298869 -0.06764295
-0.02346083 0.12867694 -0.103520304 -0.07863689 0.25751784 -0.03658458 -0.19589783 -0.07217775
00000000: 05b5 ec3d 8099 833e 2cf7 a7bd a413 26be
00000010: dfcc ecbd 2172 893e ddbb 41be f021 42bd
00000020: 1571 6b3e 1e1e 4b3e 432f 6f3e 142f 25be
00000030: b86b f4bd 85bb 57bd d151 c9bd 7b4b cdbc
00000040: 31a9 843e 777d 41be 48fc 56be 083c 6b3d
00000050: dc70 3a3e 9af1 8e3e 6cba 373e 1d64 ebbd
00000060: 08ce 4bb9 2a42 503d 68c5 463e 9a6e 4a3e
00000070: 2d6d e73c 74c3 dd3d 308d 653a 70fb 20be
00000080: ee8e febd ba4a 4c3d 545f 9b3d cf64 e63c
00000090: 020e 0dbe 37a5 49be e0cf 27be a9fd 203d
000000a0: a973 513e f074 4d3e b28a 7abe 5341 4e3e
000000b0: f98f 6cbe dec6 eebd 25a4 223e b546 9e3c
000000c0: 023f 493e ee97 29be 4309 833d 1615 383d
000000d0: cf5f 783e bd51 3f3e 6361 3bbe 6388 8abd
000000e0: ed30 c0bc e3c3 033e 7402 d4bd 610c a1bd
000000f0: 61d9 833e b6d9 15bd 7199 48be eed1 93bd
