models/rnn/AAPL/weights/best.pth (torch, 34915 bytes, 18 tensors)

lstm.weight_ih_l0 f4 [64, 5]
-0.090291835 -0.07115153 -0.12310481 0.12044969 -0.048366897 0.26964796 -0.05026125 0.07858487
-0.19423705 0.071037635 0.28544402 -0.12588583 -0.11885678 -0.059737425 -0.050602343 0.13564546
-0.14159311 -0.17710294 0.11171713 -0.17530642 0.023512445 -0.03484573 0.08440868 0.24841492
0.020908365 -0.23636203 -0.053043503 -0.05399711 -0.09674928 0.14122844 -0.18468443 -0.035508495
0.11257522 0.28975266 -0.23411857 0.23394717 -0.18009058 0.25315562 0.23118581 0.23140232
-0.21495932 -0.27157226 0.19678926 -0.021311296 -0.055060115 0.013957129 0.2286725 0.21053115
-0.014223939 0.36060923 -0.05226005 0.10571306 -0.083706394 0.26171592 0.20751984 0.09712019
-0.062382568 0.11853795 -0.13057621 -0.22449276 0.14551027 0.04170549 0.18742968 0.3119867
-0.20070204 -0.10707037 -0.046119805 -0.14934334 -0.025959944 0.12184863 -0.03569399 0.14349757
0.080418736 -0.13122667 0.13900252 0.23332065 -0.101903535 -0.07806163 0.17115416 -0.059377957
0.22412121 -0.13141778 -0.10906432 0.1158534 0.06586857 -0.19292493 -0.036299314 -0.18915334
0.1846719 0.20508492 0.05050366 0.18258294 0.16898307 0.027844686 -0.20971783 0.03426331
0.20285548 0.25299826 0.1672969 0.10792086 -0.042460866 0.22043204 -0.060885955 -0.1646496
-0.1500473 -0.27695432 -0.2626639 -0.2505089 0.036492977 -0.12981057 0.12749884 0.1610036
0.19246256 0.065416165 -0.260617 0.16811454 -0.13789873 -0.0127368225 0.119146734 -0.06301909
0.102739416 0.12115373 0.04147915 -0.16419129 0.21860176 0.21912841 0.031606887 0.07845075
0.14732036 0.2596293 0.088783495 0.29291812 -0.014437821 0.1903324 -0.07507971 0.11452279
-0.13245289 0.21207933 0.32714203 -0.010488133 -0.013640999 0.041016776 0.25117916 0.118896835
-0.1063801 -0.17761867 0.044423465 0.111195184 -0.15580651 0.022622425 0.20097451 -0.08864995
-0.15899916 0.25050756 0.07028086 0.079679094 0.20638712 0.16545212 -0.08762896 -0.0654708
-0.23547721 0.21740204 -0.054584283 -0.07817801 -0.1291959 0.23428184 0.08149043 0.08117016
0.12560265 0.003065765 -0.03779623 0.16568907 0.09412977 0.13307032 0.25758848 0.10750888
-0.26996595 0.22398797 -0.019230584 -0.21235661 -0.08662367 0.017681805 -0.17457236 -0.06539076
-0.0914673 0.022927374 -0.018007152 0.2084356 0.016159205 -0.25584435 0.019992653 -0.052949518
-0.22268805 0.19042818 -0.2440188 0.16616154 -0.10323572 0.271168 0.10622485 0.106225945
0.18355274 0.21222492 -0.14475998 -0.21770836 0.24835038 -0.2670046 -0.09720393 -0.22742324
-0.1722458 0.17154777 0.07892826 0.23784146 0.1335082 0.049907416 -0.11606615 -0.042499118
-0.079078645 0.24111311 0.16374668 -0.16148354 0.14556551 0.018733334 -0.0735416 0.14551447
0.110353075 -0.07908368 -0.03230215 0.071405135 0.2462628 0.11180926 0.11066152 0.2432009
0.03552562 -0.026155837 0.07338795 0.0028288458 0.11257889 -0.0059396825 -0.09508105 0.15046458
0.19732334 0.057443365 0.115360074 0.09225124 -0.01111457 -0.05754153 0.01726077 -0.20190364
-0.008713325 -0.06814472 -0.07195945 0.106941864 0.26305944 0.013347448 -0.04588502 0.083661884
00000000: edea b8bd e5b7 91bd 601e fcbd 54ae f63d
00000010: 5e1c 46bd 4c0f 8a3e bede 4dbd 1bf1 a03d
00000020: 14e6 46be 2e7c 913d b825 923e 37e8 00be
00000030: 2f6b f3bd 3baf 74bd 6744 4fbd a5e6 0a3e
00000040: c9fd 10be 795a 35be f3cb e43d 8783 33be
00000050: 2c9d c03c 65ba 0ebd 75de ac3d 7b60 7e3e
00000060: 0548 ab3c e308 72be 2544 59bd 132c 5dbd
00000070: 7d24 c6bd 309e 103e ea1d 3dbe 5b71 11bd
00000080: d68d e63d 765a 943e c7bc 6fbe d98f 6f3e
00000090: aa69 38be 9d9d 813e f9bb 6c3e bbf4 6c3e
000000a0: 4c1e 5cbe 850b 8bbe 2083 493e 0795 aebc
000000b0: b786 61bd 71ac 643c 2029 6a3e 7a95 573e
000000c0: 860b 69bc c6a1 b83e a20e 56bd 1780 d83d
000000d0: 426e abbd a1ff 853e 1580 543e f3e6 c63d
000000e0: dd84 7fbd 06c4 f23d c5b5 05be 6ee1 65be
000000f0: a500 153e 60d3 2a3d 91ed 3f3e b9bc 9f3e
00000100: d684 4dbe b647 dbbd 1fe8 3cbd 76ed 18be
00000110: f3a9 d4bc c68b f93d dc33 12bd 07f1 123e
00000120: 94b2 a43d 4960 06be ad56 0e3e 9ceb 6e3e
00000130: cdb2 d0bd c7de 9fbd 0943 2f3e 4d36 73bd
00000140: 0880 653e 6292 06be 1d5d dfbd 8c44 ed3d
00000150: 1ae6 863d 1d8e 45be 97ae 14bd 6ab1 41be
00000160: a11a 3d3e c801 523e eddc 4e3d 06f7 3a3e
00000170: e609 2d3e 8a1a e43c 45c0 56be af57 0c3d
00000180: 59b9 4f3e fd88 813e e14f 2b3e 9d05 dd3d
00000190: 72eb 2dbd f0b8 613e 8d63 79bd e899 28be
000001a0: 00a6 19be f5cc 8dbe e27b 86be b442 80be
000001b0: a979 153d 10ed 04be 0e8f 023e 21de 243e
000001c0: e814 453e e9f8 853d 976f 85be 3826 2c3e
000001d0: 5335 0dbe 1bae 50bc 3403 f43d 2710 81bd
000001e0: 0b69 d23d 721f f83d 0be6 293d c321 28be
000001f0: 24d9 5f3e 3363 603e 3976 013d c9aa a03d
00000200: 26db 163e 22ee 843e 1fd4 b53d 5df9 953e
00000210: 9c8c 6cbc 7fe6 423e 64c3 99bd ed8a ea3d
00000220: bba1 07be 532b 593e 297f a73e 6bd6 2bbc
00000230: 7f7e 5fbc 3501 283d 8e9a 803e 2f80 f33d
00000240: cfdd d9bd abe1 35be 61f5 353d 4dba e33d
00000250: be8b 1fbe aa52 b93c 43cc 4d3e 1b8e b5bd
00000260: add0 22be 8742 803e 69ef 8f3d cb2e a33d
00000270: 2557 533e 486c 293e d076 b3bd 8e15 86bd
00000280: f020 71be a49e 5e3e c593 5fbd cb1b a0bd
00000290: ee4b 04be 94e7 6f3e 74e4 a63d 8a3c a63d
000002a0: fb9d 003e 00eb 483b 38d0 1abd 65aa 293e
000002b0: 1cc7 c03d 9643 083e a3e2 833e 9e2d dc3d
000002c0: fa38 8abe 1a5d 653e 7589 9dbc 0374 59be
000002d0: c067 b1bd 6fd9 903c 19c3 32be 97eb 85bd
000002e0: 3553 bbbd 30d2 bb3c bc83 93bc 2470 553e
000002f0: 4f60 843c 08fe 82be a2c7 a33c 98e1 58bd
00000300: 5608 64be 9bff 423e 10e0 79be 4026 2a3e
00000310: 406d d3bd 88d6 8a3e 6a8c d93d fd8c d93d
00000320: 40f5 3b3e 7d51 593e f63b 14be f1ee 5ebe
00000330: 904f 7e3e d4b4 88be db12 c7bd a3e1 68be
00000340: 3461 30be 38aa 2f3e 24a5 a13d b68c 733e
00000350: 60b6 083e b86b 4c3d 17b4 edbd 8e13 2ebd
00000360: fcf3 a1bd 5be6 763e 36ad 273e f15b 25be
00000370: 200f 153e a676 993c fa9c 96bd bf01 153e
00000380: cb00 e23d a0f6 a1bd 424f 04bd db3c 923d
00000390: 512c 7c3e 41fc e43d 82a2 e23d a809 793e
000003a0: 5083 113d c444 d6bc 6c4c 963d 2864 393b
000003b0: c38f e63d aba1 c2bb dbb9 c2bd 6313 1a3e
000003c0: 210f 4a3e bc49 6b3d e741 ec3d 38ee bc3d
000003d0: e319 36bc abb0 6bbd 7566 8d3c d4bf 4ebe
000003e0: 55c2 0ebc 758f 8bbd 7a5f 93bd 5604 db3d
000003f0: baaf 863e 41af 5a3c eef1 3bbd ec56 ab3d

lstm.weight_hh_l0 f4 [64, 16]
0.15526403 0.055025328 0.1241864 0.19506305 -0.037143264 0.08063778 -0.0038495688 -0.09447528
0.15580031 -0.13737407 0.2914711 0.13739672 -0.13413222 -0.1059294 0.2819297 0.16562405
-0.34254763 0.07592528 0.15752359 -0.14926928 -0.0006343057 0.22323832 0.20131165 0.08823434
0.037783146 0.08421729 -0.0035661678 0.07438007 0.053594045 -0.034992002 0.23814712 0.17579988
-0.017867133 -0.041200828 0.14181319 -0.1380592 0.17210679 -0.09201922 0.20281191 -0.13327731
0.12987 -0.17285874 -0.10274251 0.1463397 0.18978241 0.035100978 -0.030267509 0.10937238
-0.3586808 -0.1613881 0.1649719 0.16382392 0.025328599 0.07614499 -0.24372946 0.06419811
-0.20026395 0.02906505 0.07941107 -0.1371919 0.26207352 -0.021286884 0.20810199 -0.30554858
-0.26343796 -0.1411534 0.10774052 0.06625573 -0.23202989 0.2001345 0.2361989 0.17080122
-0.09115832 -0.23913676 0.2967332 -0.23578544 -0.20746373 -0.04235771 0.06587406 -0.11144868
-0.058793556 -0.010543572 -0.024175176 0.1588222 0.11803066 -0.2973176 0.085777946 0.23326313
0.206564 0.029105037 -0.18950124 -0.04811541 -0.17700614 0.10466677 0.110416345 -0.15170032
0.058489345 -0.0010760984 -0.2516389 -0.017423896 -0.093437985 0.41576338 0.067771934 0.040305678
-0.14542669 -0.26713964 -0.17367052 0.016630493 0.048179533 -0.17866956 0.11755379 -0.23468082
-0.23900704 -0.20952383 -0.18742971 -0.097506866 0.026958406 0.087698616 0.021189846 -0.14922507
0.23027009 -0.2874522 0.11327132 0.20858021 0.21143682 -0.11535213 -0.18004654 -0.07270569
0.14636396 0.11393965 0.03365354 0.02978947 0.08871484 0.090177745 -0.2414435 -0.12992753
0.2290022 -0.17068139 -0.14631903 0.030338105 0.19733427 -0.21788949 0.17248973 -0.20984034
-0.02241297 0.14002463 0.10805927 0.10538403 -0.2977609 -0.23774663 -0.3591635 0.07780128
0.33482006 0.04173966 -0.05444722 0.096049495 0.26280075 0.30678937 0.11646133 -0.18450938
0.05994293 -0.033369865 0.07553244 0.122436345 -0.04965524 -0.09286287 -0.24793363 0.33574146
-0.053808734 -0.055395786 0.100272514 0.29199302 0.025744323 0.016359342 0.21916798 -0.27100396
-0.13956836 -0.0011391696 0.11700265 0.07749944 -0.13547555 0.4149619 -0.21137965 0.010945256
-0.15752165 -0.1455906 0.12532969 -0.09452311 0.19056812 -0.26689115 0.005428234 0.1603403
0.033722684 -0.1291813 -0.04553639 -0.2112508 -0.1153414 0.13799898 0.15565561 0.21406901
-0.112908915 0.09301451 0.14469884 -0.15772559 -0.061433733 0.18903013 0.20704518 -0.15940197
-0.10951972 0.17094809 -0.085234 -0.12356859 -0.16573805 0.08884366 0.08596722 -0.012289729
-0.1763731 0.117036164 -0.096743666 -0.18224047 0.22324763 0.15411866 -0.19445503 -0.17786226
0.18496586 -0.024605017 0.24565832 0.17476842 0.0365514 0.36235797 -0.17690651 -0.16075878
-0.20125584 0.111407876 0.24030836 -0.021226004 0.09482993 -0.032041613 -0.11979506 -0.060825597
0.0033201869 -0.23509632 0.2563886 0.0062035816 -0.16041015 0.22053173 -0.06037155 0.15149917
-0.039476715 -0.3516775 -0.06591868 -0.08818149 -0.11115855 0.052784864 -0.20201649 0.15922509
00000000: 89fd 1e3e 3d62 613d 7055 fe3d 9cbe 473e
00000010: 8923 18bd 6c25 a53d 0c49 7cbb 417c c1bd
00000020: 1e8a 1f3e caab 0cbe b33b 953e bab1 0c3e
00000030: f559 09be 83f1 d8bd 1759 903e 5a99 293e
00000040: 6762 afbe b77e 9b3d dd4d 213e 0cda 18be
00000050: 8947 26ba 9698 643e a424 4e3e 35b4 b43d
00000060: 80c2 1a3d 1d7a ac3d 5eb6 69bb 9454 983d
00000070: 6e85 5b3d c653 0fbd d7dc 733e e204 343e
00000080: 185e 92bc 33c2 28bd 7a37 113e 645f 0dbe
00000090: c33c 303e 9374 bcbd edad 4f3e d979 08be
000000a0: a4fc 043e e201 31be aa6a d2bd 13da 153e
000000b0: 5256 423e 0bc6 0f3d 91f3 f7bc a0fe df3d
000000c0: 03a5 b7be ec42 25be 65ee 283e 75c1 273e
000000d0: ec7d cf3c e8f1 9b3d 3794 79be 4c7a 833d
000000e0: fe11 4dbe d419 ee3c 45a2 a23d 097c 0cbe
000000f0: 802e 863e d561 aebc b018 553e dd70 9cbe
00000100: 57e1 86be 848a 10be 10a7 dc3d 16b1 873d
00000110: 3e99 6dbe 0ff0 4c3e 20de 713e 84e6 2e3e
00000120: 37b1 babd 44e0 74be 6aed 973e bd71 71be
00000130: 5f71 54be 477f 2dbd fbe8 863d 353f e4bd
00000140: 83d1 70bd f2be 2cbc 050b c6bc 49a2 223e
00000150: 0fba f13d 033a 98be 59ac af3d 88dc 6e3e
00000160: 8385 533e b06d ee3c 9d0c 42be aa14 45bd
00000170: 1941 35be 885b d63d f721 e23d 5457 1bbe
00000180: 8692 6f3d df0b 8dba d0d6 80be 8fbc 8ebc
00000190: 6a5c bfbd f0de d43e 03cc 8a3d 9117 253d
000001a0: bcea 14be 87c6 88be afd6 31be ac3c 883c
000001b0: e757 453d 27f5 36be 0bc0 f03d 2b50 70be
000001c0: 43be 74be 6a8d 56be 93ed 3fbe aeb1 c7bd
000001d0: e0d7 dc3c 559b b33d 5496 ad3c 75ce 18be
000001e0: eccb 6b3e ef2c 93be cbfa e73d 0d96 553e
000001f0: e582 583e bd3d ecbd 1f5e 38be b9e6 94bd
00000200: 6fe0 153e 3159 e93d 4bd8 093d 0c09 f43c
00000210: 20b0 b53d 1caf b83d f73c 77be b90b 05be
00000220: 8d7f 6a3e 1ac7 2ebe a8d4 15be 9e87 f83c
00000230: ff11 4a3e 6c1e 5fbe 26a1 303e 63e0 56be
00000240: 689b b7bc 9e62 0f3e 2e4e dd3d 95d3 d73d
00000250: 1e74 98be da73 73be 47e4 b7be 4756 9f3d
00000260: 896d ab3e 35f7 2a3d 0c04 5fbd 99b5 c43d
00000270: d28d 863e 7f13 9d3e 4783 ee3d 07f0 3cbe
00000280: b886 753d d7ae 08bd c0b0 9a3d e8bf fa3d
00000290: 4b63 4bbd e32e bebd 50e2 7dbe 4ee6 ab3e
000002a0: 8c66 5cbd b1e6 62bd ad5b cd3d 1c80 953e
000002b0: c2e5 d23c 0704 863c 926d 603e 08c1 8abe
000002c0: 02eb 0ebe 3050 95ba 169f ef3d 07b8 9e3d
000002d0: 1aba 0abe e375 d43e e873 58be bb53 333c
000002e0: 5b4d 21be b415 15be 6d56 003e 5595 c1bd
000002f0: 4a24 433e f5a5 88be 54df b13b 3f30 243e
00000300: cc20 0a3d 1a48 04be 5e84 3abd 2152 58be
00000310: 1d38 ecbd 9b4f 0d3e 2f64 1f3e e834 5b3e
00000320: ca3c e7bd 647e be3d ef2b 143e d182 21be
00000330: f0a1 7bbd 1d91 413e a703 543e 453a 23be
00000340: e04b e0bd 040d 2f3e 2a8f aebd 8711 fdbd
00000350: 3cb7 29be aaf3 b53d 950f b03d dc5a 49bc
00000360: 269b 34be a8b0 ef3d 8b21 c6bd 3f9d 3abe
00000370: 079b 643e 48d1 1d3e 381f 47be 8621 36be
00000380: b167 3d3e 7690 c9bc db8d 7b3e 7ef6 323e
00000390: ecb6 153d fc86 b93e fb26 35be f39d 24be
000003a0: 0316 4ebe d029 e43d 6513 763e 28e2 adbc
000003b0: 3236 c23d 113e 03bd 1d57 f5bd 4324 79bd
000003c0: 7e97 593b 17bd 70be 5e45 833e 6a47 cb3b
000003d0: 8f42 24be 12d3 613e 2948 77bd 9922 1b3e
000003e0: 56b2 21bd 130f b4be 5f00 87bd 7f98 b4bd
000003f0: 18a7 e3bd f134 583d 69dd 4ebe e70b 233e

lstm.bias_ih_l0 f4 [64]
-0.023899453 0.094698064 0.23152433 -0.14463045 0.22804151 0.18917283 -0.10960223 -0.14459679
0.19711635 0.37794214 -0.081644766 -0.10243096 -0.20095693 0.21997117 -0.004488154 0.2362816
0.20733579 0.2082716 0.15948926 -0.20309906 -0.21248212 -0.076394565 -0.15524822 -0.057499636
0.14075576 0.30450127 0.038632467 -0.19798821 -0.1927051 -0.079776704 0.1576978 -0.011131084
0.03144634 0.27040184 -0.08707347 -0.22529668 0.18555197 -0.0611707 0.21044536 -0.08796893
0.18915299 0.23041482 -0.007754865 -0.042154215 -0.16205004 0.20252894 0.20723212 0.0026950503
-0.22698188 -0.08312117 0.15917549 0.10586639 0.19792284 -0.12686694 -0.15045024 -0.024031574
0.13528721 -0.12113811 0.041877713 0.0011016119 0.19198899 0.07843822 -0.049289394 -0.05486697
00000000: c9c8 c3bc 0ff1 c13d b714 6d3e 011a 14be
00000010: b783 693e 86b6 413e 2277 e0bd 2e11 14be
00000020: ded8 493e a281 c13e 5f35 a7bd 53c7 d1bd
00000030: a7c7 4dbe 1f40 613e 5d11 93bb cef3 713e
00000040: d54f 543e 2645 553e 2751 233e 33f9 4fbe
00000050: ea94 59be c174 9cbd 64f9 1ebe bd84 6bbd
00000060: 4722 103e 97e7 9b3e 143d 1e3d 6cbd 4abe
00000070: 7c54 45be f861 a3bd 887b 213e 265f 36bc
00000080: e1cd 003d 1c72 8a3e 9353 b2bd 2cb4 66be
00000090: 5601 3e3e 218e 7abd fd7e 573e 0e29 b4bd
000000a0: 52b1 413e ddf1 6b3e 861c febb e6a9 2cbd
000000b0: 72f0 25be bf63 4f3e a834 543e 719f 303b
000000c0: f06d 68be 6f3b aabd e6fe 223e 7ad0 d83d
000000d0: 49ac 4a3e 68e9 01be a10f 1abe dddd c4bc
000000e0: bb88 0a3e 4217 f8bd f787 2b3d f663 903a
000000f0: c398 443e 38a4 a03d ade3 49bd 30bc 60bd

lstm.bias_hh_l0 f4 [64]
0.039877072 -0.12554383 0.23575251 0.24371178 0.11362598 -0.076571226 0.13415544 0.04690192
0.1185901 0.12656422 0.3254758 0.09178896 0.097336285 -0.03520664 -0.13580227 0.045353808
-0.14798115 0.17448813 0.060629398 0.18711029 0.059514713 0.06077031 0.1374537 -0.0718198
0.012549935 0.17420718 -0.13703965 -0.16258587 -0.053443104 -0.21118908 0.22434591 0.09813837
0.14037336 0.0062567256 0.15301025 -0.17667943 -0.18318106 -0.13948996 -0.01120989 0.16893382
-0.029625624 -0.10260985 -0.14236227 0.17000215 0.15764958 0.16938765 0.032473613 0.062318467
-0.1670825 0.1449556 -0.20546943 0.24882545 0.2154735 0.12493125 -0.07222122 0.2597636
0.17531525 -0.034297578 -0.07743565 0.22317351 -0.026655434 -0.16617823 -0.16592348 -0.07506912
00000000: 2456 233d 908e 00be 1b69 713e 958f 793e
00000010: bdb4 e83d 60d1 9cbd 0b60 093e 3a1c 403d
00000020: 5edf f23d 0d9a 013e c4a4 a63e dafb bb3d
00000030: 3f58 c73d d634 10bd c00f 0bbe eac4 393d
00000040: 5f88 17be 04ad 323e 8856 783d d799 3f3e
00000050: b3c5 733d 4aea 783d aac0 0c3e 4216 93bd
00000060: 3e9e 4d3c 5e63 323e 1f54 0cbe e97c 26be
00000070: 28e7 5abd f341 58be efba 653e c5fc c83d
00000080: 09be 0f3e 3805 cd3b b8ae 1c3e 74eb 34be
00000090: d193 3bbe 75d6 0ebe b0a9 37bc fdfc 2c3e
000000a0: 70b1 f2bc 1d25 d2bd 6ac7 11be 0b15 2e3e
000000b0: e46e 213e f573 2d3e 0d03 053d a641 7f3d
000000c0: ad17 2bbe 3e6f 143e 9466 52be 19cc 7e3e
000000d0: 16a5 5c3e f5db ff3d b8e8 93bd bcff 843e
000000e0: d785 333e 9e7b 0cbd 9596 9ebd 9987 643e
000000f0: 7f5c dabc a02a 2abe d8e7 29be d7bd 99bd

lstm.weight_ih_l1 f4 [64, 16]
-0.11011056 -0.1102806 0.22114559 -0.119426675 -0.06634529 -0.07662875 -0.13109827 -0.10733413
-0.15230185 -0.28284997 0.21280499 0.24496068 -0.0089249825 0.13272838 -0.21453726 -0.093607716
-0.019430438 -0.17654108 0.259479 0.18415141 0.040351447 -0.02202668 0.19810401 -0.12917374
0.13078347 -0.107235774 -0.16873588 -0.16434237 0.058178768 0.1829735 0.21209832 -0.18329753
-0.19614606 -0.07374033 -0.15602773 -0.098725386 -0.28299928 0.22487338 0.015605246 0.039546978
-0.1897885 0.10821521 -0.019240247 0.1435205 -0.038511593 -0.029708859 0.25561494 -0.05641847
-0.14008652 0.29136193 -0.15449277 0.14036629 -0.02332334 0.21965037 -0.19503765 0.29020643
-0.018799214 -0.074005164 0.037577666 -0.08026518 0.17266622 0.09733598 0.27940544 0.027747177
0.06173873 0.24745527 -0.07929965 0.026172567 -0.2772455 0.39775923 -0.27514213 0.15788354
0.13647284 -0.3937207 0.22915787 0.22924235 -0.1459022 -0.12200045 0.26875433 -0.21272837
-0.19613104 0.27004248 0.10983158 -0.19816202 0.049664482 0.10615665 -0.18559179 0.25350207
0.18542163 -0.22166902 0.09988 -0.18418221 -0.19732459 -0.026137348 0.213994 0.061865065
-0.13454327 0.023466408 0.1611703 0.14631146 0.089367926 -0.13308801 -0.28600714 -0.111336656
0.14064662 0.004278262 0.30105165 0.066248514 0.009945151 0.1055071 -0.017455528 0.04703011
-0.29725543 -0.22698954 0.12584831 0.1913614 -0.17823738 0.07140211 0.18148686 0.009072893
0.17402267 0.05851123 0.20170872 -0.031100633 0.19643314 0.17738873 0.117639534 0.09011096
-0.2024353 0.19050722 -0.06360506 -0.12152442 -0.26251504 0.14044622 0.08639057 -0.054729935
-0.034282256 -0.24873665 0.19161893 -0.031737715 -0.08657818 -0.014172029 0.15612273 -0.13569082
-0.28079262 -0.21596347 0.15786646 -0.22052163 -0.27088663 -0.025897063 0.10783289 -0.17227429
0.22115278 -0.25958663 0.007228844 0.030067936 -0.19318755 0.0048507946 0.07146778 -0.09914288
0.22746561 0.11579176 -0.028739281 0.12971178 -0.04791108 0.12494959 0.21951182 -0.1447565
0.15551399 -0.17664732 0.08105929 0.051633134 -0.031143796 -0.26361915 0.017188162 0.15102842
-0.24146515 -0.2016165 0.091849424 -0.2546529 0.06759111 -0.06378252 -0.2525319 -0.080471024
-0.030347206 -0.26247177 0.34976813 0.25336745 -0.072078474 0.07557287 -0.14301634 -0.028772496
-0.07110762 -0.1465934 -0.021602634 -0.23953167 -0.12675779 0.338114 0.035666313 -0.09902471
0.26324046 -0.17692333 -0.058667153 0.04644894 0.0005063165 0.14133711 0.25573018 0.17521794
-0.08786205 0.08536878 0.29841766 0.13304043 0.16958007 -0.32013714 0.057115138 0.1781549
-0.040845174 -0.09978288 -0.030073078 -0.03874011 0.23943992 -0.027249187 -0.15320475 -0.17404737
0.05361455 0.09462671 -0.101379745 0.16179399 0.025293507 0.23734319 -0.27980068 -0.037991717
0.12051292 -0.30291536 0.23543595 -0.017146543 -0.071579665 -0.095790304 -0.056240145 0.16660313
-0.25044125 0.026845157 -0.168137 0.18768328 0.18010661 0.090303145 -0.025588041 0.24367343
0.10701516 -0.26500028 -0.039707493 -0.12666649 -0.0012950547 -0.11243816 0.09536558 -0.04416918
00000000: a581 e1bd ccda e1bd fd73 623e f995 f4bd
00000010: 0ae0 87bd 89ef 9cbd a03e 06be ffd1 dbbd
00000020: 04f5 1bbe b6d1 90be 8de9 593e f9d6 7a3e
00000030: 173a 12bc f3e9 073e a8af 5bbe 67b5 bfbd
00000040: 952c 9fbc 2fc7 34be 6eda 843e 3092 3c3e
00000050: 8f47 253d 4c71 b4bc c7db 4a3e 1f46 04be
00000060: 1aec 053e 6e9e dbbd 19c9 2cbe 5e49 28be
00000070: dc4c 6e3d 685d 3b3e 4d30 593e 59b2 3bbe
00000080: 83da 48be 2c05 97bd bcc5 1fbe 8930 cabd
00000090: 48e5 90be 3545 663e 25ad 7f3c 03fc 213d
000000a0: eb57 42be f09f dd3d b99d 9dbc 0af7 123e
000000b0: 55be 1dbd fe5f f3bc f6df 823e 0e17 67bd
000000c0: d772 0fbe 642d 953e 5a33 1ebe 2ebc 0f3e
000000d0: 9710 bfbc 07ec 603e f3b7 47be f095 943e
000000e0: cf00 9abc 0590 97bd 0aeb 193d 1262 a4bd
000000f0: 6acf 303e 1658 c73d 3b0e 8f3e 0c4e e33c
00000100: c0e1 7c3d ea64 7d3e db67 a2bd da67 d63c
00000110: 1ff3 8dbe 19a7 cb3e 6edf 8cbe 39ac 213e
00000120: 89bf 0b3e c295 c9be 5ca8 6a3e 82be 6a3e
00000130: 6367 15be 5fdb f9bd 2b9a 893e 77d5 59be
00000140: 93d6 48be 0243 8a3e 61ef e03d fcea 4abe
00000150: fc6c 4b3d a868 d93d c60b 3ebe 06cb 813e
00000160: 2bdf 3d3e 34fd 62be e38d cc3d 439a 3cbe
00000170: 750f 4abe fe1d d6bc 3e21 5b3e 3966 7d3d
00000180: b6c5 09be a03c c03c d409 253e acd2 153e
00000190: 8806 b73d 3948 08be 876f 92be 7904 e4bd
000001a0: ab05 103e aa30 8c3b 7123 9a3e 4dad 873d
000001b0: fdf0 223c 1b14 d83d e5fe 8ebc a5a2 403d
000001c0: dd31 98be f26f 68be 61de 003e 3ef4 433e
000001d0: dc83 36be 453b 923d b1d7 393e 79a6 143c
000001e0: 0033 323e 79a9 6f3d bb8c 4e3e c1c6 febc
000001f0: c525 493e 64a5 353e ffec f03d 188c b83d
00000200: 334b 4fbe 5314 433e 5f43 82bd cce1 f8bd
00000210: 5f68 86be 22d1 0f3e 8aed b03d 7f2c 60bd
00000220: 8d6b 0cbd d2b4 7ebe c137 443e 68ff 01bd
00000230: e74f b1bd cc31 68bc a3de 1f3e 89f2 0abe
00000240: 0dc4 8fbe 8725 5dbe bfa7 213e 6cd0 61be
00000250: a7b1 8abe 1426 d4bc 7dd7 dc3d ac68 30be
00000260: e075 623e 8ae8 84be f0df ec3b 0851 f63c
00000270: f5d2 45be 6af3 9e3b b35d 923d 6c0b cbbd
00000280: bfec 683e 3b24 ed3d a46e ebbc 2ad3 043e
00000290: 693e 44bd 92e5 ff3d b5c7 603e 0c3b 14be
000002a0: 0f3f 1f3e 09e3 34be 6a02 a63d 447d 533d
000002b0: 4621 ffbc 17f9 86be 30ce 8c3c 32a7 1a3e
000002c0: a442 77be 8e74 4ebe 8d1b bc3d dd61 82be
000002d0: 356d 8a3d 69a0 82bd dc4b 81be fecd a4bd
000002e0: b49a f8bc b362 86be cf14 b33e 61b9 813e
000002f0: e19d 93bd f3c5 9a3d e072 12be 4cb4 ebbc
00000300: dfa0 91bd 951c 16be 02f8 b0bc ca47 75be
00000310: cbcc 01be 471d ad3e d716 123d 78cd cabd
00000320: 74c7 863e 642b 35be f84c 70bd 3e41 3e3d
00000330: 53ba 043a adba 103e 11ef 823e 556c 333e
00000340: 05f1 b3bd d4d5 ae3d 33ca 983e c03b 083e
00000350: 66a6 2d3e 04e9 a3be 90f1 693d 3d6e 363e
00000360: 454d 27bd f75a ccbd d15b f6bc f3ad 1ebd
00000370: bd2f 753e b039 dfbc b5e1 1cbe 7939 32be
00000380: ee9a 5b3d a6cb c13d 2fa0 cfbd 53ad 253e
00000390: 5434 cf3c 180a 733e 0942 8fbe 349d 1bbd
000003a0: 7acf f63d b917 9bbe 1f16 713e e876 8cbc
000003b0: 5c98 92bd b52d c4bd 115c 66bd 039a 2a3e
000003c0: d639 80be 60ea db3c 1b2c 2cbe 0c30 403e
000003d0: de6d 383e dbf0 b83d 039e d1bc 8785 793e
000003e0: c42a db3d 1eae 87be 53a4 22bd dcb4 01be
000003f0: d3be a9ba fa45 e6bd 074f c33d beea 34bd

lstm.weight_hh_l1 f4 [64, 16]
-0.22769247 -0.105717935 0.028041536 0.12143236 -0.26870984 -0.08236637 -0.1560948 -0.17123143
-0.09850492 -0.06560379 -0.10018855 -0.086657226 0.25745395 0.15533176 -0.043685902 -0.2172721
0.17155996 -0.07214208 0.15003589 -0.12251924 0.07552845 0.15739805 -0.22949727 -0.061198782
-0.05996001 -0.05406792 -0.060048807 0.19986363 -0.16019511 -0.033450786 0.13979074 0.101061285
0.15174037 -0.16760649 0.06932556 -0.20987208 0.1910891 0.08015914 -0.19115917 -0.14821602
0.22746189 0.019965159 -0.25586563 0.2341994 -0.1683074 -0.29498607 0.1913151 -0.09257232
-0.110958494 -0.0087072905 -0.07664459 0.010885508 -0.21168898 -0.092597924 -0.17569627 -0.13883933
-0.09504542 -0.19029532 0.16991721 0.21515012 0.015367982 0.052127063 -0.2629877 -0.100121096
-0.13612926 0.17459877 -0.03511079 0.1428525 -0.24586397 -0.15057854 -0.16738246 -0.17414533
0.027008075 0.04960525 -0.055319253 -0.12501872 -0.23839334 0.00613097 0.010164199 0.100263834
-0.05473041 -0.040703062 -0.203233 -0.1856788 0.1764664 0.09458845 -0.020373542 -0.08154827
-0.124043494 0.21928212 -0.19154462 0.17531694 -0.18913218 -0.23908246 0.12314875 0.12663515
0.046757158 -0.07604503 -0.05394717 0.1330911 -0.09598108 0.2032672 -0.030925967 -0.23869829
-0.030314295 -0.061914384 0.09079629 0.06292518 -0.19617763 -0.022307284 0.18231268 0.0696511
-0.08676133 0.021830538 0.1398903 -0.087725945 0.11408559 0.042442866 -0.18731149 -0.19767697
-0.08604154 -0.21223445 0.1657839 -0.025433129 0.22875614 0.108322896 0.11655891 0.1148124
-0.20237914 -0.16802786 -0.118550315 -0.019153211 0.17666104 0.1896642 -0.27768663 -0.12815242
0.14998569 0.22933762 0.16802253 -0.13880485 -0.1873009 -0.120224975 -0.13668635 0.15129523
0.17082775 0.025993386 -0.05944893 -0.025833055 0.07795438 -0.11398171 -0.09952826 -0.1312057
0.0073110997 0.04089159 0.11891834 -0.0629297 0.0037155638 0.1686049 -0.21397978 0.0861171
-0.08337818 -0.17498875 -0.11896068 -0.1368932 -0.12105969 0.1618038 -0.20078221 -0.08440364
0.108803436 -0.033630546 -0.009143744 0.07350668 -0.23998202 0.27303475 -0.1832037 0.18439668
0.2310848 0.087909326 0.11822554 -0.110180266 0.18022 -0.041343838 0.15907048 0.1385995
0.2097635 0.25303388 -0.014283241 -0.16261573 -0.088361666 0.022005241 0.06576967 -0.18876427
0.10911252 0.033054035 0.20572166 -0.20221403 -0.17427018 0.022976601 -0.21423288 0.1742112
-0.21549301 0.035560913 0.20027971 -0.11512967 0.040167708 -0.15849245 -0.14321531 -0.18195048
0.03050799 0.0353767 -0.060946826 0.009527408 0.12134194 0.1483297 0.19274987 0.11536816
0.24621536 0.15647769 -0.19945167 0.1062496 -0.041334428 0.040545058 -0.08059246 -0.12434512
0.18033159 0.17383698 -0.03961955 -0.28189015 0.16097467 -0.07659987 -0.15038848 0.0720863
0.06955487 0.03522117 0.079886176 -0.05882493 0.054952905 0.04444743 0.07212536 -0.07392491
0.12343384 0.2576088 -0.16201459 -0.15095943 -0.17387994 -0.13298593 -0.14901212 -0.027469197
0.20020445 0.14281276 -0.11471123 -0.15194918 0.12301528 -0.22110112 0.073511936 0.046026185
00000000: 3728 69be a582 d8bd 5db7 e53c 87b1 f83d
00000010: 5694 89be b3af a8bd 51d7 1fbe 4b57 2fbe
00000020: f3bc c9bd 485b 86bd a82f cdbd 5879 b1bd
00000030: 01d1 833e 4a0f 1f3e fdef 32bd 947c 5ebe
00000040: 6aad 2f3e 3abf 93bd 02a3 193e 5eeb fabd
00000050: a9ae 9a3d f42c 213e 5501 6bbe 93ab 7abd
00000060: a198 75bd 5376 5dbd bdf5 75bd 0da9 4c3e
00000070: 300a 24be b103 09bd 4e25 0f3e 38f9 ce3d
00000080: d461 1b3e 09a1 2bbe 8ffa 8d3d b5e8 56be
00000090: dcac 433e 7a2a a43d 3bbf 43be f1c5 17be
000000a0: c5eb 683e f98d a33c d200 83be f8d1 6f3e
000000b0: c658 2cbe 6a08 97be 1be8 433e 8e96 bdbd
000000c0: 353e e3bd 06a9 0ebc d7f7 9cbd 2159 323c
000000d0: ffc4 58be fba3 bdbd b9e9 33be e62b 0ebe
000000e0: 2ca7 c2bd c7dc 42be c7fe 2d3e 5050 5c3e
000000f0: fdc9 7b3c 3083 553d 53a6 86be 4a0c cdbd
00000100: 7865 0bbe 05ca 323e 55d0 0fbd ed47 123e
00000110: c4c3 7bbe 4331 1abe 4f66 2bbe 2753 32be
00000120: 0a40 dd3c e02e 4b3d 7196 62bd e804 00be
00000130: 621d 74be 4ee6 c83b be87 263c 2057 cd3d
00000140: ff2c 60bd 41b8 26bd 501c 50be 9522 3ebe
00000150: 9cb3 343e 97b7 c13d 6ae6 a6bc c802 a7bd
00000160: 840a febd 7e8b 603e 4624 44be 4986 333e
00000170: deab 41be 08d2 74be 6935 fc3d a5ac 013e
00000180: 6f84 3f3d 7fbd 9bbd b5f7 5cbd 0949 083e
00000190: ba91 c4bd 4725 503e 7458 fdbc 536d 74be
000001a0: af55 f8bc f099 7dbd 68f3 b93d ebde 803d
000001b0: cae2 48be c4bd b6bc 2db0 3a3e 3ca5 8e3d
000001c0: edaf b1bd f5d5 b23c 673f 0f3e a9a9 b3bd
000001d0: b5a5 e93d 92d8 2d3d 95ce 3fbe d56b 4abe
000001e0: 8c36 b0bd fd53 59be 41c3 293e 2359 d0bc
000001f0: 0d3f 6a3e 65d8 dd3d 70b6 ee3d c322 eb3d
00000200: 7a3c 4fbe 7f0f 2cbe 82ca f2bd 32e7 9cbc
00000210: a2e6 343e 5537 423e f12c 8ebe 633a 03be
00000220: d995 193e 7bd7 6a3e 190e 2c3e dc22 0ebe
00000230: cfcb 3fbe 8338 f6bd 82f7 0bbe 23ed 1a3e
00000240: 78ed 2e3e 15f0 d43c b980 73bd d89f d3bc
00000250: 8ca6 9f3d 3e6f e9bd 79d5 cbbd c95a 06be
00000260: f391 ef3b f17d 273d 758b f33d 49e1 80bd
00000270: d180 733b c3a6 2c3e 841d 5bbe 2a5e b03d
00000280: 2ec2 aabd 4030 33be a8a1 f3bd bb2d 0cbe
00000290: 25ee f7bd e5af 253e da99 4dbe d1db acbd
000002a0: 56d4 de3d 2fc0 09bd a4cf 15bc ac8a 963d
000002b0: d9bd 75be 36cb 8b3e c099 3bbe 7cd2 3c3e
000002c0: 7ea1 6c3e ce09 b43d 3b20 f23d 31a6 e1bd
000002d0: 978b 383e 2858 29bd 5fe3 223e 07ed 0d3e
000002e0: 3ecc 563e a88d 813e 4104 6abc bd84 26be
000002f0: f6f6 b4bd 5644 b43c 40b2 863d 6c4b 41be
00000300: 6376 df3d ab63 073d b3a8 523e 3211 4fbe
00000310: e273 32be 6d39 bc3c dd5f 5bbe 6c64 323e
00000320: 33aa 5cbe 52a8 113d 2016 4d3e 1bc9 ebbd
00000330: e586 243d d84b 22be 09a7 12be 3a51 3abe
00000340: e4eb f93c 29e7 103d 61a3 79bd d818 1c3c
00000350: 1f82 f83d bee3 173e 3960 453e 2446 ec3d
00000360: e11f 7c3e b03b 203e 0f3d 4cbe 6499 d93d
00000370: 4a4e 29bd 9312 263d a90d a5bd a7a8 febd
00000380: d8a8 383e 5202 323e 1c48 22bd e853 90be
00000390: 8bd6 243e 65e0 9cbd 70ff 19be fba1 933d
000003a0: c972 8e3d 1344 103d 5d9b a33d 69f2 70bd
000003b0: 4c16 613d 820e 363d 76b6 933d f165 97bd
000003c0: e2ca fc3d 4de5 833e 27e7 25be 1c95 1abe
000003d0: 950d 32be 772d 08be a296 18be 1507 e1bc
000003e0: 6502 4d3e 823d 123e b9ed eabd 9198 1bbe
000003f0: 6fef fb3d 5568 62be 6d8d 963d f485 3c3d

lstm.bias_ih_l1 f4 [64]
0.18365078 -0.1042421 -0.1669017 -0.07679652 0.097488984 -0.037054684 -0.072660044 0.14285819
0.106056206 -0.19507803 -0.28791252 0.23235634 -0.00018269807 -0.19030198 -0.057800006 -0.12384953
-0.1238817 -0.087976135 0.10511971 -0.07440368 -0.07042724 0.26985005 -0.25900292 -0.1997706
0.25882366 0.21754108 -0.08047504 -0.21813615 0.20591904 -0.026429806 -0.07483127 -0.13488431
-0.019547103 0.07431053 0.23735832 -0.03210759 0.026959635 0.12312968 -0.057269566 -0.1848325
0.13604943 0.03948775 0.016176227 0.11108544 0.17836855 -0.055416696 0.12358438 0.16814226
-0.16367345 -0.15868278 -0.24506328 -0.13710698 0.14593239 0.28003553 -0.1999677 -0.082262196
0.08416078 0.13135974 -0.26354325 0.25726524 -0.0062680263 0.18435091 0.13545458 0.010484471
00000000: f30e 3c3e e27c d5bd 47e8 2abe 7e47 9dbd
00000010: 4ea8 c73d a7c6 17bd cace 94bd 6b49 123e
00000020: ff33 d93d 89c2 47be 4569 93be d2ee 6d3e
00000030: a492 3fb9 86de 42be b3bf 6cbd d3a4 fdbd
00000040: b0b5 fdbd d52c b4bd 0149 d73d f560 98bd
00000050: 283c 90bd c929 8a3e 089c 84be aa90 4cbe
00000060: 8984 843e 17c3 5e3e 19d0 a4bd 155f 5fbe
00000070: 71dc 523e 5283 d8bc 2341 99bd 1d1f 0abe
00000080: 3f21 a0bc 1f30 983d 0f0e 733e 4083 03bd
00000090: 74da dc3c 6a2b fc3d 7e93 6abd bb44 3dbe
000000a0: 8b50 0b3e e8bd 213d 0284 843c c380 e33d
000000b0: 3fa6 363e 9efc 62bd cf19 fd3d 7c2d 2c3e
000000c0: 039a 27be bd7d 22be def1 7abe c665 0cbe
000000d0: 4d6f 153e d160 8f3e 55c4 4cbe 1579 a8bd
000000e0: 7d5c ac3d 2b83 063e 24ef 86be 45b8 833e
000000f0: 0464 cdbb 7cc6 3c3e 9bb4 0a3e 0fc7 2b3c

lstm.bias_hh_l1 f4 [64]
0.08895579 0.2722238 -0.20247401 0.102159366 -0.24690942 0.1809566 0.03268305 -0.1463097
0.27539983 0.10052506 -0.15921691 -0.18580537 0.21711744 -0.08683224 -0.15145372 -0.19929315
0.13857466 -0.11186931 0.17842573 -0.1154126 0.09993706 -0.10374793 0.06602968 0.17738053
0.27540556 0.25133473 -0.00042796953 0.034135405 0.27677602 -0.096003346 0.23977186 -0.20904909
0.25649455 0.02964123 0.17785311 0.19294646 -0.19241652 0.011688368 -0.047809538 0.14561336
0.13141534 0.14538994 -0.05495829 0.1056175 0.21290012 -0.024789812 -0.086952426 -0.20758538
0.15965739 0.24619633 0.12781857 0.13296832 0.14552073 0.19511151 -0.15852256 -0.0013154459
0.07914926 -0.18456854 0.005620005 0.055481832 0.022250041 -0.02783457 0.18729873 -0.16500796
00000000: 742e b63d eb60 8b3e 5955 4fbe ee38 d13d
00000010: d3d5 7cbe b04c 393e a9de 053d 36d2 15be
00000020: 3501 8d3e 15e0 cd3d c209 23be c343 3ebe
00000030: 0954 5e3e 1ad5 b1bd af16 1bbe 8113 4cbe
00000040: 84e6 0d3e bd1b e5bd 3cb5 363e 715d ecbd
00000050: cdab cc3d cb79 d4bd 923a 873d 3ea3 353e
00000060: f501 8d3e f2ae 803e 1961 e0b9 91d1 0b3d
00000070: 96b5 8d3e 679d c4bd c186 753e f710 56be
00000080: 4153 833e 2ad2 f23c 201f 363e c293 453e
00000090: d608 45be 9280 3f3c efd3 43bd ab1b 153e
000000a0: be91 063e 1ae1 143e f21b 61bd fd4d d83d
000000b0: 7d02 5a3e 0114 cbbc 1d14 b2bd 4391 54be
000000c0: 3a7d 233e e41a 7c3e dfe2 023e d928 083e
000000d0: 6303 153e 50cb 473e bd53 22be 0a6b acba
000000e0: 0219 a23d 89ff 3cbe 0528 b83b eb40 633d
000000f0: b845 b63c 5305 e4bc 3dcb 3f3e d9f7 28be

lstm.weight_ih_l2 f4 [64, 16]
0.090845406 -0.11990874 0.012664891 -0.022166155 -0.09110968 -0.100829825 0.13715954 -0.010889817
0.007451915 0.27598372 -0.07601742 0.23202471 0.1291023 -0.13553452 0.08024202 0.19406009
-0.055063553 0.105757885 0.10948799 -0.18897144 0.18680356 -0.017757509 0.15300274 0.11415714
0.1051216 0.18340029 0.11306426 0.05598746 -0.21688233 -0.024438359 0.20477106 0.024203451
0.15955903 -0.17339274 -0.094999395 -0.27510077 -0.022280786 -0.06870927 -0.18506686 0.17149772
0.30298826 -0.16216528 0.13641566 -0.17045005 -0.12536013 -0.26603153 -0.17104271 0.17984954
-0.12960462 -0.15682785 0.013698581 -0.04697605 -0.24451272 0.06069861 0.18352446 0.072939835
-0.11405733 0.018189525 -0.1676985 -0.06356 0.28052995 -0.09197914 0.16133425 -0.04336577
-0.18206687 0.22974068 0.03455069 0.06607626 0.16303824 -0.10995185 0.05479763 -0.22329879
0.20763846 0.27119878 -0.15558235 -0.091172166 0.20433633 -0.3110885 0.13243714 -0.21694662
-0.05579549 -0.16728422 0.169407 -0.050727747 0.07948569 0.028802674 -0.112251595 -0.16662367
0.29588258 0.23790571 0.05096213 -0.028880954 0.33248195 0.3477198 0.096718974 0.21068087
-0.12013127 -0.04346374 -0.14949809 -0.077467926 0.24631795 0.21898429 0.0073418887 0.18506552
0.026994964 0.053667534 -0.23804283 0.11501407 0.07351069 0.06487822 0.15248775 0.20106925
-0.13326187 -0.20621742 0.21584651 0.07605398 0.06636939 -0.15494162 -0.02759163 -0.088885486
0.21105386 0.13563432 -0.08182156 0.25201684 0.22048676 0.13537167 -0.20346825 0.10257203
0.2548128 0.08250365 0.16776386 0.09846751 -0.19007601 0.11042728 -0.022484047 -0.20814446
0.17855094 -0.17552832 -0.07002272 -0.052045498 0.10711198 -0.011341222 -0.019600546 -0.22759989
0.13166161 -0.09053021 0.09645199 -0.35959136 -0.25503993 0.1280107 -0.2267699 -0.21961276
0.10681596 -0.021715263 -0.13436739 0.06092331 0.06321502 0.04438622 0.12227023 -0.25713608
0.24795653 -0.09818518 0.2714751 -0.19452791 0.008607618 -0.032490212 0.03706096 -0.24668571
-3.7203517e-05 -0.06632869 -0.00459182 0.07295843 -0.17146239 0.11585433 0.101297215 -0.0046443045
-0.010006236 0.038334794 0.037304852 -0.15390825 0.07442396 -0.13051333 0.15541844 0.09378439
-0.038102906 -0.07012761 -0.19641584 0.1677735 0.2254901 -0.064308055 0.023780033 0.036254782
0.29063857 0.17499584 -0.07538089 0.014848491 0.14159231 -0.12289948 -0.10224742 -0.19883622
-0.012039057 0.15509415 0.020401755 -0.19815119 0.15444985 -0.05157183 0.13826671 -0.11567821
0.13393036 0.021707376 -0.119751915 -0.22078869 -0.2005402 0.17545713 0.06988779 0.024009524
0.12576368 -0.22987945 0.2243834 -0.18109089 0.035394654 -0.08846301 0.20680928 -0.16955233
-0.08698241 0.22391142 -0.19047147 -0.11535876 -0.11766987 0.21100534 -0.14387962 -0.11224066
-0.08763627 -0.1909117 0.11350576 -0.13494536 -0.028412752 -0.24516222 -0.27716115 -0.21548428
0.1719282 -0.085041925 0.095251635 0.17331573 -0.27731767 0.104099035 -0.22956896 -0.2895889
0.23518935 0.15087073 0.025101805 0.0888588 -0.06723763 0.16605188 0.028319124 0.028046027
00000000: 280d ba3d b792 f5bd 6780 4f3c cc95 b5bc
00000010: b697 babd de7f cebd 8d73 0c3e 346b 32bc
00000020: 322f f43b bd4d 8d3e 05af 9bbd e397 6d3e
00000030: 6533 043e 90c9 0abe ee55 a43d b0b7 463e
00000040: 528a 61bd 9797 d83d 3d3b e03d bb81 41be
00000050: 6f49 3f3e 3278 91bc c0ac 1c3e 38cb e93d
00000060: fe49 d73d 49cd 3b3e 3c8e e73d 1b53 653d
00000070: 6716 5ebe f432 c8bc 81af 513e 5146 c63c
00000080: 7163 233e de8d 31be 0b8f c2bd 02da 8cbe
00000090: 3286 b6bc 72b7 8cbd 2b82 3dbe 199d 2f3e
000000a0: 4721 9b3e a80e 26be 8cb0 0b3e 758a 2ebe
000000b0: 685e 00be 4935 88be d225 2fbe 7a2a 383e
000000c0: 13b7 04be 7b97 20be 0370 603c f569 40bd
000000d0: 8b61 7abe 1b9f 783d d6ed 3b3e 7b61 953d
000000e0: e496 e9bd 3302 953c 28b9 2bbe bf2b 82bd
000000f0: 9fa1 8f3e 8f5f bcbd ce34 253e 4ea0 31bd
00000100: bd6f 3abe 2441 6b3e 0685 0d3d fd52 873d
00000110: 7ff3 263e 6f2e e1bd 7b73 603d 70a8 64be
00000120: 2d9f 543e 91da 8a3e fb50 1fbe 79b8 babd
00000130: 8b3d 513e fe46 9fbe 9a9d 073e 4127 5ebe
00000140: d089 64bd 8e4c 2bbe 0779 2d3e e6c7 4fbd
00000150: 65c9 a23d 96f3 eb3c 2ae4 e5bd 659f 2abe
00000160: ec7d 973e 8e9d 733e abbd 503d c097 ecbc
00000170: 133b aa3e 5408 b23e 9914 c63d babc 573e
00000180: 6207 f6bd 0907 32bd 0716 19be 81a7 9ebd
00000190: c63a 7c3e 6b3d 603e 3a94 f03b d181 3d3e
000001a0: 8b24 dd3c 7dd2 5b3d 80c1 73be 7f8c eb3d
000001b0: c68c 963d dfde 843d c025 1c3e 19e5 4d3e
000001c0: cd75 08be a92a 53be de06 5d3e 30c2 9b3d
000001d0: adec 873d 04a9 1ebe d807 e2bc 9809 b6bd
000001e0: 811e 583e b9e3 0a3e 1092 a7bd 5a08 813e
000001f0: 48c7 613e df9e 0a3e fb59 50be 4911 d23d
00000200: d376 823e acf7 a83d 4aca 2b3e 55a9 c93d
00000210: 49a3 42be b327 e23d 7730 b8bc d223 55be
00000220: 0fd6 363e b2bd 33be 1268 8fbd a92d 55bd
00000230: 875d db3d 88d0 39bc 5391 a0bc f20f 69be
00000240: 4dd2 063e e767 b9bd 9f88 c53d 5c1c b8be
00000250: 9894 82be 3d15 033e 5e36 68be 2be2 60be
00000260: 53c2 da3d 35e4 b1bc 9b97 09be b98a 793d
00000270: e076 813d 53ce 353d d068 fa3d 57a7 83be
00000280: 51e8 7d3e 5015 c9bd c9fe 8a3e 5332 47be
00000290: f706 0d3c 7514 05bd 3ccd 173d 2e9b 7cbe
000002a0: f90a 1cb8 56d7 87bd fa76 96bb 3b6b 953d
000002b0: d693 2fbe 0945 ed3d ea74 cf3d 402f 98bb
000002c0: 32f1 23bc f204 1d3d f9cc 183d 209a 1dbe
000002d0: 976b 983d 49a5 05be 0326 1f3e 0812 c03d
000002e0: cb11 1cbd 109f 8fbd 3c21 49be d1cc 2b3e
000002f0: e0e6 663e f1b3 83bd 58ce c23c e57f 143d
00000300: 94ce 943e 1c32 333e 4c61 9abd 1647 733c
00000310: 93fd 103e b9b2 fbbd 1867 d1bd b99b 4bbe
00000320: 773f 45bc 00d1 1e3e 9521 a73c 25e8 4abe
00000330: 1a28 1e3e fc3c 53bd ca95 0d3e b3e8 ecbd
00000340: 0a25 093e abd3 b13c 7e40 f5bd 6e16 62be
00000350: 695a 4dbe 09ab 333e 5421 8f3d 9faf c43c
00000360: 32c8 003e 8565 6bbe c3c4 653e e46f 39be
00000370: fcf9 103d 182c b5bd d0c5 533e 209f 2dbe
00000380: d523 b2bd 0949 653e f40a 43be 3741 ecbd
00000390: e7fc f0bd c911 583e 2e55 13be 6ede e5bd
000003a0: a57a b3bd 5b7e 43be b575 e83d 1e2f 0abe
000003b0: dcc1 e8bc ce0b 7bbe 11e8 8dbe e9a7 5cbe
000003c0: f20d 303e 762a aebd 4a13 c33d ae79 313e
000003d0: 95fc 8dbe e031 d53d 2014 6bbe ff44 94be
000003e0: 7ad5 703e db7d 1a3e 4da2 cd3c 9afb b53d
000003f0: e2b3 89bd 8109 2a3e 82fd e73c c8c0 e53c

lstm.weight_hh_l2 f4 [64, 16]
-0.100611225 0.24763416 -0.117523536 -0.23692319 0.050792538 0.23559362 0.0086557865 0.06380565
0.21369797 0.17328107 -0.26147577 0.26267955 0.10380816 -0.054292407 -0.17647232 -0.11479024
0.114151895 0.2406153 0.20568576 -0.1640089 -0.1929642 0.074933976 -0.12788004 -0.26800314
0.09970896 -0.21125211 -0.037296508 0.040749207 -0.1319872 -0.123426676 -0.10195991 -0.12936774
-0.10567772 -0.16182362 -0.09504582 0.08685921 -0.12025652 0.018949622 -0.22971137 0.012490743
-0.16377226 0.051178176 0.011074807 -0.040071663 -0.075346954 0.09108673 -0.036573872 -0.1805822
-0.051172975 0.03850779 -0.13379969 0.16643928 0.14008261 0.23982938 -0.2157698 -0.2644389
-0.05742458 -0.042630583 0.08013265 0.08304177 -0.08866904 0.27565518 0.17288645 -0.21010251
0.099022076 -0.18521136 0.07568572 -0.059597384 -0.027164139 0.0748952 -0.27740598 -0.03485111
-0.04034758 -0.23820426 -0.018991603 -0.16603936 0.20937711 0.15897715 -0.116044745 0.07736187
-0.11693751 -0.04493471 0.11417339 -0.2921165 0.29836687 -0.063223585 0.30777523 0.016153267
-0.01951781 0.07005144 -0.34831938 -0.113716386 -0.119769305 0.12606925 0.2821875 -0.067169994
-0.05331229 0.010586188 -0.06608195 0.14487228 -0.0048158434 -0.04730276 -0.1951271 0.23238288
0.052314606 0.05521045 -0.05092134 -0.10087882 -0.050873075 0.17134419 -0.048294764 -0.14181456
-0.15829429 -0.015558136 0.15380047 -0.051694695 -0.004023492 -0.15063633 -0.16854772 0.13499193
0.06908369 -0.1334313 -0.017739631 0.012534103 0.23292518 -0.114716664 -0.18313812 -0.031308576
0.075645335 -0.06909896 0.12951197 0.1660206 0.07015333 0.14188851 0.14700547 -0.15497799
0.071204 0.16009344 -0.0225275 0.07119537 -0.114998914 -0.10757341 0.15187727 0.037722968
-0.11461201 -0.06755211 -0.13732144 -0.040577095 -0.043234996 0.2416684 -0.12563893 0.019033493
-0.077441186 -0.11694389 0.15050782 0.09237268 0.16939698 -0.18444398 -0.1926468 0.09517224
0.15233919 -0.081145816 0.06759471 0.22626792 -0.10655561 -0.10961198 -0.2624544 0.13574436
-0.1794216 -0.15037644 0.058646563 -0.034576137 0.0460268 0.24375972 0.011058589 -0.17866674
0.0146382805 -0.178118 0.017565653 0.17428774 0.16051124 0.27806538 0.10784414 0.089675665
-0.28757495 -0.14808317 -0.05742107 -0.06370551 -0.10655177 0.1585653 -0.0011094963 -0.15189151
-0.15071268 0.14694823 0.22771364 0.06467226 -0.111467406 0.29712385 0.22772291 0.21192597
0.05531861 -0.27091312 0.19047393 0.024406556 0.21799739 -0.09698052 0.18690923 0.20075947
-0.26322174 0.13917202 0.2203441 0.038597286 -0.10363592 -0.099903524 -0.04965465 0.010795924
-0.074441895 -0.14971265 -0.20917745 -0.12280533 -0.05626946 0.06770249 -0.1930993 -0.15748987
0.07209081 -0.10878471 0.16721576 0.20139375 0.22219582 -0.21519747 0.15821292 0.0036759975
-0.10232145 0.09181416 0.14193517 0.15953718 0.02569609 0.2342375 0.0013331776 0.13085426
0.08333696 0.017962443 -0.1364568 -0.21230656 0.15478615 -0.19673917 0.08647128 -0.032526232
0.0072343596 0.04939422 -0.1590837 -0.18902838 0.26587918 0.16640022 -0.08260374 0.1324738
00000000: 420d cebd cf93 7d3e 2eb0 f0bd fe9b 72be
00000010: d60b 503d 743f 713e 00d1 0d3c 89ac 823d
00000020: a4d3 5a3e 9870 313e 27e0 85be ef7d 863e
00000030: 5f99 d43d b761 5ebd 29b5 34be 2517 ebbd
00000040: 78c8 e93d db63 763e 4a9f 523e f3f1 27be
00000050: 6898 45be fc76 993d fcf2 02be b537 89be
00000060: 3634 cc3d 7952 58be 39c4 18bd a4e8 263d
00000070: a727 07be 20c7 fcbd 5bd0 d0bd fa78 04be
00000080: 8f6d d8bd 17b5 25be 62a7 c2bd 3ee3 b13d
00000090: 0d49 f6bd 3d3c 9b3c 7539 6bbe f9a5 4c3c
000000a0: eab3 27be 35a0 513d 1b73 353c 2f22 24bd
000000b0: 814f 9abd ae8b ba3d 7cce 15bd 8aea 38be
000000c0: c19a 51bd 58ba 1d3d c902 09be 0f6f 2a3e
000000d0: d171 0f3e d595 753e c2f2 5cbe 8964 87be
000000e0: 0936 6bbd 689d 2ebd 961c a43d ce11 aa3d
000000f0: 1d98 b5bd ad22 8d3e 2509 313e 1d25 57be
00000100: 16cc ca3d 0ca8 3dbe 1d01 9b3d 631c 74bd
00000110: 5487 debc a862 993d 2808 8ebe 0ac0 0ebd
00000120: 8143 25bd d1eb 73be 4794 9bbc 3906 2abe
00000130: f466 563e e8ca 223e dea8 edbd e66f 9e3d
00000140: ef7c efbd 750d 38bd bdd3 e93d 4b90 95be
00000150: 8bc3 983e 5e7b 81bd b794 9d3e db53 843c
00000160: d0e3 9fbc 2177 8f3d eb56 b2be 23e4 e8bd
00000170: 9c49 f5bd 4c18 013e e17a 903e 6c90 89bd
00000180: fd5d 5abd b171 2d3c f955 87bd 6659 143e
00000190: 39ce 9dbb 8ac0 41bd 66cf 47be c7f5 6d3e
000001a0: d747 563d 5a24 623d e592 50bd 8e99 cebd
000001b0: 4960 50bd da74 2f3e bbd0 45bd d637 11be
000001c0: e617 22be 8de7 7ebc df7d 1d3e d1bd 53bd
000001d0: 7fd7 83bb 6940 1abe c697 2cbe 533b 0a3e
000001e0: c07b 8d3d 37a2 08be b452 91bc d75b 4d3c
000001f0: f083 6e3e 92f0 eabd 8f88 3bbe 6c3d 00bd
00000200: f1eb 9a3d c183 8dbd c99e 043e 4e01 2a3e
00000210: 8dac 8f3d 394b 113e 9a88 163e 8db2 1ebe
00000220: 67d3 913d 89ef 233e 978b b8bc e1ce 913d
00000230: 8d84 ebbd 734f dcbd b785 1b3e 6683 1a3d
00000240: b4b9 eabd c358 8abd fe9d 0cbe 2b34 26bd
00000250: 2e17 31bd ec77 773e 7ea7 00be 21ec 9b3c
00000260: 7c99 9ebd 4780 efbd b91e 1a3e e32d bd3d
00000270: 6776 2d3e e2de 3cbe 3445 45be aae9 c23d
00000280: cefe 1b3e c72f a6bd 186f 8a3d c7b2 673e
00000290: d439 dabd 3f7c e0bd 6c60 86be 9200 0b3e
000002a0: 4cba 37be 48fc 19be 6137 703d b59f 0dbd
000002b0: 9986 3c3d 269c 793e 162f 353c 6af4 36be
000002c0: 66d5 6f3c 9164 36be d8e5 8f3c 7c78 323e
000002d0: 0f5d 243e 965e 8e3e 63dd dc3d e0a7 b73d
000002e0: 063d 93be 1da3 17be 5b32 6bbd 0978 82bd
000002f0: d037 dabd f15e 223e 856c 91ba 7389 1bbe
00000300: 6d54 1abe 9979 163e c42d 693e e472 843d
00000310: 0649 e4bd 9e20 983e 3230 693e 1f03 593e
00000320: c495 623d 20b5 8abe 990b 433e 42f0 c73c
00000330: b53a 5f3e b99d c6bd 2265 3f3e e493 4d3e
00000340: 00c5 86be 1c83 0e3e e2a1 613e 3018 1e3d
00000350: 123f d4bd 389a ccbd ad62 4bbd 63e1 303c
00000360: fe74 98bd 464e 19be 9d32 56be 5c81 fbbd
00000370: ce7a 66bd 9aa7 8a3d d3bb 45be 0645 21be
00000380: 59a4 933d 85ca debd 9c3a 2b3e 2a3a 4e3e
00000390: 4d87 633e ba5c 5cbe 9102 223e 01e9 703b
000003a0: e98d d1bd 1009 bc3d 7457 113e b75d 233e
000003b0: 9b80 d23c f5db 6f3e 04be ae3a a9fe 053e
000003c0: 91ac aa3d f925 933c 55bb 0bbe e466 59be
000003d0: 4380 1e3e fe75 49be db17 b13d 3a3a 05bd
000003e0: 350e ed3b 9851 4a3d d6e6 22be a890 41be
000003f0: 5121 883e d264 2a3e 262c a9bd 36a7 073e

lstm.bias_ih_l2 f4 [64]
0.016302815 -0.14976513 0.124985345 0.17703256 -0.01180798 0.044233922 -0.19583774 0.12694147
0.22093076 -0.13423197 -0.0132113155 -0.10880168 0.06353662 0.14841273 -0.04174059 -0.082613274
0.026387 -0.08159751 -0.19216613 0.091959946 -0.17421983 0.38178155 -0.14313817 -0.046695422
0.12371039 0.18863843 0.055426516 -0.06555561 0.026497666 0.24077663 0.13578716 0.13627665
-0.06393043 -0.054589465 -0.023011565 -0.19124722 0.08305076 0.31902722 -0.0006214406 -0.08224385
-0.05418307 -0.1671464 -0.19621484 0.0037285297 -0.28424773 -0.2202099 0.06783028 -0.16492583
0.051233537 0.2009216 -0.14895502 -0.078083724 0.010444929 0.16058876 0.10248592 0.023484875
-0.009646907 -0.19661887 -0.18872117 0.111474305 0.19205275 -0.038361866 -0.20242779 0.11770095
00000000: 7b8d 853c 085c 19be 51f8 ff3d 0648 353e
00000010: 4276 41bc a12e 353d b089 48be f2fc 013e
00000020: ac3b 623e 1b74 09be 4674 58bc 6ad3 debd
00000030: 7d1f 823d 82f9 173e 2ef8 2abd 2631 a9bd
00000040: 8d29 d83c 981c a7bd 33c7 44be 7f55 bc3d
00000050: af66 32be df78 c33e d092 12be b343 3fbd
00000060: df5b fd3d 6f2a 413e ea06 633d 0542 86bd
00000070: a211 d93c 268e 763e ca0b 0b3e 1b8c 0b3e
00000080: f5ed 82bd 3499 5fbd c082 bcbc 50d6 43be
00000090: 8416 aa3d 8957 a33e 2ce8 22ba 776f a8bd
000000a0: 11ef 5dbd 6d28 2bbe 8bec 48be 595a 743b
000000b0: eb88 91be b47e 61be 9aea 8a3d 51e2 28be
000000c0: 42da 513d 64be 4d3e aa87 18be 5cea 9fbd
000000d0: 3521 2b3c 6171 243e 23e4 d13d 5a63 c03c
000000e0: 100e 1ebc 7556 49be 1f40 41be a44c e43d
000000f0: 7aa9 443e 5521 1dbd 3b49 4fbe 320d f13d

lstm.bias_hh_l2 f4 [64]
-0.057532012 -0.1265284 -0.08358956 -0.17695335 0.29272187 -0.056512073 -0.16592339 0.065984294
0.15005592 0.047322232 0.008857806 0.011782522 0.14153787 -0.04584962 -0.1615377 0.1522525
0.20775174 0.15603925 0.03988662 -0.108247034 -0.13501568 -0.05046642 0.014467856 0.14940679
0.29154962 0.18056406 0.18958284 -0.022905443 -0.21656437 0.067240976 0.15283145 0.08576325
-0.049989585 0.16510974 0.24190442 -0.13680804 0.056423143 -0.00897951 -0.119711675 0.21058793
-0.1568277 -0.20201962 -0.035136316 0.21546867 0.10041527 -0.069868475 0.14242885 -0.13078056
-0.16796668 0.19311354 0.019244412 -0.12146705 0.14876314 0.16239713 -0.10229825 -0.06791903
0.22561154 0.17874344 0.13277063 0.012409451 0.123658806 -0.05707208 -0.018946374 -0.0017848831
00000000: b0a6 6bbd a990 01be 0131 abbd 4233 35be
00000010: a4df 953e 3479 67bd d2e7 29be c622 873d
00000020: 42a8 193e f5d4 413d 5520 113c 7b0b 413c
00000030: 4eef 103e d0cc 3bbd 246a 25be 14e8 1b3e
00000040: dfbc 543e c1c8 1f3e 2760 233d 9fb0 ddbd
00000050: 8d41 0abe e0b5 4ebd 960a 6d3c 18fe 183e
00000060: fe45 953e c9e5 383e 0122 423e 32a4 bbbc
00000070: 0dc3 5dbe a3b5 893d d97f 1c3e a5a4 af3d
00000080: e1c1 4cbd 8712 293e cbb5 773e 6817 0cbe
00000090: f41b 673d cb1e 13bc 652b f5bd 5da4 573e
000000a0: 7197 20be 3bde 4ebe 19eb 0fbd d2a3 5c3e
000000b0: 85a6 cd3d 3417 8fbd ded8 113e 57eb 05be
000000c0: 75ff 2bbe 8ebf 453e 75a6 9d3c b7c3 f8bd
000000d0: 5d55 183e 6f4b 263e bf81 d1bd 2219 8bbd
000000e0: b606 673e 8508 373e 06f5 073e 0351 4b3c
000000f0: d440 fd3d 6ac4 69bd 6d35 9bbc bdf2 e9ba
