models/rnn/AAPL/weights/last.pth (torch, 34915 bytes, 18 tensors)

lstm.weight_ih_l0 f4 [64, 5]
000000 5a 62 b4 bd 61 e3 8c bd 90 73 f7 bd 62 94 fb 3d
       -0.088078216 -0.068793066 -0.12082589 0.12284161
000010 3d e5 38 bd 67 e4 89 3e 16 ac 4f bd 7f e6 9f 3d
       -0.045140494 0.2693207 -0.050701223 0.078076355
000020 d4 7b 47 be 10 80 8d 3d cc 45 92 3e f0 95 00 be
       -0.1948083 0.069091916 0.28568876 -0.12557197
000030 2e a7 f2 bd d7 0c 73 bd 41 e5 47 bd 12 18 0a 3e
       -0.11848293 -0.059338417 -0.048802618 0.13485745
000040 5f e1 11 be 03 45 36 be e4 d1 e2 3d 1c 73 36 be
       -0.14246128 -0.17799763 0.1107519 -0.17817348
000050 dc 90 cc 3c ad 27 08 bd 39 20 b0 3d 70 0b 80 3e
       0.024971418 -0.033240963 0.08599896 0.25008726
000060 eb d2 bf 3c 78 21 74 be 03 61 62 bd 42 c0 66 bd
       0.023416003 -0.23840892 -0.0552683 -0.056335695
000070 9a ed ca bd 0d d2 0e 3e bf af 3c be 22 62 0f bd
       -0.099086 0.13947316 -0.18426417 -0.035005696
000080 81 84 e7 3d 09 96 94 3e 2a 60 6f be 0e 48 71 3e
       0.1130457 0.29020718 -0.23376527 0.23562643
000090 37 80 36 be f1 8d 82 3e dd b5 6e 3e a0 89 6f 3e
       -0.17822348 0.25498918 0.23311563 0.23392344
0000a0 d6 20 5e be 7a 2b 8c be a9 19 47 3e 28 13 c2 bc
       -0.21692213 -0.2737692 0.19443382 -0.023690775
0000b0 31 0a 66 bd 19 e7 80 3c 2e 02 6c 3e b5 85 59 3e
       -0.056162063 0.015735196 0.23047706 0.21242411
0000c0 7b 4b 49 bc de 07 bb 3e da d1 52 bd bc 5e da 3d
       -0.012286062 0.3652944 -0.05146966 0.106626004
0000d0 41 e0 a9 bd c4 76 86 3e ee 5f 56 3e 07 a7 c8 3d
       -0.08294726 0.26262486 0.20935032 0.09797483
0000e0 da 83 7b bd 37 c6 f4 3d 78 a3 04 be da e1 63 be
       -0.06140504 0.11951869 -0.12952983 -0.22254124
0000f0 b2 97 16 3e 27 e5 31 3d 01 a4 41 3e 38 a5 a0 3e
       0.14706305 0.043431427 0.18910219 0.31376052
000100 43 d3 4a be 5d e0 db bd a0 a8 3e bd 1d 6e 19 be
       -0.19807152 -0.10736153 -0.046547532 -0.14983411
000110 8c a7 d8 bc 85 3d f8 3d 37 79 0b bd 4e c0 14 3e
       -0.02644708 0.12121109 -0.034051146 0.14526483
000120 ff 6a a8 3d a7 7b 04 be 81 28 11 3e 5e 27 71 3e
       0.08223533 -0.12937795 0.14175607 0.23550174
000130 6f e2 cb bd df 24 9b bd 38 ba 31 3e e7 a6 66 bd
       -0.09955298 -0.07575392 0.17356193 -0.056311514
000140 93 c1 66 3e cb 2d 05 be 80 b4 dc bd 7f 25 f0 3d
       0.2253478 -0.1300575 -0.10776615 0.11725902
000150 2d c6 8a 3d a5 c4 45 be f2 fd 15 bd da 14 42 be
       0.0677608 -0.19313295 -0.036619134 -0.18953267
000160 0e a6 3c 3e c6 51 50 3e 7a 59 4e 3d 6f e6 3a 3e
       0.1842272 0.20343694 0.0503783 0.18251966
000170 71 04 2d 3e ea 20 e4 3c df 6a 55 be ca 95 0c 3d
       0.16896226 0.027847726 -0.2084155 0.034322537
000180 18 b3 4f 3e b8 83 81 3e a5 31 2b 3e 81 44 d9 3d
       0.20283163 0.25295806 0.16718157 0.10608769
000190 aa 7d 2a bd c0 bb 62 3e 8a 70 75 bd 04 87 27 be
       -0.04162375 0.22141933 -0.05992178 -0.16360098
0001a0 a3 08 18 be e6 d6 8e be 6d 99 87 be f0 73 81 be
       -0.14847045 -0.2789833 -0.26484242 -0.25283766
0001b0 a8 11 0c 3d dd 73 06 be 74 6f 02 3e 5c cd 24 3e
       0.034196526 -0.13130136 0.12737828 0.16093963
0001c0 f3 fa 44 3e 38 de 85 3d ac ae 85 be ed cd 2d 3e
       0.19236355 0.065365255 -0.26109827 0.16973086
0001d0 aa 5b 0b be 3d ca 33 bc 78 d7 f7 3d a6 22 79 bd
       -0.13609186 -0.01097351 0.12101644 -0.06082406
0001e0 e2 99 ce 3d c0 e7 f3 3d 4d cf 20 3d 8e 62 2a be
       0.100879446 0.11909437 0.039260197 -0.16639158
0001f0 39 e5 5e 3e b2 d4 5f 3e 6b f2 fe 3c a1 c5 9f 3d
       0.21767129 0.2185848 0.031121453 0.078013666
000200 0a 72 16 3e 22 b8 85 3e d1 74 b4 3d b0 b5 95 3e
       0.1469194 0.26117045 0.088113435 0.2924018
000210 57 29 77 bc 51 63 42 3e 14 bb 9a bd c6 db ea 3d
       -0.01508554 0.18983199 -0.075552136 0.114677
000220 c5 56 07 be 95 72 59 3e 49 ad a7 3e 34 bd 18 bc
       -0.13216694 0.21235116 0.32749394 -0.009322453
000230 5a 0f 4a bc ea 1a 2e 3d fe 55 81 3e 40 a8 f6 3d
       -0.012332762 0.042506136 0.2526092 0.1204381
000240 76 fa d5 bd 22 cd 35 be 65 b8 35 3d 9c 7d e3 3d
       -0.10448162 -0.17754033 0.044365305 0.111079425
000250 f6 ad 1f be 08 ac b7 3c a6 48 4f 3e a9 56 b2 bd
       -0.15593705 0.022420898 0.20242557 -0.08707935
000260 b9 29 21 be 9e 19 81 3e 56 e0 94 3d 95 76 a5 3d
       -0.15738572 0.25214857 0.07269351 0.08079258
000270 ab ac 54 3e 5c b4 2a 3e 6d ad b0 bd 19 fb 82 bd
       0.20768993 0.16670364 -0.08626828 -0.06395549
000280 e4 cf 71 be 96 c6 5d 3e 45 e4 62 bd 9c f2 a1 bd
       -0.2361446 0.21657786 -0.055393476 -0.07907602
000290 eb 55 06 be 8d d0 6e 3e f7 76 a4 3d a2 64 a3 3d
       -0.13118713 0.23321743 0.08030503 0.079781786
0002a0 ce 5b fe 3d 9d b0 52 3a cd 83 1a bd 46 cf 29 3e
       0.12419854 0.00080371817 -0.03772335 0.16582975
0002b0 95 4c c1 3d 5e 84 08 3e 13 92 84 3e ca e9 dc 3d
       0.09438435 0.13331744 0.25892696 0.10786779
0002c0 65 01 8a be 6b d7 65 3e 82 38 99 bc 50 ef 56 be
       -0.2695419 0.22445457 -0.018703703 -0.20989728
0002d0 c8 a1 b3 bd 25 81 86 3c e0 15 34 be ec ab 88 bd
       -0.08771092 0.016419003 -0.1758647 -0.066734165
0002e0 95 86 be bd 12 7c c6 3c 15 7c 87 bc 36 fe 56 3e
       -0.09303013 0.024229083 -0.01653866 0.20995411
0002f0 91 2a 91 3c 5b 10 82 be 9e 12 a2 3c 7f 1e 5a bd
       0.017720493 -0.25403103 0.019784268 -0.05325174
000300 91 45 64 be 0b a6 42 3e 06 04 7c be 54 56 2b 3e
       -0.22292162 0.19008653 -0.2461091 0.1673215
000310 7f a0 d0 bd 99 89 8b 3e 2c 85 dc 3d e0 25 dd 3d
       -0.10186862 0.27253416 0.10767588 0.1079824
000320 cf fd 3a 3e 4d 1b 58 3e 47 9c 15 be bb 47 60 be
       0.18260883 0.21104164 -0.14610396 -0.21902363
000330 85 55 7e 3e 5d 95 89 be 00 ba ca bd e4 db 6a be
       0.2483731 -0.26871768 -0.09898758 -0.22935444
000340 81 57 32 be 24 57 2d 3e 57 35 a4 3d 3b 00 75 3e
       -0.17416193 0.16927773 0.08017986 0.23925869
000350 30 25 0a 3e 2e 7f 52 3d f3 1d e9 bd bd fe 2b bd
       0.13490748 0.05139082 -0.113826655 -0.041990984
000360 76 9b a0 bd 9c 98 77 3e d5 71 28 3e 17 c4 23 be
       -0.07842152 0.2417931 0.16449673 -0.15992771
000370 28 46 16 3e 42 de a4 3c 88 c5 93 bd e3 7e 16 3e
       0.146752 0.020125512 -0.072154105 0.14696841
000380 2a 36 e5 3d 14 f9 a1 bd 60 00 05 bd f0 b2 91 3d
       0.111919716 -0.07908836 -0.03247106 0.07114208
000390 4d ed 7b 3e 92 1e e6 3d 49 8f e5 3d 44 9e 7a 3e
       0.24602242 0.112362996 0.1120897 0.24474436
0003a0 22 43 18 3d 38 a9 c8 bc d8 60 9b 3d 8b 05 9f 3a
       0.037173398 -0.024494752 0.07586831 0.0012132389
0003b0 03 cf e2 3d 9a 27 fd bb 8f 85 c6 bd 71 7e 19 3e
       0.110746406 -0.007725668 -0.09693443 0.1498964
0003c0 d9 44 4c 3e 2d b7 74 3d 42 d6 f0 3d 60 b8 c1 3d
       0.19948138 0.059745003 0.117596164 0.09458995
0003d0 79 ba 06 bc 2b ce 70 bd 7e e6 81 3c 72 35 50 be
       -0.0082231695 -0.058790367 0.015856978 -0.20332888
0003e0 5d b2 27 bc 34 5f 90 bd 9b 4f 92 bd 6a 37 dc 3d
       -0.010235396 -0.070494086 -0.0714409 0.10752757
0003f0 d3 06 87 3e b9 e3 65 3c e0 4f 35 bd 71 86 a9 3d
       0.26372394 0.014031344 -0.044265628 0.08277596

lstm.weight_hh_l0 f4 [64, 16]
000000 23 78 1d 3e c5 47 66 3d 20 7b 00 3e 10 5f 46 3e
       0.1537786 0.05622079 0.12546968 0.19372201
000010 cc 3e 1c bd 0b 84 a0 3d 41 d1 8b bb f0 13 bf bd
       -0.038145825 0.07837685 -0.0042668884 -0.09329975
000020 81 eb 20 3e 47 b1 0d be a2 4a 95 3e 5b 92 0d 3e
       0.15714838 -0.13837157 0.29158503 0.13825361
000030 82 7b 08 be c1 e8 d5 bd 8c f7 90 3e 9c 37 2a 3e
       -0.13328364 -0.10444785 0.28313863 0.16622776
000040 17 4e b0 be 62 a2 9c 3d b1 fa 21 3e 19 f4 19 be
       -0.34434578 0.076481596 0.15818287 -0.15034522
000050 fa d2 13 bb 45 67 66 3e 19 56 4d 3e 96 cf b7 3d
       -0.0022556172 0.22500332 0.20052375 0.08975141
000060 d9 79 19 3d 08 89 a9 3d d6 06 be 3a b3 26 9b 3d
       0.03746972 0.0827809 0.0014497887 0.07575741
000070 0c 65 66 3d 82 7f 0e bd 82 c5 74 3e 39 9e 2e 3e
       0.05624871 -0.03478957 0.23903468 0.17052545
000080 50 f9 8d bc 83 18 29 bd 28 10 11 3e 51 e2 0c be
       -0.017330796 -0.04128314 0.1416632 -0.13758208
000090 ea f1 30 3e d2 59 bf bd 8a 8f 4f 3e bc 2a 09 be
       0.17279783 -0.09343304 0.202696 -0.13395208
0000a0 04 8b 05 3e 08 05 30 be 54 d4 d9 bd 4f 1c 15 3e
       0.13041312 -0.1718942 -0.106362015 0.1456158
0000b0 9b b6 40 3e 56 a6 10 3d d9 0b fb bc fe 8e e6 3d
       0.18819658 0.03531488 -0.030645298 0.11257742
0000c0 da 33 b8 be e6 9e 25 be 06 e3 28 3e 1d b0 27 3e
       -0.3597706 -0.16173896 0.16492853 0.16375776
0000d0 6e e3 c7 3c a1 82 a2 3d 44 1f 7b be 44 46 85 3d
       0.02440044 0.07935072 -0.24523646 0.06507543
0000e0 27 65 4e be bd b5 eb 3c 89 07 af 3d bd d0 0b be
       -0.20155774 0.028773183 0.08546359 -0.13653846
0000f0 30 24 87 3e 72 a1 b4 bc 5c 35 55 3e e6 db 9e be
       0.26394796 -0.02204964 0.20821136 -0.31027144
000100 77 34 87 be ab ff 0f be 52 e8 dd 3d f6 bd 86 3d
       -0.26407215 -0.14062373 0.10835327 0.06579201
000110 ef ba 6d be ec d3 4a 3e ba cb 71 3e c5 34 2f 3e
       -0.23215841 0.19807404 0.23612872 0.17109974
000120 45 e1 b8 bd c1 04 75 be d5 27 97 3e d4 41 71 be
       -0.09027342 -0.23927595 0.29522577 -0.23560268
000130 3f b6 54 be ec 3c 2a bd 9f dd 87 3d 74 59 df bd
       -0.20772646 -0.041562006 0.06634068 -0.10905734
000140 bf 07 6b bd af 42 33 bc b1 a9 cc bc 4b 25 23 3e
       -0.057380434 -0.010941192 -0.024983259 0.15932195
000150 7d 45 f3 3d da 4d 98 be 82 2b b0 3d e9 13 6e 3e
       0.11878488 -0.29746896 0.086020485 0.23249783
000160 23 3b 53 3e 7c 79 f6 3c 0d a7 41 be 33 27 47 bd
       0.20628028 0.030087225 -0.18911381 -0.048621368
000170 bc 6e 35 be e9 2f d5 3d ff d7 e0 3d 47 75 1d be
       -0.17718023 0.10409529 0.10978698 -0.15376769
000180 d7 8a 6e 3d 3f 43 a7 ba 2c d7 80 be fd 2b 8e bc
       0.058237877 -0.001276113 -0.25164163 -0.01735496
000190 69 a5 bf bd 78 70 d5 3e 21 b2 8a 3d c7 a6 25 3d
       -0.09357721 0.4168737 0.06772257 0.040442254
0001a0 b3 59 15 be 6c d7 88 be d9 5c 31 be 15 7f 88 3c
       -0.14584999 -0.26726854 -0.17320575 0.01666216
0001b0 c3 18 46 3d 0a 57 37 be 52 be f0 3d 6d 8c 70 be
       0.04836346 -0.17904297 0.11755051 -0.23491068
0001c0 ae 23 76 be b1 31 56 be 14 39 3f be 46 b3 c8 bd
       -0.24037048 -0.20917393 -0.18674117 -0.09799819
0001d0 88 b2 d9 3c ba fe b0 3d bc ae a8 3c e3 35 18 be
       0.026574388 0.08642335 0.020591132 -0.14864306
0001e0 ec 4c 6c 3e fa 47 93 be e2 a1 e7 3d dc db 55 3e
       0.23076218 -0.2876585 0.113101736 0.20884651
0001f0 b8 aa 58 3e 2c 19 eb bd 22 e1 37 be 52 41 91 bd
       0.21158874 -0.114794105 -0.17956975 -0.07092537
000200 ba 77 18 3e 56 04 ea 3d ca 1a 08 3d 3a 38 f3 3c
       0.14889422 0.11426608 0.033228673 0.029689897
000210 82 18 b7 3d 43 f2 b6 3d e1 6a 76 be e8 b6 05 be
       0.08940221 0.089329265 -0.24064209 -0.13058054
000220 81 02 6b 3e 64 19 2e be e2 83 16 be 05 83 f7 3c
       0.22950174 -0.17001873 -0.14698747 0.030213842
000230 fd ea 49 3e fc ce 5e be 21 8d 30 3e cd 55 59 be
       0.19718547 -0.21758646 0.17241336 -0.21224137
000240 5a 57 b0 bc 76 4b 11 3e d3 fc df 3d f2 71 d5 3d
       -0.021526027 0.14188942 0.10936894 0.10422124
000250 c4 4e 98 be 51 34 78 be 1b 57 b7 be 6c 75 9f 3d
       -0.29747593 -0.24238707 -0.35808644 0.07786068
000260 9b 02 ad 3e b3 ce 28 3d ae c6 81 bd 17 44 c5 3d
       0.3379105 0.04121275 -0.06336723 0.09632128
000270 52 8e 85 3e e5 5b 9e 3e 7d de f0 3d 58 b2 35 be
       0.26085144 0.30929485 0.11761186 -0.17743814
000280 35 59 73 3d 91 b8 07 bd b7 6e 9b 3d 1a e6 f9 3d
       0.059411246 -0.033135 0.075894766 0.122020915
000290 96 79 4b bd 56 48 c3 bd 56 5b 7e be a1 10 ac 3e
       -0.0496765 -0.09535281 -0.2483953 0.33606437
0002a0 a6 38 5a bd c4 eb 60 bd 10 76 cd 3d 5c 83 95 3e
       -0.05327668 -0.054912344 0.10032284 0.29201782
0002b0 04 a6 d4 3c 8c a4 89 3c 41 b5 60 3e 08 7f 8a be
       0.025958069 0.016802095 0.21944143 -0.27050042
0002c0 e8 e5 0e be ce ef 93 ba 5d c1 ef 3d fa fd 9e 3d
       -0.1395489 -0.0011286677 0.11706803 0.07763286
0002d0 42 3f 0a be 91 cf d3 3e d7 4a 58 be 3d 11 2d 3c
       -0.13500693 0.41369298 -0.21122299 0.010563192
0002e0 45 d6 20 be 7a c9 14 be d8 64 fb 3d ba 72 c2 bd
       -0.15706737 -0.14529982 0.12275094 -0.094945386
0002f0 c5 14 42 3e e0 83 88 be a2 1f ae 3b d7 6f 27 3e
       0.18953235 -0.26663113 0.0053138295 0.16351257
000300 f7 5f 05 3d 57 e6 03 be 4b d1 37 bd bf d4 58 be
       0.032562222 -0.12880836 -0.04487733 -0.21174906
000310 d8 d1 ec bd 2e c0 0a 3e e7 c8 1e 3e 8e c7 5b 3e
       -0.11563462 0.13549873 0.15506326 0.21462843
000320 7d f5 e5 bd c5 8b be 3d ef 03 14 3e 86 45 21 be
       -0.11228464 0.09304003 0.14454626 -0.15749177
000330 55 f8 7a bd 7b 2e 42 3e 85 7e 54 3e cb a3 21 be
       -0.061271984 0.18963043 0.20751388 -0.15785138
000340 64 15 e1 bd f2 e4 2f 3e 94 48 ad bd c8 e8 fe bd
       -0.10990408 0.1717718 -0.08461109 -0.12446743
000350 5f a7 2a be 0e a5 b2 3d 53 e8 ae 3d 67 37 36 bc
       -0.1666541 0.08722888 0.08540406 -0.011121607
000360 9a f3 33 be 2e 11 ef 3d 8f 5a c0 bd da 8d 39 be
       -0.17573395 0.11673199 -0.09392273 -0.18120518
000370 22 60 66 3e b6 8d 1e 3e b7 37 46 be 4a f6 39 be
       0.2249761 0.15483746 -0.19357191 -0.18160358
000380 76 3a 3c 3e db ea c2 bc 5e 92 7c 3e 86 26 32 3e
       0.18381676 -0.023793628 0.2466521 0.17397508
000390 b0 0a 14 3d 1f 7c b8 3e 1b aa 35 be 88 c8 23 be
       0.036143005 0.36032197 -0.17740671 -0.15994465
0003a0 7d e3 4c be d8 a2 e3 3d 5b 66 74 3e fd 06 aa bc
       -0.20008655 0.11115044 0.2386717 -0.020755285
0003b0 33 50 c2 3d 8a 39 fc bc 76 b8 f3 bd c6 fd 70 bd
       0.09487953 -0.030789156 -0.119004175 -0.058835767
0003c0 12 e7 14 3b bd a0 6f be b6 ee 83 3e 51 fa a5 3b
       0.0022720736 -0.2340116 0.2576806 0.0050652404
0003d0 cb 11 25 be dd 86 5d 3e 9d 71 79 bd 03 80 1c 3e
       -0.16120069 0.21633478 -0.060899366 0.15283208
0003e0 6f 31 1c bd 45 16 b4 be 06 d9 85 bd 1f ad b2 bd
       -0.03813308 -0.3517324 -0.065355346 -0.087244265
0003f0 09 c7 e1 bd cd 66 5e 3d 37 9b 4d be 11 73 23 3e
       -0.11024291 0.054297257 -0.20078741 0.15961863

lstm.bias_ih_l0 f4 [64]
000000 64 87 b9 bc 39 4e c2 3d d8 36 6d 3e ff b7 14 be
       -0.022647567 0.09487576 0.23165452 -0.14523314
000010 2a 33 6a 3e 8f 50 41 3e cc 14 e1 bd 68 ae 13 be
       0.2287108 0.18878387 -0.10990295 -0.14422
000020 e3 45 4a 3e e0 ae c2 3e 7e 76 a6 bd 2c 86 d1 bd
       0.19753222 0.38024044 -0.08128069 -0.102306694
000030 6c 4d 4d be 3c 37 62 3e 60 69 61 bb c0 83 73 3e
       -0.20049065 0.22091383 -0.0034395084 0.23780727
000040 78 6e 54 3e 35 be 55 3e 3c 04 23 3e 14 a8 4f be
       0.20745265 0.2087334 0.15919584 -0.2027896
000050 c7 c4 59 be 87 53 9d bd 82 8d 1f be af 0d 6b bd
       -0.21266471 -0.07681947 -0.15581325 -0.057386097
000060 52 8b 10 3e 54 95 9b 3e a7 d4 16 3d 97 5c 4b be
       0.14115646 0.30387366 0.036823895 -0.19859539
000070 b7 75 45 be 21 97 a0 bd 2c 46 22 3e 19 18 37 bc
       -0.19283186 -0.078413256 0.15847081 -0.011175179
000080 38 11 02 3d 11 32 8a 3e 5e ba b2 bd d0 6b 66 be
       0.031754702 0.26991323 -0.08726953 -0.22502065
000090 ee 3e 3e 3e a7 32 7a bd 7f 72 57 3e c4 e9 b4 bd
       0.18578693 -0.061083462 0.2103977 -0.0883365
0000a0 66 f2 42 3e 9a b5 6a 3e fd ae f8 bb d2 61 2e bd
       0.1903778 0.22920838 -0.0075892196 -0.042573757
0000b0 49 85 26 be 89 47 51 3e c7 58 55 3e 5b 3b 56 3b
       -0.16261782 0.20437445 0.20834647 0.0032689187
0000c0 36 5a 67 be dd 64 aa bd 3e 2c 23 3e 90 c3 d8 3d
       -0.22593006 -0.083200194 0.15934846 0.105841756
0000d0 16 34 4b 3e 6f 3b 02 be aa 53 1a be 21 b1 bd bc
       0.19844088 -0.12717985 -0.15070978 -0.02315575
0000e0 67 60 0a 3e 4e fd f7 bd 79 1c 2e 3d df bd 8d 3a
       0.13513337 -0.12108861 0.042507622 0.0010814032
0000f0 2f 7e 45 3e 3d de a2 3d 2b d3 45 bd 48 9c 5b bd
       0.19286416 0.07952545 -0.04829709 -0.05361584

lstm.bias_hh_l0 f4 [64]
000000 d8 76 28 3d fa 5f 00 be 3c 8b 71 3e 97 f1 78 3e
       0.041128963 -0.12536612 0.2358827 0.24310909
000010 a1 13 ea 3d 51 9d 9d bd 37 11 09 3e 4f a7 41 3d
       0.11429525 -0.07696021 0.13385473 0.0472787
000020 66 b9 f3 3d 8c f4 03 3e 7c d4 a6 3e 01 3d bc 3d
       0.11900596 0.12886256 0.32583988 0.09191323
000030 b4 4c c8 3d 6d 58 0c bd dc fc 09 be b2 04 40 3d
       0.09780255 -0.034264017 -0.13475364 0.046879478
000040 bc 69 17 be 13 26 33 3e e2 22 77 3d f6 ea 3f 3e
       -0.14786428 0.17494993 0.060336 0.18741974
000050 39 06 73 3d bd 2c 77 3d 8c 2c 0c 3e bb da 92 bd
       0.059332106 0.0603454 0.13688868 -0.07170626
000060 d1 2e 54 3c da be 31 3e 3a 2e 0e be 14 1c 27 be
       0.012950615 0.1735796 -0.13884822 -0.16319305
000070 10 6c 5b bd 87 dc 56 be 93 85 66 3e a8 e5 c8 3d
       -0.053569853 -0.20982562 0.22511892 0.098094285
000080 e0 0e 10 3e 17 03 bd 3b 53 7b 1c 3e 18 a3 34 be
       0.14068174 0.0057681906 0.1528142 -0.1764034
000090 39 56 3b be 96 bf 0e be 9c 71 38 bc 9e 9c 2c 3e
       -0.1829461 -0.13940272 -0.011257555 0.1685662
0000a0 e7 a8 e8 bc a4 9d d4 bd fd 9b 11 be 0f a7 2d 3e
       -0.028400851 -0.1038163 -0.14219661 0.16958259
0000b0 0d da 20 3e bf 57 2f 3e 89 93 09 3d b2 cd 80 3d
       0.1570818 0.17123316 0.033587966 0.06289233
0000c0 f3 03 2a be 89 5a 14 3e 3c 39 52 be a6 c5 7e 3e
       -0.16603069 0.14487661 -0.20529646 0.24880084
0000d0 e3 2c 5d 3e ec 37 ff 3d c9 70 94 bd 86 72 85 3e
       0.21599154 0.12461838 -0.072480746 0.26063937
0000e0 83 5d 33 3e b1 47 0c bd 55 4c 9d bd 4d 82 64 3e
       0.1751614 -0.034248058 -0.07680575 0.22315331
0000f0 20 31 d3 bc 9e 0d 29 be ba e3 28 be e1 2d 97 bd
       -0.02578026 -0.16509101 -0.16493121 -0.073817976

lstm.weight_ih_l1 f4 [64, 16]
000000 8c 21 e2 bd a1 cd e1 bd 66 8f 62 3e 0d e3 f4 bd
       -0.11041555 -0.11025549 0.22125015 -0.11957369
000010 b4 33 88 bd c2 11 9a bd 83 df 05 be b7 d4 db bd
       -0.066504866 -0.07522918 -0.13073544 -0.107339315
000020 6d 3c 1c be 62 38 91 be 4a 7c 5a 3e dc ff 7a 3e
       -0.15257426 -0.2836333 0.21336475 0.24511665
000030 bd da 10 bc 6d cf 07 3e 69 99 5b be 99 69 bf bd
       -0.008841214 0.1326272 -0.2144524 -0.09346313
000040 14 72 bb bc 89 01 34 be 6c 70 85 3e f4 17 3b 3e
       -0.022881545 -0.1757871 0.26062334 0.18270856
000050 f8 6f 21 3d cf 94 b0 bc 50 9a 4a 3e ed 6a 02 be
       0.039413422 -0.021555332 0.19785428 -0.12736101
000060 21 5d 06 3e f9 f3 e1 bd 32 91 2a be 34 03 27 be
       0.13121463 -0.11032862 -0.1665695 -0.16309816
000070 9e db 74 3d e6 9f 3c 3e 5e 74 5a 3e e5 b4 3c be
       0.059779756 0.18420371 0.21333453 -0.18428381
000080 ab 08 4a be ab e5 98 bd 28 6e 20 be 36 bd c8 bd
       -0.19729869 -0.07465681 -0.15667021 -0.09801714
000090 c5 03 91 be 03 cd 68 3e 01 c3 72 3c 72 2e 22 3d
       -0.28323188 0.22734456 0.014817 0.039595075
0000a0 a8 10 44 be 88 5e dd 3d d3 7d 83 bc c4 c2 12 3e
       -0.19146979 0.10809046 -0.016051209 0.1433211
0000b0 e0 29 1a bd 12 8b 00 bd 38 88 82 3e ac 84 71 bd
       -0.03763759 -0.031382628 0.25494552 -0.058964416
0000c0 25 c3 11 be c8 3d 97 3e 24 18 1a be 8e b1 0a 3e
       -0.14234598 0.29539323 -0.15048271 0.13544294
0000d0 57 8a d5 bc d7 3a 5b 3e 17 60 48 be 53 eb 96 3e
       -0.026066942 0.21409164 -0.19567905 0.29476413
0000e0 7e c4 70 bc 08 31 9c bd 64 01 1f 3d 63 ec 9c bd
       -0.014695285 -0.076265395 0.038819686 -0.07662275
0000f0 1d 12 35 3e 19 03 d2 3d ae 4e 91 3e 25 21 c7 3c
       0.17682691 0.10254497 0.2838034 0.024307797
000100 a1 4e 64 3d b8 0c 80 3e 60 f6 9a bd 5e 9e b2 3c
       0.05573905 0.25009704 -0.075665236 0.021804031
000110 d4 cd 8f be 11 23 cc 3e 55 36 8d be 4e 4f 27 3e
       -0.28086722 0.39870504 -0.27580515 0.16338846
000120 d5 0a 0d 3e 2e 87 cc be ce ac 71 3e c3 2e 6f 3e
       0.13773663 -0.39946884 0.23601076 0.23357682
000130 fb 61 0f be 84 21 f3 bd 72 9d 8b 3e 91 4a 5f be
       -0.1400222 -0.11871627 0.2726856 -0.21805789
000140 d4 9c 4b be 9c be 8a 3e f4 b0 e3 3d e0 4a 4c be
       -0.19884044 0.27098548 0.111177355 -0.19950438
000150 f9 8e 47 3d 6a cd d7 3d b3 98 3e be 06 8d 82 3e
       0.048720334 0.105372265 -0.18612938 0.25498217
000160 82 e8 3e 3e 73 71 64 be cb 44 cd 3d 2d 92 3b be
       0.18643382 -0.22308902 0.10022887 -0.1831748
000170 fd 10 49 be 2d 03 cb bc a3 5a 5c 3e 95 72 80 3d
       -0.19635387 -0.024781788 0.2151895 0.06271855
000180 7f 99 0e be 54 93 e1 3c c3 63 29 3e bb 44 10 3e
       -0.13925742 0.027536072 0.16541962 0.14088719
000190 09 2a b1 3d 90 ce 0e be a5 e3 92 be a1 7a d9 bd
       0.08650596 -0.13945985 -0.28689304 -0.10619093
0001a0 19 14 14 3e 18 2f d7 b9 d1 96 9b 3e fa 4d 8f 3d
       0.14460792 -0.00041043083 0.303885 0.06997295
0001b0 36 fa 6c 3c 61 9f e4 3d 99 4b 50 bc f9 26 32 3d
       0.014463952 0.111632116 -0.012713336 0.0434942
0001c0 37 40 99 be 0c a9 67 be 3e 04 02 3e fd e0 42 3e
       -0.29931805 -0.2262308 0.12696931 0.19031139
0001d0 80 6d 37 be ec 61 8e 3d 2b e0 38 3e 2c 87 28 3c
       -0.17912865 0.06952271 0.18054263 0.010286134
0001e0 84 05 33 3e 5b 56 6d 3d d4 9a 4f 3e 78 6b f8 bc
       0.17482573 0.057943683 0.20273906 -0.030324683
0001f0 76 21 4a 3e e6 a0 36 3e 6f d9 f2 3d 2b a6 b9 3d
       0.19739327 0.17834815 0.118578784 0.09064897
000200 de 44 4b be 00 ee 43 3e c7 72 82 bd f6 2d f9 bd
       -0.1985049 0.19133759 -0.06369548 -0.121669695
000210 d1 00 86 be 6f 54 09 3e 06 53 b2 3d 2d 8c 62 bd
       -0.26172498 0.13411115 0.08707242 -0.055309463
000220 ed a4 04 bd 3e d3 7c be 1e 85 40 3e c2 90 02 bd
       -0.032383848 -0.24689957 0.1880078 -0.031876333
000230 e1 d6 b2 bd c2 4c 54 bc 05 1d 20 3e 99 64 0b be
       -0.08732391 -0.012957754 0.1563607 -0.13612594
000240 76 0f 91 be 83 49 5c be 71 d8 22 3e 25 2a 63 be
       -0.28332108 -0.21512417 0.15902878 -0.22184046
000250 db 18 8b be aa 42 d7 bc ba 55 dc 3d 3e eb 2e be
       -0.271674 -0.026276905 0.107585385 -0.17081925
000260 d2 4a 63 3e a2 cc 85 be c6 f9 04 3c 63 ad fe 3c
       0.2219651 -0.26132685 0.008116191 0.031088537
000270 1f b6 44 be 82 61 ca 3b 85 a3 94 3d 83 f7 ca bd
       -0.19210099 0.0061761746 0.072577514 -0.0991049
000280 ed 4f 68 3e b3 a1 ee 3d c1 ac e3 bc 69 d6 03 3e
       0.2268674 0.116519354 -0.027792336 0.1287476
000290 3a 80 46 bd b9 53 fe 3d 8e c0 60 3e 74 ef 12 be
       -0.04846213 0.124183126 0.21948454 -0.14349157
0002a0 e0 f2 1f 3e 4f 59 37 be cc 23 a7 3d 70 49 57 3d
       0.15619993 -0.17905162 0.081611246 0.05256027
0002b0 04 e7 f6 bc b2 6b 86 be e7 14 94 3c 3e 94 19 3e
       -0.030139454 -0.2625404 0.018076373 0.14997956
0002c0 49 fa 79 be 1e ce 4d be ab 70 be 3d 78 e4 82 be
       -0.24411882 -0.20098159 0.092988335 -0.25564933
0002d0 3b 3c 88 3d 64 93 81 bd 7e 8b 81 be 51 2e a2 bd
       0.06652113 -0.06326941 -0.25301737 -0.079189904
0002e0 22 69 f5 bc 62 11 87 be 56 b2 b3 3e 78 32 82 3e
       -0.029957358 -0.2638045 0.35096997 0.2542913
0002f0 a7 a7 91 bd 54 61 9c 3d f6 7c 11 be 1d a5 e3 bc
       -0.07112055 0.07635751 -0.14207825 -0.027788693
000300 f4 ba 97 bd d3 79 15 be d6 f7 a7 bc 89 9f 76 be
       -0.07408705 -0.14597254 -0.02050392 -0.24084295
000310 15 fe 02 be 3b 8b ad 3e 5a 6d 0f 3d a2 6e c6 bd
       -0.12792237 0.33895287 0.035016395 -0.0968907
000320 fb d7 86 3e 07 7c 38 be ff 1b 67 bd 4d c6 43 3d
       0.26336655 -0.18016063 -0.056423184 0.047796536
000330 8e 95 2a 3b c4 7b 11 3e 04 86 83 3e b6 5f 31 3e
       0.0026029083 0.14207369 0.25688183 0.17321667
000340 cc 6b b9 bd f2 25 bb 3d f1 5a 9b 3e e2 48 02 3e
       -0.09053764 0.09138097 0.3034282 0.12723115
000350 b1 a4 29 3e d4 c4 a8 be 0d c1 68 3d 28 46 3b 3e
       0.16566731 -0.32962668 0.056824733 0.18288481
000360 7f 24 0b bd bb 53 d4 bd 4b 21 f8 bc 54 eb 0c bd
       -0.033970352 -0.10367533 -0.030289313 -0.034404114
000370 97 34 79 3e 1f 3d a6 bc bf 6f 17 be be ad 34 be
       0.24336468 -0.020292817 -0.14788722 -0.17644402
000380 7a 74 4c 3d 24 96 c9 3d ce 57 c7 bd 67 aa 20 3e
       0.04991577 0.0984309 -0.09733544 0.15690003
000390 70 94 b4 3c 35 eb 6f 3e 86 50 8f be 47 ab 07 bd
       0.022043437 0.23429568 -0.27991122 -0.033122327
0003a0 2e e7 fd 3d a8 59 9d be 7c 6e 74 3e bd f9 53 bc
       0.1239761 -0.30732465 0.23870271 -0.01293796
0003b0 32 25 89 bd 76 a7 b9 bd ae 5b 54 bd a3 dc 26 3e
       -0.066965476 -0.09065144 -0.051845245 0.16295104
0003c0 fe a5 80 be 1d ce e0 3c 5b 69 2b be d2 7a 3f 3e
       -0.25126642 0.027442032 -0.16739409 0.18699196
0003d0 9e 30 38 3e f4 09 b2 3d c0 f1 d6 bc 25 40 7a 3e
       0.17987296 0.08693305 -0.026238322 0.24438532
0003e0 6d 25 dd 3d 07 71 87 be 7f b1 21 bd 75 40 01 be
       0.10798154 -0.2645342 -0.039475914 -0.12622245
0003f0 af 81 5b ba b1 80 e4 bd ef 97 c4 3d a0 bd 31 bd
       -0.00083735114 -0.111573584 0.095992915 -0.04339373

lstm.weight_hh_l1 f4 [64, 16]
000000 7e 59 69 be 89 52 d9 bd 06 3b e4 3c 22 ad fa 3d
       -0.22788045 -0.106114455 0.027860176 0.12240054
000010 54 9a 89 be 76 db a8 bd 7c a7 1f be 55 fa 2e be
       -0.26875556 -0.08244984 -0.15591234 -0.17087682
000020 77 10 ca bd 8e 38 87 bd a9 4e cd bd cc 94 b1 bd
       -0.09866422 -0.06602584 -0.10024769 -0.08670959
000030 ff ad 83 3e 06 3c 1e 3e bb 97 30 bd 6a d5 5d be
       0.25718686 0.15452585 -0.04311345 -0.21663442
000040 bd 87 31 3e b3 56 92 bd f1 5a 1a 3e d5 cb fe bd
       0.17336936 -0.07145443 0.15073754 -0.124412216
000050 cf 84 97 3d a7 28 22 3e a4 b6 6c be da cb 7e bd
       0.07398378 0.1583582 -0.23116547 -0.062206127
000060 b5 96 71 bd 31 02 5a bd e4 5f 76 bd 0d 98 4d 3e
       -0.058981616 -0.053224746 -0.060150042 0.20077534
000070 93 3b 23 be 9d 29 12 bd 10 30 0e 3e e9 c5 cc 3d
       -0.15940695 -0.035684217 0.13885522 0.09998686
000080 35 01 1b 3e ef 51 2a be 0e 48 8d 3d 64 b9 5e be
       0.15137179 -0.16632818 0.06898509 -0.21750408
000090 39 d1 42 3e aa 6e a5 3d 6a ee 43 be 59 57 19 be
       0.19025125 0.08077748 -0.19133916 -0.14974727
0000a0 84 48 68 3e 50 ce b1 3c 4d 3f 83 be 9e 19 70 3e
       0.22683913 0.021704823 -0.25634232 0.23447272
0000b0 a2 0f 2c be 5c b5 97 be 3b 20 41 3e f1 45 c5 bd
       -0.16802838 -0.29630554 0.18859951 -0.09632481
0000c0 7f c4 d8 bd f6 61 a9 bb 9f 23 94 bd 5b 43 d5 3b
       -0.10584354 -0.0051691486 -0.07233357 0.0065082735
0000d0 67 10 5e be 5b 50 b6 bd 74 d1 39 be fc e8 11 be
       -0.21685944 -0.08902045 -0.18146306 -0.14249033
0000e0 1e d5 b8 bd 81 2d 3e be e9 3c 2c 3e a5 18 60 3e
       -0.09025024 -0.18572046 0.1682011 0.21884401
0000f0 96 e4 a5 3c 41 52 52 3d c9 03 89 be 43 f4 d3 bd
       0.0202506 0.051347975 -0.267607 -0.103493236
000100 9e 75 06 be b6 27 36 3e 5e e6 04 bd fe 4a 09 3e
       -0.13130805 0.17788586 -0.032446258 0.13407513
000110 67 ea 80 be c7 20 16 be 57 d1 30 be dc 21 37 be
       -0.25178835 -0.14660941 -0.17267357 -0.1788401
000120 d0 b0 f8 3c 2a 70 5d 3d d3 07 67 bd 2b 96 f8 bd
       0.030357748 0.054062046 -0.056403946 -0.12138017
000130 dd 7e 70 be 94 3f 8f ba 6a 10 a0 3b 7c 07 c2 3d
       -0.23485895 -0.0010928982 0.004884769 0.09474084
000140 d4 06 5d bd a6 7f 28 bd e2 c2 4f be 3f 28 3b be
       -0.05396159 -0.04113736 -0.20289186 -0.18277071
000150 87 57 34 3e 5a 41 c2 3d 4e c1 ac bc 32 8d a6 bd
       0.17611514 0.09485121 -0.021088269 -0.081323996
000160 d4 b4 fc bd 30 bd 5f 3e e0 c6 43 be 78 d8 33 3e
       -0.12339178 0.21849513 -0.19118834 0.17563045
000170 30 9b 41 be 15 aa 76 be 98 cd fe 3d 0a 53 03 3e
       -0.18906856 -0.24088319 0.12441558 0.12824646
000180 db 4b 59 3d b2 7f 95 bd ab 91 4d bd 95 65 02 3e
       0.053050857 -0.072997466 -0.050187748 0.12734063
000190 b6 5a d0 bd a2 23 54 3e af af 16 bd 28 6a 78 be
       -0.10173552 0.20716718 -0.03678864 -0.24259245
0001a0 42 b3 cf bc d6 f4 6a bd e2 83 b8 3d cf bf 88 3d
       -0.025354031 -0.0573624 0.0900953 0.066772096
0001b0 03 4d 44 be bf a2 d4 bc f8 01 36 3e d7 c6 86 3d
       -0.19170003 -0.02595651 0.17774189 0.065808944
0001c0 bd e6 b0 bd 12 40 af 3c d3 66 0f 3e c4 37 b0 bd
       -0.0863776 0.021392856 0.14004068 -0.086043864
0001d0 3d 3d e9 3d de 02 2e 3d b9 3e 40 be 90 2d 4a be
       0.113886334 0.042483203 -0.18773927 -0.19743943
0001e0 a1 61 af bd f9 17 5a be ed 4e 2a 3e 71 b9 cf bc
       -0.08563543 -0.21298207 0.1663167 -0.02535698
0001f0 b5 40 6a 3e 57 0c d9 3d f4 de f0 3d ad 9f ed 3d
       0.22876246 0.10598057 0.11761275 0.11602721
000200 2b 63 4e be f4 71 2a be 30 6c f0 bd 38 a8 b9 bc
       -0.20155017 -0.16645032 -0.11739385 -0.02266322
000210 4b 29 34 3e 7f 9f 42 3e 53 e4 8e be b7 07 04 be
       0.17593877 0.19006155 -0.27908573 -0.12893568
000220 97 cc 1a 3e a3 8c 6c 3e cd bb 2b 3e 95 ac 0d be
       0.15117107 0.23100524 0.16770859 -0.13835366
000230 cd 2c 3e be 43 0e ef bd 59 36 0e be 67 15 19 3e
       -0.18571778 -0.11672642 -0.1388792 0.1494957
000240 f5 0f 30 3e 25 f7 d5 3c 51 8a 71 bd a6 45 cf bc
       0.17193587 0.026118824 -0.0589698 -0.025301766
000250 e8 fa 9d 3d 49 50 e8 bd fd 0b ce bd 34 af 06 be
       0.07713872 -0.11343438 -0.1006088 -0.13152772
000260 01 85 04 3c 6c 24 27 3d 95 b3 f3 3d 4e 88 7f bd
       0.008088351 0.04080622 0.11899487 -0.06238585
000270 ad 03 87 3b 12 92 2a 3e 4d e0 5a be 49 41 b1 3d
       0.0041203112 0.16657284 -0.21374626 0.0865503
000280 09 bf a5 bd 28 f0 31 be 8d 9e f1 bd 6f 53 0e be
       -0.08093078 -0.17376769 -0.11797819 -0.13899015
000290 c2 7f fa bd 06 be 26 3e 16 41 4f be 23 00 af bd
       -0.12231399 0.16283426 -0.20239672 -0.08544948
0002a0 3f 99 e1 3d 95 79 04 bd 19 5b 16 bc 33 7a 98 3d
       0.110155575 -0.032342512 -0.009176993 0.07445183
0002b0 f5 bf 74 be d5 b9 8b 3e c8 0f 3d be 89 00 3b 3e
       -0.23901351 0.27290216 -0.18463051 0.18261923
0002c0 91 f6 6c 3e 0e 53 b2 3d f6 03 f2 3d db c5 da bd
       0.23140933 0.08707248 0.11817162 -0.10682269
0002d0 7b 78 38 3e 79 30 29 bd 36 b0 22 3e d3 6c 0e 3e
       0.1801471 -0.041305993 0.15887532 0.139087
0002e0 0a 07 57 3e 00 f1 80 3e 17 f4 61 bc ec 6e 26 be
       0.20998779 0.25183868 -0.013791106 -0.16253251
0002f0 47 af b5 bd 34 18 9c 3c eb 50 8a 3d cd 41 3f be
       -0.08871322 0.01905451 0.06753715 -0.18677445
000300 0d 57 e3 3d a2 9d 0d 3d 1f 77 53 3e 0d 0c 54 be
       0.11100588 0.03457416 0.2065091 -0.20707722
000310 87 c6 34 be 3c d1 c8 3c 64 b4 5d be 1b 63 30 3e
       -0.17653857 0.024513833 -0.21650845 0.17225306
000320 28 ad 5b be cf b5 19 3d b4 e3 4c 3e 75 2d e9 bd
       -0.21452773 0.0375269 0.20008737 -0.11385623
000330 29 4c 29 3d ea 58 24 be a1 23 15 be 9d 84 3d be
       0.041332398 -0.16049543 -0.14564373 -0.18507619
000340 63 08 14 3d 18 a0 20 3d 88 12 62 bd 31 ad 27 3c
       0.03614081 0.039215177 -0.055193454 0.010234163
000350 87 27 ee 3d 4c 19 1c 3e ec 78 3f 3e bb ba e5 3d
       0.11628633 0.15244025 0.18698472 0.11217257
000360 b9 11 81 3e 41 5b 24 3e bd 15 4d be 66 e2 e2 3d
       0.25208834 0.16050436 -0.20027824 0.11078338
000370 e6 42 13 bd c9 66 21 3d 5c bc ab bd 31 24 01 be
       -0.03595247 0.039404664 -0.08385536 -0.12611462
000380 08 fb 3d 3e de 42 35 3e 8b 75 13 bd 3d 02 93 be
       0.18552792 0.17701289 -0.03600077 -0.28712645
000390 aa 5f 1f 3e 43 51 95 bd 02 ab 1f be cb 06 8c 3d
       0.15563837 -0.0729089 -0.15592578 0.06837233
0003a0 66 4e 97 3d 98 15 20 3d b9 fd a1 3d 51 dd 61 bd
       0.07388 0.039083093 0.07909722 -0.055142704
0003b0 92 5c 71 3d 62 29 24 3d 89 45 8b 3d 99 c9 9e bd
       0.058926173 0.04007853 0.06800372 -0.077532955
0003c0 a6 0e fd 3d 19 ac 83 3e 9e dc 25 be 79 82 19 be
       0.123563096 0.25717238 -0.1619744 -0.14991178
0003d0 4d e7 31 be d7 86 08 be 2a d8 18 be 96 92 dd bc
       -0.1737339 -0.13332687 -0.1492621 -0.027047437
0003e0 0f 52 4d 3e 0e 56 11 3e 9b a7 ea bd 04 e0 1b be
       0.20050834 0.14192984 -0.114577495 -0.15222174
0003f0 3e f5 fb 3d 4d d6 63 be 22 99 98 3d eb cb 41 3d
       0.123026356 -0.22249718 0.07451083 0.047313612

lstm.bias_ih_l1 f4 [64]
000000 3a df 3b 3e 05 45 d4 bd 42 1d 2c be a5 f2 93 bd
       0.18346873 -0.10364727 -0.16808036 -0.07224015
000010 ec 21 cc 3d d1 56 14 bd 83 eb 8b bd ec 0c 13 3e
       0.099674076 -0.036215607 -0.0683203 0.14360398
000020 01 f9 db 3d 1c 0e 47 be fd 26 93 be 49 65 6e 3e
       0.10740853 -0.19438976 -0.28740683 0.23280825
000030 ad 93 2a 39 b5 03 3c be 17 17 5d bd da f3 fb bd
       0.00016267477 -0.18360789 -0.0539771 -0.1230237
000040 8e 85 fe bd d7 60 b3 bd bd 35 d7 3d a0 2d 96 bd
       -0.12427817 -0.08758705 0.10508297 -0.07332921
000050 aa 78 88 bd ad 3d 8a 3e 0b 1e 82 be aa f5 4c be
       -0.0666364 0.2700018 -0.25413546 -0.20015588
000060 5a 64 85 3e 0b 9c 5e 3e 12 ca a3 bd 6a 6f 5f be
       0.26053125 0.21739213 -0.07997526 -0.21819845
000070 ec c5 53 3e fe 0d be bc 4c a1 92 bd 22 55 0b be
       0.2068097 -0.023200031 -0.07159671 -0.13606694
000080 37 63 a2 bc 40 a0 97 3d 82 f3 71 3e 03 d4 04 bd
       -0.0198227 0.07403612 0.23628047 -0.032428753
000090 56 ba e6 3c d7 39 fa 3d e0 76 76 bd a3 f5 3c be
       0.028165024 0.12218063 -0.06017196 -0.18453078
0000a0 9d 11 0c 3e 42 6f 21 3d 6d 0a 84 3c 26 3d e1 3d
       0.13678594 0.039412744 0.016118253 0.10997991
0000b0 c4 84 36 3e b7 54 5f bd 7e c9 ff 3d ff fc 2b 3e
       0.17824084 -0.05452415 0.124896035 0.16795729
0000c0 fb 29 28 be 60 ce 21 be 11 57 7a be 5d b4 07 be
       -0.16422264 -0.15801382 -0.24447276 -0.13252397
0000d0 bf f8 19 3e c0 dd 8f 3e dd 06 48 be 4d f3 a6 bd
       0.15036295 0.2809887 -0.19533868 -0.08151875
0000e0 a5 bb b0 3d 3a 4d 07 3e 81 a5 86 be d5 cf 83 3e
       0.0862954 0.13213053 -0.26298144 0.257445
0000f0 56 4e 98 bb bf 39 43 3e 8c b8 0e 3e 73 f0 3b 3c
       -0.0046480102 0.19064997 0.13937587 0.011470902

lstm.bias_hh_l1 f4 [64]
000000 00 cf b5 3d e3 ae 8b 3e 54 8a 50 be c7 8d da 3d
       0.08877373 0.27281865 -0.20365268 0.10671573
000010 07 99 7a be a6 28 3a 3e 3c a5 17 3d b5 0e 15 be
       -0.24472438 0.18179569 0.037022814 -0.14556392
000020 75 b2 8d 3e f8 48 cf 3d 34 85 22 be 4c cd 3d be
       0.27675214 0.101213396 -0.15871125 -0.18535346
000030 93 ae 5e 3e 7a 1f a4 bd 87 2c 17 be 04 3b 4b be
       0.21746282 -0.08013816 -0.1476308 -0.19846731
000040 94 7e 0d 3e bf 4f e4 bd 9a ab 36 3e 1c 2a ea bd
       0.13817817 -0.11148023 0.17838898 -0.11433813
000050 4b 6f d4 3d 3d 2a d4 bd 89 32 91 3d 3e 3e 35 3e
       0.1037279 -0.10359619 0.07089717 0.17699525
000060 c6 e1 8d 3e 6b 9b 80 3e 64 8f 96 38 49 90 0b 3d
       0.27711314 0.25118575 7.179266e-05 0.034073148
000070 52 2a 8e 3e 13 00 be bd ad d6 78 3e fc 46 57 be
       0.27766663 -0.09277358 0.24300642 -0.21023172
000080 1e 2f 83 3e b8 92 f0 3c 93 04 35 3e 92 3f 45 3e
       0.25621885 0.029366836 0.17677526 0.19262531
000090 d8 cc 43 be 02 f4 2f 3c 51 b7 4f bd c3 6a 15 3e
       -0.1912111 0.010739328 -0.050711934 0.14591508
0000a0 d0 52 07 3e 6e cd 14 3e bd 58 61 bd 60 0a d6 3d
       0.13215184 0.1453149 -0.055016268 0.104511976
0000b0 02 e1 59 3e 2f c4 c3 bc 6e 64 af bd c0 c1 54 be
       0.2127724 -0.023897259 -0.08564077 -0.20777035
0000c0 42 ed 22 3e 41 ca 7c 3e ac 7d 03 3e 42 da 0c 3e
       0.15910819 0.24686529 0.12840909 0.13755134
0000d0 d5 8c 19 3e 2a c5 48 3e 45 96 1d be c5 f2 15 ba
       0.1499513 0.19606462 -0.15389355 -0.00057200744
0000e0 2a 78 a6 3d 7a 35 3c be c0 90 ca 3b 6d fd 63 3d
       0.08128388 -0.18379775 0.0061818063 0.055661608
0000f0 21 8b c3 3c 41 6b b0 bc 2e cf 43 3e 44 f5 27 be
       0.023870053 -0.021535518 0.19122002 -0.16402155

lstm.weight_ih_l2 f4 [64, 16]
000000 cd 44 be 3d c9 0a f4 bd 06 2c 67 3c 11 9b bb bc
       0.092904665 -0.119161196 0.014109617 -0.02290109
000010 d3 03 be bd ba 70 cc bd 2d 55 0a 3e 61 7a 3f bc
       -0.09278073 -0.099824384 0.13509054 -0.011686892
000020 cb 95 1b 3c 81 ca 8d 3e 97 8b 9c bd 00 b7 6e 3e
       0.009496163 0.2769356 -0.07643812 0.23311996
000030 29 e5 05 3e 9a 7d 0b be a6 99 a2 3d 2c 5a 46 3e
       0.13075699 -0.13622132 0.07939462 0.19370335
000040 83 37 5c bd 86 e2 d9 3d ba 99 e1 3d 45 4a 43 be
       -0.053763878 0.10638909 0.11015649 -0.190713
000050 ef c4 3d 3e 35 94 89 bc c8 29 1b 3e c1 da e7 3d
       0.18532155 -0.016794303 0.15152657 0.11321021
000060 65 31 d9 3d 1b 7c 3c 3e 7f 21 e7 3d 2d e4 68 3d
       0.106051244 0.18406717 0.11285686 0.05685823
000070 16 36 5d be 23 6f e3 bc e1 d7 50 3e 3d 52 c0 3c
       -0.21602663 -0.027762955 0.20394851 0.023476714
000080 a9 14 24 3e a3 38 31 be 7c 1c c2 bd 60 b3 8d be
       0.16023506 -0.17306761 -0.09478089 -0.27675915
000090 dc d8 be bc fa 76 8b bd 16 6b 3e be bb e5 2e 3e
       -0.023296766 -0.06809802 -0.18595538 0.17079823
0000a0 6d 57 9b 3e 47 cb 25 be 3d 70 0b 3e b4 07 2e be
       0.30340138 -0.16190825 0.13617034 -0.16995126
0000b0 cb e6 ff bd 6d e6 89 be a0 a6 2f be c4 a7 37 3e
       -0.12495192 -0.26933613 -0.17153406 0.17935091
0000c0 51 02 04 be cf 4c 20 be 85 9d 68 3c cf a1 43 bd
       -0.12891509 -0.156543 0.014197712 -0.047761735
0000d0 0d 37 7b be 10 de 79 3d 3b 70 3b 3e 52 c6 94 3d
       -0.24532719 0.06100279 0.18304531 0.07264389
0000e0 91 4a e8 bd 14 b6 98 3c a5 34 2c be d7 36 81 bd
       -0.113423474 0.01864151 -0.16816957 -0.06309288
0000f0 35 ed 8f 3e f3 c5 bd bd 27 9f 24 3e be d4 32 bd
       0.28110662 -0.092662714 0.16076337 -0.043659918
000100 d2 ab 38 be c1 e1 6b 3e 5e 24 11 3d 79 78 85 3d
       -0.18034294 0.23035337 0.035435073 0.06517119
000110 29 1a 25 3e 07 97 de bd e4 8f 59 3d 10 b1 65 be
       0.1612326 -0.1086865 0.05311574 -0.22430825
000120 c2 cf 55 3e c4 36 8b 3e 4c 62 1f be c4 3b b8 bd
       0.20880035 0.2719022 -0.15564841 -0.089957744
000130 76 25 52 3e 3a 2b a1 be 0f ee 06 3e b8 bf 5e be
       0.20522103 -0.31478292 0.1317675 -0.21752822
000140 55 39 53 bd 56 49 2a be f4 b9 32 3e 73 55 2f bd
       -0.051568348 -0.16629538 0.17453748 -0.0428061
000150 ff 0b a2 3d e9 9a e9 3c 4c 47 ef bd 76 36 28 be
       0.07912444 0.02851625 -0.11683521 -0.16427025
000160 3a a8 9a 3e 3d 92 73 3e 72 09 5a 3d d5 ff e2 bc
       0.30206472 0.23786254 0.053231664 -0.02770988
000170 30 cd ac 3e ba f2 b8 3e e7 51 ca 3d 6c 16 5d 3e
       0.33750296 0.36122686 0.09878903 0.21590585
000180 10 11 f5 bd 37 9a 30 bd 75 09 18 be cb 6d 9b bd
       -0.11966145 -0.04311582 -0.14847358 -0.07589301
000190 72 92 7c 3e e0 e1 5f 3e b1 25 de 3b f4 07 3e 3e
       0.2466524 0.21863508 0.0067793955 0.18557721
0001a0 c0 24 e6 3c a9 d7 5d 3d 26 da 73 be e4 7a eb 3d
       0.028093696 0.054160748 -0.23813686 0.11498049
0001b0 ae a2 98 3d e6 85 92 3d fe f8 1b 3e c9 66 4e 3e
       0.07452904 0.07154445 0.15231702 0.20156397
0001c0 c9 92 07 be d5 a0 52 be 16 9c 5d 3e 04 43 98 3d
       -0.13239588 -0.20569165 0.21641573 0.07434657
0001d0 f0 bb 85 3d 32 18 1e be fa 1e eb bc bd 66 b7 bd
       0.06529987 -0.15438917 -0.028701294 -0.08955143
0001e0 4f 00 59 3e c7 5e 0b 3e dc c3 a8 bd 6e 4d 81 3e
       0.21191524 0.13610373 -0.08240482 0.25254387
0001f0 ff af 62 3e fe aa 08 3e 26 22 51 be 12 07 d1 3d
       0.2213745 0.13346478 -0.20423183 0.10206427
000200 03 25 83 3e 91 a0 a9 3d e4 33 2c 3e 11 18 c9 3d
       0.25614175 0.08282579 0.1681667 0.098190434
000210 0a ce 43 be 7d ca e3 3d 77 a9 c0 bc c5 c6 55 be
       -0.19121566 0.11122606 -0.023518307 -0.20876606
000220 00 60 37 3e 9a 33 33 be e8 6a 8f bd c9 33 52 bd
       0.17907715 -0.17500153 -0.070028126 -0.051318917
000230 84 08 dc 3d 86 57 50 bc 7b a4 a3 bc 14 b2 69 be
       0.10743812 -0.01271618 -0.019975891 -0.22821838
000240 a1 cf 06 3e 95 58 b9 bd b3 e2 c4 3d a9 fc b8 be
       0.13165142 -0.09050099 0.09613552 -0.36130264
000250 92 d0 82 be 56 43 03 3e 0b 6f 68 be 56 4c 61 be
       -0.25549752 0.12818655 -0.2269861 -0.22001776
000260 88 53 da 3d c2 65 b3 bc ec fe 09 be 02 ac 79 3d
       0.106604636 -0.021899108 -0.13476151 0.060955055
000270 eb 3e 81 3d b2 b0 28 3d de 0b fa 3d 81 d0 83 be
       0.06310829 0.041184135 0.12209295 -0.25745013
000280 cd 1b 80 3e 21 35 c7 bd 61 88 8b 3e 01 e1 48 be
       0.2502121 -0.097269304 0.27252486 -0.19617082
000290 9a 91 cd 3b ae 8a fd bc 0c 3e 0f 3d a2 f7 7d be
       0.0062734606 -0.030949917 0.034971282 -0.24801496
0002a0 5d 22 ac 3a 23 15 85 bd 2b 4d 9c bb 62 6e 98 3d
       0.00131328 -0.06498172 -0.0047699413 0.07442929
0002b0 55 60 2e be 1c 0a e6 3d a4 d6 cc 3d b5 3d c1 bb
       -0.17028935 0.11232397 0.10001877 -0.0058972486
0002c0 f8 a8 0d bc e7 05 1f 3d 5f 83 1b 3d 66 ad 1e be
       -0.008646242 0.03882399 0.037967082 -0.15495834
0002d0 d3 60 95 3d c8 a7 04 be 92 e7 1d 3e fe 5e be 3d
       0.072938584 -0.12954628 0.15420368 0.09295462
0002e0 42 66 18 bd 43 18 8e bd 94 5c 49 be 21 c2 2c 3e
       -0.037206896 -0.06938221 -0.19664222 0.1687093
0002f0 df ac 67 3e 14 c5 89 bd c7 b7 bc 3c 4f d3 11 3d
       0.22624539 -0.06727043 0.02303685 0.03560191
000300 8c 9c 97 3e 68 f2 34 3e ce 89 8f bd 4d cb 99 3c
       0.29611623 0.17670596 -0.07008706 0.0187737
000310 0f a7 0e 3e 83 23 f9 bd 10 1d dc bd 2a 94 4b be
       0.13930915 -0.121649764 -0.10747731 -0.19880739
000320 6c 34 ab bb 72 b5 20 3e f1 c5 aa 3c 78 8d 48 be
       -0.005224755 0.15694216 0.020846339 -0.19585216
000330 c6 a3 23 3e 42 45 1d bd 9f 18 0d 3e 45 ff e8 bd
       0.15980443 -0.038396128 0.13778923 -0.11376814
000340 68 57 0d 3e d1 2e c0 3c 21 f3 ee bd ce 02 5f be
       0.13802874 0.023459824 -0.11667467 -0.21778414
000350 b7 7d 50 be 12 09 36 3e e8 71 86 3d f7 1a b8 3c
       -0.20360456 0.17776898 0.06564695 0.022473795
000360 66 99 04 3e 49 c0 69 be 60 e8 65 3e 91 eb 36 be
       0.12949142 -0.22827257 0.22451925 -0.17863299
000370 85 63 1c 3d f3 ab b7 bd 03 dd 52 3e 8b 60 2d be
       0.038180847 -0.089683436 0.20592122 -0.1693136
000380 66 b9 b0 bd d0 58 65 3e 57 02 43 be cd 1e ee bd
       -0.08629112 0.2239716 -0.19043861 -0.116269685
000390 9f 86 f3 bd dc 12 59 3e 02 f3 13 be c3 b4 e7 bd
       -0.11890911 0.211986 -0.14448169 -0.113137744
0003a0 63 20 b3 bd 9e 6b 43 be 7b 40 e8 3d 16 56 09 be
       -0.08746412 -0.19084021 0.11340424 -0.13411745
0003b0 f6 c9 e8 bc 77 68 80 be c3 f0 8d be 28 15 5d be
       -0.028416615 -0.250797 -0.2772275 -0.21590102
0003c0 1c e4 31 3e 05 2e ac bd f4 c8 c3 3d d6 42 2e 3e
       0.17372173 -0.08407215 0.09559813 0.17017683
0003d0 1a dc 8e be 06 63 d8 3d 0b 89 6c be ee 16 95 be
       -0.279023 0.10565762 -0.23099153 -0.29119056
0003e0 3b 3b 71 3e 18 dc 1b 3e 27 72 ce 3c f5 39 b8 3d
       0.23557751 0.15220678 0.025200916 0.089954294
0003f0 74 e7 88 bd 02 ff 27 3e 70 04 db 3c 91 7d d0 3c
       -0.06684771 0.16405872 0.026735514 0.0254505

lstm.weight_hh_l2 f4 [64, 16]
000000 4b ea ce bd 84 5d 7e 3e aa 2b ee bd d1 50 74 be
       -0.101032816 0.24840361 -0.11629422 -0.23858954
000010 fa 67 54 3d fc 23 75 3e 7a db 29 3c a1 4e 82 3d
       0.051856972 0.23939508 0.010367269 0.063626535
000020 d3 bb 58 3e cb 4e 30 3e e0 95 86 be 5b 15 87 3e
       0.21165399 0.17217557 -0.2628622 0.2638348
000030 04 26 cb 3d 5b 4f 5d bd 4c 45 33 be 40 94 ee bd
       0.0991936 -0.054030757 -0.17506903 -0.1164937
000040 51 17 e9 3d ef 9a 76 3e d0 41 53 3e 8e 63 28 be
       0.113814004 0.2408254 0.20630574 -0.16444227
000050 00 16 45 be 9f 8c 9b 3d f4 ee 02 be 21 2e 89 be
       -0.19246674 0.07595181 -0.12786466 -0.26793006
000060 aa f3 ca 3d fc 6c 58 be aa 53 1a bd da c3 27 3d
       0.099097565 -0.21135324 -0.037677445 0.040958263
000070 cd 96 08 be c4 88 fc bd 5c cf cf bd 25 08 05 be
       -0.13338776 -0.123307735 -0.101469725 -0.12991388
000080 fe 31 da bd 9e f5 25 be 69 6c c2 bd 75 4d b2 3d
       -0.106540665 -0.16206977 -0.09493334 0.0870618
000090 6d 5a f6 bd 34 5f 9c 3c ad 97 6b be b9 56 57 3c
       -0.12028966 0.019088365 -0.23007078 0.013143235
0000a0 a7 ca 27 be 7c 66 53 3d 27 51 38 3c eb a4 25 bd
       -0.163859 0.05161141 0.011249817 -0.04044048
0000b0 5f b0 9c bd fd db b9 3d 4f 0c 16 bd aa fa 38 be
       -0.076508276 0.090751626 -0.036632832 -0.18064371
0000c0 54 52 53 bd f1 a7 1e 3d 51 8a 08 be 0d f4 29 3e
       -0.051592186 0.03873438 -0.13334014 0.16597004
0000d0 28 de 0f 3e f5 c6 76 3e 53 a6 5c be d1 7c 87 be
       0.1404959 0.24099334 -0.21547823 -0.26462415
0000e0 a4 62 6d bd e6 49 30 bd 23 5e a3 3d 1a a7 aa 3d
       -0.0579554 -0.043039225 0.079769395 0.08332653
0000f0 3a 74 b8 bd ce 30 8d 3e 05 72 31 3e 4b a8 57 be
       -0.090065435 0.27576298 0.17328651 -0.21060292
000100 a6 c7 c8 3d e4 af 3d be e4 10 9c 3d de 3d 76 bd
       0.09803705 -0.18524128 0.07620409 -0.060117595
000110 42 49 d9 bc c2 d9 9b 3d 4e d9 8d be 86 1f 0c bd
       -0.02652419 0.076098934 -0.27704853 -0.03420975
000120 e9 6a 28 bd 6a ba 73 be 35 25 9f bc 4b f5 29 be
       -0.041117582 -0.2380158 -0.019426921 -0.16597478
000130 6a 1c 54 3e e0 ea 22 3e 78 84 ec bd 44 2e 9d 3d
       0.20713964 0.1590991 -0.11548704 0.0767484
000140 12 fb fe bd 4c 10 31 bd e9 3c f0 3d 0a a6 98 be
       -0.124502316 -0.043228433 0.11730368 -0.29814178
000150 85 26 9a 3e f0 b7 58 bd 08 1f a2 3e 5f d8 a7 3c
       0.30107513 -0.05290979 0.316643 0.020488916
000160 89 c4 db bc 18 09 88 3d 8c f1 b4 be 89 96 e0 bd
       -0.026827114 0.066423595 -0.35340536 -0.10966212
000170 9d 97 0a be e0 31 fd 3d e8 2c 93 3e c5 f7 96 bd
       -0.13534398 0.123630285 0.28745198 -0.07371477
000180 c0 01 56 bd d6 b6 45 3c 90 cd 84 bd f8 78 12 3e
       -0.052247763 0.012067517 -0.064845204 0.14303958
000190 90 c7 75 bb 67 d4 37 bd 1e b4 45 be b7 6f 6c 3e
       -0.0037502982 -0.044880297 -0.1930699 0.23089491
0001a0 d6 69 4f 3d 68 ab 59 3d f5 36 57 bd b0 cb ca bd
       0.050638042 0.05314198 -0.052542645 -0.099021316
0001b0 85 4d 5c bd a4 38 30 3e e7 b7 3f bd 09 dd 12 be
       -0.053784866 0.17209107 -0.046806242 -0.1434213
0001c0 cf a7 22 be 04 bb 7a bc da 22 1e 3e 49 3d 55 bd
       -0.15884326 -0.015303377 0.15442982 -0.0520604
0001d0 21 b7 74 bb b3 19 19 be 55 91 2c be ef 61 0a 3e
       -0.0037340599 -0.1495121 -0.16852315 0.13513921
0001e0 1f 0f 8c 3d 7a ef 08 be 96 fa 93 bc b6 d9 50 3c
       0.068388216 -0.13372603 -0.018063825 0.012747219
0001f0 da 61 6c 3e d7 67 eb bd ea 15 3b be 82 e6 02 bd
       0.23084202 -0.11494415 -0.18270078 -0.03195811
000200 09 35 9b 3d a3 5a 8d bd 31 e8 04 3e e8 a2 29 3e
       0.07578475 -0.06902053 0.12979199 0.1656605
000210 1d d3 90 3d 51 c2 11 3e 92 91 16 3e 85 af 1e be
       0.07071517 0.14234282 0.14703968 -0.15496643
000220 9c 50 91 3d 24 ec 23 3e c2 99 ba bc d5 39 92 3d
       0.07095453 0.16008049 -0.022778396 0.07139937
000230 ec 49 eb bd c5 97 db bd 3b cb 1b 3e e5 c2 19 3d
       -0.11488709 -0.10722307 0.15214245 0.03753938
000240 3b 27 ed bd d8 ba 8b bd 70 00 0d be b5 b7 22 bd
       -0.11579748 -0.06822747 -0.13769698 -0.039725978
000250 24 70 33 bd a9 ab 76 3e a4 a1 01 be b4 94 a4 3c
       -0.043808118 0.2408892 -0.12659317 0.020090438
000260 8b 76 9d bd 79 9b ed bd a4 e5 1a 3e c7 4b bb 3d
       -0.07688626 -0.1160192 0.15126663 0.09145313
000270 c7 1e 2d 3e b1 a9 3d be 86 e9 45 be 9b f3 c3 3d
       0.16906272 -0.18521763 -0.19327363 0.095679484
000280 b7 18 1d 3e 1a 61 a4 bd 11 21 8d 3d 34 67 66 3e
       0.15341459 -0.08026333 0.068910725 0.22500306
000290 35 7e d7 bd c8 cd dc bd 45 59 86 be 96 ad 09 3e
       -0.10522119 -0.10781437 -0.26239982 0.13445124
0002a0 55 b6 38 be 1b 07 1b be a2 17 6c 3d 83 ea 08 bd
       -0.18038304 -0.1513943 0.057639726 -0.033426773
0002b0 7c 27 3e 3d 4a 7e 7a 3e c4 f4 46 3c 21 dd 37 be
       0.046424374 0.24462238 0.012143318 -0.17955448
0002c0 9c e2 70 3c 63 15 36 be da d5 94 3c 45 e2 31 3e
       0.014702465 -0.17781596 0.018168379 0.17371471
0002d0 f9 00 25 3e f5 ee 8e 3e 61 1e dd 3d 9e 23 b7 3d
       0.16113652 0.27916685 0.1079681 0.0894234
0002e0 d7 8c 93 be f0 eb 17 be 8b 31 6d bd 76 b2 81 bd
       -0.2881839 -0.14836097 -0.057908576 -0.06332867
0002f0 0b 52 db bd c8 c4 22 3e 0d c5 18 ba 39 13 1c be
       -0.10709008 0.15895379 -0.00058277027 -0.15241708
000300 5f 56 1d be b9 8a 19 3e 84 4e 6d 3e 70 e9 6b 3d
       -0.15364979 0.14994325 0.23174483 0.05759567
000310 1f a0 dc bd ba 06 9e 3e 48 fa 71 3e bf 65 59 3e
       -0.10772728 0.30864507 0.23630631 0.2123022
000320 30 44 42 3d 85 5d 8d be 4f fa 3c 3e 50 9e f3 3c
       0.04742831 -0.27610412 0.1845486 0.029738575
000330 90 1c 51 3e af 30 c6 bd 04 54 45 3e 88 8f 46 3e
       0.20421052 -0.096772544 0.1927033 0.1939069
000340 8c 2f 88 be 9f 54 0f 3e 0c 79 63 3e 67 6b 11 3d
       -0.26598775 0.13997124 0.22214144 0.035502817
000350 f3 a7 cf bd 2d a1 c1 bd 86 94 3d bd 06 b7 46 3c
       -0.10139456 -0.0945457 -0.04628422 0.012128597
000360 15 7d 9f bd ee 32 1a be ed ce 58 be df c1 f7 bd
       -0.077875294 -0.1505849 -0.21172686 -0.12097525
000370 f4 58 90 bd ee 9e 8b 3d 3c eb 42 be 8b 56 24 be
       -0.070482165 0.06817423 -0.19035047 -0.16048639
000380 59 ce 8f 3d 8d 39 e1 bd be 94 2a 3e a7 05 4f 3e
       0.070217796 -0.10997305 0.16658303 0.20217
000390 d8 28 63 3e 5f f0 5c be ba 98 21 3e 56 5f b3 3b
       0.2218355 -0.2157607 0.15780917 0.0054740114
0003a0 83 da d0 bd 95 ff be 3d 6f 12 12 3e 35 22 22 3e
       -0.10197928 0.09326092 0.14264844 0.15833361
0003b0 45 cd cc 3c 1e 46 6f 3e 7e 5b 41 3a 94 76 06 3e
       0.025000224 0.23366591 0.0007375999 0.13131171
0003c0 d4 e3 b2 3d 94 29 9d 3c 47 a6 0a be c0 4d 5a be
       0.08734861 0.019184865 -0.13539992 -0.21318722
0003d0 9d 11 20 3e 07 33 4a be 09 93 af 3d f2 23 11 bd
       0.15631719 -0.19746028 0.085729666 -0.03543467
0003e0 22 62 ec 3b 0e ef 47 3d 16 b3 23 be c4 03 40 be
       0.007213847 0.048811965 -0.15986285 -0.18751436
0003f0 83 c3 8b 3e 1e 6d 2c 3e e2 ce a7 bd ea 98 07 3e
       0.272976 0.168385 -0.08193757 0.13241926
